model-fold-1.pth (torch, 432769 bytes, 12 tensors)

conv1.weight f4 [3, 1, 3, 3]
000000 12 c9 5f be bc 0c ae be 2c d8 c0 3d 0e 72 74 3e
       -0.21854046 -0.3399409 0.094162315 0.23871633
000010 da 68 cf be 97 b0 80 3d 20 bc 22 be 70 7d f0 bd
       -0.40509683 0.06283682 -0.15892076 -0.11742675
000020 07 0f e0 3e 20 06 80 be 11 55 ae 3c a9 5f c4 be
       0.43761465 -0.25004673 0.021280797 -0.38354233
000030 77 a4 a0 be cd 23 45 bf 1e 01 7b 3e dc 37 ce 3d
       -0.31375477 -0.7700775 0.24512145 0.10069248
000040 93 87 fa 3e fd 03 46 3f da 87 1d 3e a2 64 bd 3e
       0.4893156 0.77349836 0.15383855 0.3699084
000050 15 88 bd 3e bc 28 b5 3e 71 a0 0c 3f 5a 31 60 bf
       0.37017885 0.3538264 0.54932314 -0.87575305
000060 50 9f 27 3e c1 4d 19 bf 0f 06 36 bf
       0.16369367 -0.5988427 -0.71102995

conv1.bias f4 [3]
000000 f8 f1 1f 3e 37 10 6b be 57 51 f1 bd
       0.15619648 -0.22955404 -0.117830925

conv2.weight f4 [6, 3, 5, 5]
000000 79 6e ec bd 97 2b c1 3d e0 2f ed bd 86 0c 65 3c
       -0.115445085 0.09432142 -0.11581397 0.013980037
000010 b4 3d 02 3e a3 91 83 bd 4b 0f a7 3d f9 0c 0a 3d
       0.1271885 -0.064242624 0.08157214 0.033703778
000020 46 8e 2d 3d 0e 52 03 3e ad df 9b bd 59 c3 32 3d
       0.04237201 0.1282427 -0.07611022 0.04364333
000030 ef d3 00 be f7 e4 31 bc 39 11 8c 3b e1 88 ba 3d
       -0.12580846 -0.010857812 0.004274514 0.09108139
000040 50 76 5b bd a5 4d 02 3d 73 9b 00 3e a5 d4 4d 3e
       -0.05357963 0.03181233 0.12559299 0.20100649
000050 44 45 9d 3d 45 e8 b9 3d f6 e8 66 3d fa af ef 3d
       0.07679227 0.09077505 0.056374513 0.11703487
000060 eb 0e 40 3e fc 7d 60 be 96 dc 05 be e1 81 83 bd
       0.18755691 -0.21923059 -0.13072428 -0.06421257
000070 22 8b 30 bd fd 9a 52 3b 27 f1 88 bd 19 c5 ae bd
       -0.043101437 0.0032135837 -0.06686621 -0.08533687
000080 61 96 8e be 6d 3d 96 bd 02 a5 26 bd 2d 57 0b be
       -0.27849105 -0.07335935 -0.040684707 -0.13607474
000090 44 31 83 be 39 29 76 be 6c 41 8c bc df 71 3a 3d
       -0.25623524 -0.24039163 -0.01712104 0.045518752
0000a0 ad 92 9f bd de bd e2 bc 9c cf 86 be fa 17 85 bd
       -0.07791648 -0.027678426 -0.26330268 -0.06498714
0000b0 e9 b6 27 3d b0 af c8 3d 50 f1 aa 3c de 71 0d be
       0.04094592 0.09799135 0.02086702 -0.13812968
0000c0 be f3 65 bc dd 20 75 3e 40 0a be 3c 1a 7b 4a 3e
       -0.014035163 0.23938318 0.023198247 0.19773522
0000d0 a4 2d 9e 3d dd 3b 70 bc 92 de be bd d6 70 96 3b
       0.07723549 -0.01466271 -0.09319796 0.004591088
0000e0 ff 29 93 3e bd 10 4f 3d 80 5a 17 be 8f b9 0f be
       0.28742978 0.050553072 -0.14780617 -0.14035629
0000f0 8a 4e 95 3c 6c ae 33 3e b5 63 59 3d 2b 80 25 be
       0.018225927 0.17547005 0.053073604 -0.16162173
000100 69 74 87 bd d6 71 af bd 3c 62 6c 3e 34 86 00 3e
       -0.06614 -0.08566634 0.23084348 0.12551194
000110 82 f4 f1 bd e9 a4 54 3c c7 0a ea bd e5 de fd 3d
       -0.11814214 0.012978771 -0.11427837 0.123960294
000120 49 a9 c7 3d 3d f5 5d bd 75 6c 3a bd 4c 72 7a bd
       0.097490855 -0.054188956 -0.04551359 -0.06114416
000130 67 bb 4e 3b 00 d5 0c bd 89 e5 6c 3d d5 28 09 3d
       0.0031544806 -0.03438282 0.05783609 0.033486206
000140 b2 8b f1 bc b1 5f c5 bc 14 ff a3 bb 99 dc 42 3d
       -0.029485557 -0.02409348 -0.005004773 0.04757366
000150 b1 ee 17 be 46 70 0b 3a 62 1f 0f be 74 ff 23 3d
       -0.14837147 0.0005319159 -0.13976815 0.04003854
000160 64 25 04 be 15 ed 1d bc 38 4f c8 bd 9f 4d c6 bd
       -0.12904888 -0.009639044 -0.09780735 -0.09682774
000170 28 f3 b3 bc fb 0d ef bd 72 3c bd 3d 1e c2 23 3d
       -0.021966532 -0.116725884 0.09240045 0.039980046
000180 ba 1b 19 bd 02 62 22 be c2 2a a2 bd 6e c4 df bd
       -0.037379958 -0.158577 -0.07918312 -0.10926138
000190 f4 d6 97 3d 4d 66 4a bd 64 bb 6e be 0f 95 e1 3b
       0.07414046 -0.049413968 -0.23313671 0.0068842242
0001a0 b2 ab 4d 3e 94 10 88 3a f7 09 dc ba e3 27 93 bd
       0.20085028 0.0010380917 -0.0016787638 -0.07185342
0001b0 3b 0b 99 3b b1 90 d4 3d ff 57 57 bd 83 f2 9c 3d
       0.004670528 0.1037916 -0.052574154 0.07663443
0001c0 a0 f2 b5 bd 7a aa 3e 3d 0d 0a 84 3d 1c 5e 07 3e
       -0.08884168 0.046549298 0.064472295 0.13219494
0001d0 00 9c c8 3d 79 44 00 3e 6a 31 4c bc 9c a2 6b bd
       0.0979538 0.1252612 -0.012462953 -0.057528123
0001e0 ed de f4 bd 40 d7 28 be 71 f4 e5 3b fe 4a 0f be
       -0.11956582 -0.16488361 0.007017665 -0.13993451
0001f0 34 d3 77 be 93 a0 16 3e 9d e0 37 3e 97 89 06 3e
       -0.24201661 0.14709692 0.17956777 0.13138424
000200 bc b7 bd bc 67 79 34 bd 9d 99 89 bc 72 3b b2 3d
       -0.0231589 -0.04406109 -0.016796881 0.087027445
000210 1f 70 29 be 92 7c 86 be d8 e8 24 be 6c 1c 08 bd
       -0.16546677 -0.26266915 -0.16104448 -0.03323023
000220 3c 2d 89 be d1 dc 6c be 70 36 6e be 02 28 47 be
       -0.26792324 -0.2313111 -0.23262954 -0.19448856
000230 c6 7f 62 be f9 8f 0e be e8 44 5f be 32 be 66 bd
       -0.22119054 -0.13922109 -0.2180363 -0.056333728
000240 c0 54 b6 3d 83 dc e5 3d 6a 8a 8b 3c 35 f6 28 3e
       0.089028835 0.112237 0.017033774 0.1650017
000250 57 da 9c 3e 86 51 39 3e 54 5a c7 3c db 64 79 3d
       0.3063533 0.18097505 0.024335064 0.0608872
000260 16 a9 c1 bd 3c 28 26 3d f1 9e 9d 3c ef 02 b9 3d
       -0.09456079 0.040565714 0.019240828 0.09033763
000270 ad 3c 98 3d 19 35 11 3b 0c eb 08 3e 4d e7 66 bd
       0.07433448 0.0022156893 0.13370913 -0.05637293
000280 9e c8 61 3c a6 d8 e0 bd aa b5 66 3d d6 87 ff 3b
       0.013780741 -0.109788224 0.056325592 0.0077981753
000290 ab 51 57 3b 59 48 b7 bd eb ee 5a bd b4 e3 e8 bd
       0.0032855074 -0.08949346 -0.053450506 -0.11371556
0002a0 02 c9 fd bd 4a 2e bc bc 95 2a 4b 3b 3e 17 a4 3c
       -0.12391855 -0.022971291 0.0031000723 0.020030614
0002b0 45 0c ac bd f6 d1 88 bd 39 c0 0e bd c5 64 a2 bd
       -0.08400778 -0.06680672 -0.034851287 -0.079293765
0002c0 27 2b 55 3c ee 02 98 3d 64 3e 1a be ed 72 18 be
       0.013010777 0.07422434 -0.15062863 -0.1488759
0002d0 47 1c 82 3d 3f fc 19 3e 22 69 3f bd 10 fc f5 bd
       0.0635305 0.1503763 -0.04673112 -0.12010968
0002e0 69 e0 bf bd 17 57 5d 3e 3e f8 39 3e a3 b8 fe 3b
       -0.09368975 0.21615253 0.18161103 0.0077734753
0002f0 32 49 59 3d 08 a6 00 3e 7f ce 8d 3e 63 b5 88 3e
       0.05304832 0.12563336 0.27696607 0.26700887
000300 45 e4 bd 3d 3b 2c 69 3e af e2 7b bc 60 3b d4 3d
       0.092720546 0.22770779 -0.01537387 0.103628874
000310 5b d4 0e bd 1e 32 33 be 52 db 9d bd 7d 17 46 be
       -0.034870487 -0.17499587 -0.07707848 -0.19344898
000320 77 35 3c be 09 24 01 be 80 61 bc bc 8a 5d 89 3d
       -0.1837977 -0.12611403 -0.02299571 0.06707294
000330 41 05 a3 bd 26 50 30 be 1d d5 e3 bd 63 43 ca bd
       -0.079599865 -0.17218074 -0.111246325 -0.09876134
000340 bd b6 04 3d d3 91 00 bc d1 cc 19 be 0c 40 fb bd
       0.032400835 -0.007847267 -0.15019538 -0.12268075
000350 e3 3c 40 be fd ad 9f bc a5 1b 1b 3d 69 23 28 be
       -0.18773226 -0.019492144 0.03786816 -0.16419758
000360 91 cb 41 bc 76 0f 76 bc ff ac dd 3d 29 ff 08 3e
       -0.011828319 -0.015018335 0.10824012 0.13378586
000370 f9 db 35 be 3a 6a 30 be 56 bd 4c be 95 49 3c bd
       -0.17759694 -0.17228022 -0.19994101 -0.04596861
000380 48 50 2f 3c 15 f0 ee 3d 58 06 90 bd bf ca 04 3e
       0.010700293 0.11666886 -0.0703246 0.12967966
000390 d4 fb e1 bd b7 f9 03 bd 19 e3 3c 3e 1d 3e d5 3d
       -0.110343605 -0.03222057 0.18446006 0.10412238
0003a0 4d b3 c6 3d 3a d0 b4 bc 96 98 ba bb 7d 89 06 be
       0.09702168 -0.022071946 -0.005694459 -0.13138385
0003b0 06 b5 08 3d 71 d3 21 be 8c c0 33 3d 49 f7 fd bd
       0.033375762 -0.15803315 0.0438848 -0.124006815
0003c0 e4 a4 c5 bb c6 a3 4c bd 59 5e ab 3d 3f 28 08 3e
       -0.0060316194 -0.049960874 0.08367605 0.13296603
0003d0 03 60 d5 bb e3 23 3a 3d d3 b6 cc bc 20 90 4e bd
       -0.0065116896 0.04544438 -0.024989521 -0.050430417
0003e0 56 81 90 bd a3 e1 21 3c 90 44 0b be 2a f4 c8 3b
       -0.07055919 0.009880456 -0.13600373 0.0061326222
0003f0 67 f5 f7 bc 86 20 a7 bc eb a6 a6 bd 79 98 08 3e
       -0.030268384 -0.02040125 -0.08137306 0.13339414

conv2.bias f4 [6]
000000 5c 60 0c 3d 07 27 84 bd 7b 36 61 bd 32 e7 1c bd
       0.034271583 -0.064527564 -0.054983597 -0.038306423
000010 f8 2a 5d 3d 67 91 a2 3c
       0.053996056 0.019844724

conv3.weight f4 [16, 6, 7, 7]
000000 74 91 d7 3c 3e cf e2 3b f1 6c 50 3d 1e d6 0b bd
       0.026314475 0.006921678 0.050885145 -0.034139745
000010 b4 51 21 bd 05 8a 74 3c 97 82 ba bc 98 1d 5d 3b
       -0.03938456 0.014925485 -0.022767348 0.0033739563
000020 ab c3 16 3d 47 de 8b bd c8 ce 3a bd 67 2b 55 bc
       0.036807697 -0.068295054 -0.04560736 -0.013010836
000030 93 5f 0b bd e8 93 e5 3c 8a e5 01 3d ed 26 48 3d
       -0.034026694 0.028024629 0.031713046 0.048865248
000040 7c 18 a8 bb cd f2 12 3d 29 fb 05 3d 5d 2e 31 bd
       -0.005129872 0.035876084 0.032710228 -0.043257106
000050 c3 44 86 bc cc c4 2b 3c 43 68 0c 3d 6c 17 ad 3c
       -0.01639021 0.010483932 0.03427912 0.021129332
000060 ce 11 02 3d 54 a7 32 3d 31 39 d0 ba ba 8f aa bc
       0.03175526 0.043616608 -0.0015886185 -0.020820487
000070 01 09 7d 3c 6a fa 9e 3c 99 b3 9b 3b 71 24 0c bd
       0.015444041 0.019406516 0.0047516343 -0.03421444
000080 9f 0d 22 bd 0b fa 5a bd d3 14 30 3d 09 ab bf 3d
       -0.03956377 -0.053461116 0.04298861 0.09358794
000090 83 1a 8d 3d 12 08 94 bd 64 cf 8c bd 67 1b 97 bd
       0.06889822 -0.07228102 -0.06875494 -0.073782735
0000a0 9b 9d 48 3c 10 3c d6 3c b8 4a c7 3d b3 b2 71 3d
       0.012244607 0.026151687 0.09731048 0.05900831
0000b0 1a f3 04 bd a6 83 95 bd 3f 28 33 bd ee f3 e8 3c
       -0.032458402 -0.073005006 -0.043739554 0.028436627
0000c0 0b 2e 44 bd 9b d2 87 3d f1 3c 84 bd f5 f3 2c 3d
       -0.047895472 0.06631967 -0.06456936 0.042224843
0000d0 8f cf ed bb e8 d6 3a 3d a9 4d 1c bd b8 f0 ac bc
       -0.007257409 0.045615107 -0.03816 -0.021110877
0000e0 c2 da d7 3c 68 cb 84 bd 08 f1 22 bd 1a ee 21 bd
       0.026349429 -0.06484109 -0.039780647 -0.039533712
0000f0 42 31 03 3d 28 62 2c 3c 02 1c 09 bc 74 15 99 bc
       0.032029398 0.010521449 -0.008368494 -0.018686987
000100 1e f9 b3 3b 97 74 d8 bb f9 bc 6a 3d ab 96 bb bc
       0.0054923436 -0.0066056955 0.057309125 -0.022898993
000110 e5 fe 3d bc 07 0c e4 bc 6e 76 df bc 6d a3 10 bd
       -0.011596416 -0.027837766 -0.027278151 -0.035312105
000120 56 85 46 bd 5f 77 28 bd 0c e6 6b 3c 28 73 24 bc
       -0.048467003 -0.041129466 0.014398109 -0.010037221
000130 fe 94 af 3d 24 1a ee 3c cf 18 ed 3c 4a 7a 31 bd
       0.0857334 0.0290652 0.028942494 -0.043329515
000140 6f 18 2f 3d 01 fe ff 3b 80 29 44 bd 90 d0 a8 3d
       0.04274791 0.007812262 -0.04789114 0.08242905
000150 48 12 37 bd 5a bf 90 3b 74 71 20 3d e9 68 6f 3d
       -0.04469517 0.004417342 0.039170697 0.05844966
000160 ba 02 59 3d 1d 84 14 bd 9f c7 ff bc f3 eb 41 3d
       0.052981116 -0.036258806 -0.031223116 0.04734416
000170 3b 9e e2 3c 94 21 a8 bb 2b a4 a5 3c 4b d1 67 3d
       0.02766334 -0.005130956 0.020219883 0.05659608
000180 7b 7b df 3c 20 bc 19 bd de 2b 9f bc 1e 64 bb 3d
       0.02728056 -0.037532926 -0.019430097 0.09149955
000190 ef f5 86 3d 78 43 4d bc e2 ce f5 bc 9f 77 db bb
       0.06589877 -0.012528293 -0.030005876 -0.0066976096
0001a0 11 0b a5 ba db 0c a1 bd e4 44 6d 3d ac 57 84 bb
       -0.0012591799 -0.0786378 0.057927027 -0.0040387716
0001b0 94 28 1c bd 57 41 16 3d db 9d 43 3d e9 c3 8e 3d
       -0.038124636 0.036683407 0.047757965 0.06970961
0001c0 fa 3d a2 bc 6a 5a 3c 3d 42 4a 80 3d 3d c2 cd 3d
       -0.019804943 0.045984663 0.062641636 0.10046814
0001d0 b9 46 b5 3c 42 bc 83 bd 9b 9c 78 bd fe 8d 52 bd
       0.02212845 -0.06432392 -0.060696226 -0.051404946
0001e0 a9 04 af bc b7 72 3b bd 22 61 c2 bc 27 f7 26 bd
       -0.021364527 -0.045763697 -0.023727957 -0.040763047
0001f0 bf 72 0e 3d 4b e3 9b bd a7 12 5c bd 03 e7 30 bc
       0.0347774 -0.07611712 -0.053728726 -0.010797265
000200 a6 a0 f9 3c 4f a9 41 3d 2d cf 98 bd f3 89 a4 bb
       0.030472111 0.047280606 -0.07461391 -0.0050213276
000210 73 13 67 3d 0d ed 8d bd 3a 8f 94 bc 4d 28 5e 3c
       0.056415033 -0.069299795 -0.018134702 0.013559413
000220 0f 3c 36 3d b3 c8 82 bd f7 8a 7d bd 21 52 f8 bc
       0.04449087 -0.063859366 -0.061900105 -0.0303126
000230 f1 7e 56 3d db 20 2f 3d 25 1d 80 3c db 8b 57 bc
       0.052367155 0.042755943 0.015638897 -0.013155903
000240 e4 7a 9e 3d c1 f4 47 3c 8e 25 3c 3d a9 ad 25 3b
       0.07738283 0.01220435 0.045934252 0.0025280511
000250 43 ad 17 3d e8 dd 57 bd 9a fa 15 bd 51 da 90 bd
       0.03703047 -0.05270186 -0.036615945 -0.070728905
000260 17 29 53 3c 47 35 89 3d c7 2b 90 bd b3 43 87 3c
       0.012888215 0.06699615 -0.070396 0.016511774
000270 20 9b 8e bd 55 bd 43 3c e8 5e 0d bd bf 28 6d 3d
       -0.069631815 0.011946996 -0.034514338 0.057900187
000280 ea 94 06 bd 67 8f a6 bd ad 0c 3d bd 34 c0 87 bd
       -0.03285686 -0.081328206 -0.046154667 -0.06628457
000290 84 80 4b bc 26 ed 58 3c a4 3a 4c bd 8f 66 00 bd
       -0.012420777 0.013240134 -0.04986061 -0.031347807
0002a0 fd e7 28 3d fd ce 14 bd 1d 6a 15 bc 48 4f f4 ba
       0.041236866 -0.036330212 -0.009119538 -0.001863935
0002b0 ec f3 94 3d 93 bb 8e 3d 88 48 03 bd f4 4c e9 bd
       0.07273087 0.06969371 -0.032051593 -0.11391631
0002c0 76 d7 76 bc b2 33 ca bc 2a 16 8c 3c c9 9c e0 bc
       -0.015066018 -0.024682853 0.017100412 -0.027418511
0002d0 40 d6 fc bb eb d7 27 3d 8f d5 1c 3d 4b 0e 9e 3c
       -0.0077159703 0.0409774 0.038289603 0.019293925
0002e0 c7 a6 f1 3a eb 04 4f bc 38 a6 73 bc 88 00 cb bb
       0.0018436544 -0.01263545 -0.014871173 -0.0061951317
0002f0 82 c2 a2 3c 31 de 89 bd e5 7d 11 bd fd 7f b0 bc
       0.01986814 -0.06731833 -0.035520453 -0.021545405
000300 96 a5 34 bd b0 95 21 bd 07 32 16 3c 4d a6 9e bc
       -0.044103228 -0.039449394 0.009167201 -0.019366408
000310 ab c3 39 3d 0c 85 c1 3b 39 5a 0b 3d 72 ce 7c bd
       0.04535262 0.005905753 0.03402159 -0.06172032
000320 02 41 82 bc 51 67 08 bd 70 8b e9 3c 3e 82 24 3d
       -0.015900139 -0.033301655 0.028508872 0.04016327
000330 e1 dd d2 3c cf 0d 61 3d 06 28 84 bc 9a 14 07 3d
       0.025740566 0.05494481 -0.016132366 0.03297863
000340 7d 57 6d 3c c1 ff 00 bc 29 88 2f bd 77 69 7a bd
       0.014486191 -0.0078734765 -0.04285446 -0.061135735
000350 2e 8a 1a bd bb 45 9d bc 55 8a 41 bd 8f 6a 05 3c
       -0.037729435 -0.01919829 -0.047251064 0.008143081
000360 06 f1 c4 3b d2 fd be 3b 18 00 59 bd 43 67 23 bd
       0.0060101775 0.0058285976 -0.052978605 -0.0398934
000370 e7 18 ad bc 74 c2 80 bd 7c 94 3b 3d 39 58 05 3d
       -0.021130038 -0.06287089 0.045795903 0.03255484
000380 53 1e ca 3c 5e bd 27 3c 20 a7 07 bc 81 03 6a bd
       0.024672663 0.01023802 -0.008279592 -0.057132248
000390 01 80 71 3d e4 b7 8b 3c 51 a4 51 bd 21 52 86 bd
       0.058959965 0.01705546 -0.051182095 -0.065586336
0003a0 73 18 c8 3b d5 31 01 3d 26 8d ac 39 b9 79 49 bc
       0.00610643 0.031541664 0.0003291156 -0.012297087
0003b0 91 4e c6 bc 65 5c 8a bc a5 65 d3 b9 14 f7 49 bd
       -0.024207385 -0.01688976 -0.00040320787 -0.049307898
0003c0 fd a0 5a bd fe fe 6e 3d 22 24 da bc 88 55 4b 3d
       -0.053376187 0.05834865 -0.026628558 0.049642116
0003d0 29 24 73 ba 26 bf 14 bd 2e eb 16 3d 80 4e 1e 3d
       -0.00092751026 -0.036315106 0.03684538 0.038649082
0003e0 b4 81 a5 3c d1 ec 04 bd 44 38 fa b9 4d 41 40 bd
       0.020203449 -0.03245241 -0.00047725637 -0.046937276
0003f0 f0 ae 83 bd 70 2f 28 bd e9 b8 ae 3c 9c 3c 78 3c
       -0.06429851 -0.041060865 0.021328406 0.015151169

conv3.bias f4 [16]
000000 ee 4b 2b bd 63 8e 55 3d 55 dc 20 bc 37 ad 38 3d
       -0.04182046 0.052137744 -0.009818156 0.045087066
000010 be 58 54 bd 4a 69 43 3d 4e 96 3c bd 3b f1 3b bd
       -0.051842444 0.047707833 -0.04604178 -0.045884352
000020 01 21 35 bd 50 e0 c0 3c 10 e8 6e 3d 29 d2 3e 3d
       -0.044220928 0.02354446 0.05832678 0.046587143
000030 71 99 b9 bc a8 cc 68 3d 27 1b 32 3d f6 f5 c8 bc
       -0.022656174 0.0568358 0.043482926 -0.024531346

fc1.weight f4 [120, 784]
000000 2f 81 18 3c ad 78 18 bc f0 64 07 bd 5f 2d e3 bc
       0.0093081435 -0.009306115 -0.033055246 -0.027731596
000010 6d 73 24 ba 2b d4 85 bc c1 79 d4 bc dc 50 ea ba
       -0.00062733033 -0.016336521 -0.025936963 -0.0017876881
000020 48 f5 93 bc 6c 35 12 3d 86 e3 11 3c cb 4b 96 3c
       -0.018061295 0.03569548 0.0089043435 0.018346688
000030 19 b2 25 bd de 90 35 bb d1 e7 1a 3d ac 21 21 3d
       -0.04045305 -0.0027704756 0.037818734 0.039338753
000040 ef e3 b9 bc 85 d1 aa bc 41 a4 e9 3b 56 c9 b2 ba
       -0.022691695 -0.02085186 0.0071301763 -0.0013640325
000050 40 13 06 3c 66 14 8e 3c 55 86 c2 bb be 8d e3 bc
       0.0081833005 0.017343711 -0.005936424 -0.027777549
000060 b4 51 50 3c b8 6b 85 bb 4a 56 0d 3d 6d cb f1 bc
       0.012714792 -0.004071679 0.03450612 -0.029515946
000070 fd 39 d2 3c 3b 70 66 3c f4 0a 78 3c 7a fa 07 ba
       0.025662417 0.014064844 0.01513933 -0.0005187165
000080 45 5c 82 bb 80 c3 c2 3c aa e8 cb 3c 9c 53 4f 3c
       -0.0039782845 0.023774862 0.024891216 0.012654211
000090 3f 1f df 3c b6 01 84 3b c6 2a 00 3d 07 1e 35 3c
       0.027236579 0.0040285243 0.031290792 0.011054522
0000a0 41 ee 8e 3b 7c 72 7d 3c 4a 7a 3f ba 40 b8 fe bc
       0.004361898 0.01546919 -0.0007304294 -0.031093717
0000b0 30 ef f3 3b f3 92 35 bc c2 93 a2 3c 7c 91 c3 3c
       0.007444285 -0.011082399 0.019845847 0.023873083
0000c0 06 8b a2 bc 45 1f 2e 3d cf af ee bc 93 01 a7 bc
       -0.019841682 0.04251029 -0.029136566 -0.020386493
0000d0 27 f6 13 bd c9 f7 23 bd 3f 11 fd bc 62 e8 43 bb
       -0.03612342 -0.04003123 -0.030892013 -0.002989315
0000e0 bb 9f a9 bc 44 f2 ad bc ac 07 87 3c 14 96 c9 3b
       -0.020706048 -0.021233685 0.01648315 0.006151924
0000f0 b2 fa 00 3c cd 6b a1 bc 84 2e 05 3d cb 1e ef 3b
       0.00787227 -0.019704724 0.032515064 0.007297372
000100 2e b5 75 3b 01 94 25 bb 93 e5 cb bc ad 6c 64 bc
       0.0037492025 -0.002526522 -0.024889743 -0.013941926
000110 45 81 6e bd 69 e6 1f 3d 3e b2 22 bd 7a 57 0f bd
       -0.05822875 0.039038096 -0.039720766 -0.034995534
000120 b9 cd 26 3c df 20 09 3d 7d f1 92 bc 15 62 62 bd
       0.010180884 0.033478614 -0.017937416 -0.05526932
000130 3d f2 64 bc 6c 5f 90 bb 53 01 e5 3b 65 dd 7a 3c
       -0.01397377 -0.0044059064 0.0069886832 0.015311574
000140 a7 9a dd 3c 9b 45 bb 3a 0a d4 b2 3c fb 79 1e 3d
       0.027051283 0.0014287712 0.021829624 0.03869055
000150 ff d0 45 3d d2 87 49 3d 48 76 f2 bc 1b 68 84 bc
       0.048295017 0.049201794 -0.029597417 -0.016162923
000160 72 9f 35 bd 60 22 12 bd 8e 18 95 bb 66 e5 11 3d
       -0.044341512 -0.035677314 -0.0045500463 0.035619162
000170 38 97 ef 3c b7 6e 81 bc 15 94 55 3b e0 73 07 3d
       0.029246911 -0.015799863 0.0032589484 0.03306949
000180 e5 c9 13 3d d9 9e f4 3c f9 58 3d 3c 7b dd 06 3d
       0.036081214 0.0298609 0.011556857 0.032926064
000190 9f c5 a6 bc 86 c3 21 3d fd db 8a ba d1 d8 fe 3b
       -0.020357905 0.039493106 -0.0010594126 0.0077773114
0001a0 d9 36 94 3a 6b 50 89 bd 25 ce ad 3b f0 7f 84 bc
       0.001130785 -0.06704792 0.0053041154 -0.016174287
0001b0 54 46 39 3c 85 80 2f 3d 75 ba 34 3d dd 13 99 bb
       0.011308271 0.042847175 0.04412313 -0.0046715573
0001c0 2e ba c0 bc 38 1f a5 3c e7 d2 91 3d f8 65 89 3b
       -0.023526277 0.020156488 0.071203046 0.004193064
0001d0 aa 7f 0c bc 6a b7 39 3d 71 a5 ae bc a4 eb f7 bb
       -0.008575359 0.045340933 -0.021319123 -0.0075659323
0001e0 2e db 89 bb f0 6d b9 bc 88 7c 6a bc 9d a3 dc bb
       -0.0042070365 -0.02263543 -0.014311917 -0.0067333714
0001f0 9a 11 bd 3c 2a a0 e8 bc d7 c3 46 bd b2 b6 c2 3a
       0.023079682 -0.028396685 -0.04852661 0.0014855473
000200 39 13 0b 3d 64 42 0a bd 73 74 b1 bc eb 7d 34 bc
       0.03395388 -0.03375472 -0.021661973 -0.011016349
000210 0e 4f 2a 3d fb d9 9a 3c 08 29 a3 3c 85 7a c9 bc
       0.0415793 0.01890277 0.019917026 -0.024594555
000220 1f 0c fd 3c 8c 4b 8a bc 3c 50 85 3c a8 3a f5 3c
       0.030889569 -0.016881727 0.01627361 0.029935196
000230 64 fc e5 bb 01 db 44 bb cb b2 84 3c b6 36 85 3c
       -0.0070186127 -0.0030037763 0.016198536 0.01626144
000240 86 4f a3 3d f7 f3 d9 3c ee 65 39 3c da 64 c9 bc
       0.07974152 0.02660559 0.011315806 -0.024584223
000250 8a 97 8c bc 7a 97 e1 3c a3 81 db bc 13 5a 4b 3b
       -0.017162103 0.02753805 -0.026795214 0.003102903
000260 f0 79 8f bb 18 96 87 3c 24 4c 3e bc 44 5c 4a bc
       -0.0043785498 0.016551062 -0.011614833 -0.012351099
000270 ef e7 6c 3c 81 ac f0 bb ba ca af bc 7b 4f 4d bb
       0.014459594 -0.007344783 -0.021458972 -0.0031327892
000280 9f 4a ab bc 58 f2 27 ba 5a 51 0d 3d 29 88 10 3d
       -0.020909606 -0.00064066565 0.03450141 0.035286102
000290 d2 c5 0f bd cd e0 d8 bc 95 fb 2f bc 5f c3 d7 ba
       -0.035100766 -0.02647438 -0.010741134 -0.0016461423
0002a0 ff 41 eb 3c 66 a6 00 bd 41 2a f3 3c 42 54 f2 3b
       0.028717993 -0.03140869 0.029683234 0.007395298
0002b0 de aa d5 3c 38 e4 a6 3c ed b5 3a 3c ff 5f 00 bd
       0.026082452 0.020372495 0.011395914 -0.03134155
0002c0 fb 35 98 39 19 9b ec bc 45 84 6e 3c 9f 08 a9 bb
       0.00029031918 -0.02888255 0.014557903 -0.0051584984
0002d0 86 3a e1 3c 6c cb 8c 3c eb 51 cf 3c 46 34 03 bd
       0.027493726 0.017186843 0.025307616 -0.032032274
0002e0 b1 8b bb 3c fb fb 22 3d 8d 91 ad 3a 4e 73 f4 bc
       0.022893758 0.03979109 0.001324223 -0.029840138
0002f0 b9 fa 80 bc aa a3 8a 3c a4 30 7d 3c cc f3 a7 bc
       -0.015744554 0.016923744 0.015453491 -0.020501994
000300 98 fb d8 bb 55 81 02 3d c1 28 00 3a d0 f2 91 bb
       -0.006621789 0.031861622 0.00048888853 -0.0044539943
000310 b9 7a 5d 3d e9 d4 a5 bc e3 6d f7 3c 09 7c 29 bd
       0.054072116 -0.020243125 0.030203765 -0.041378055
000320 9f 08 02 bd 17 31 e4 3a 86 8d 9a bd c0 30 06 3d
       -0.031746503 0.001740965 -0.07546525 0.032761335
000330 22 ae 89 bb 87 99 16 3d e9 f4 e7 bb 67 ec 39 3b
       -0.0042016665 0.03676751 -0.007078756 0.0028369667
000340 69 f7 a5 bc 9f d9 15 3d e8 0c 04 3c 02 74 c3 bc
       -0.020259576 0.036584493 0.008059718 -0.023859028
000350 5e 8c 85 bc f4 9e 32 bc 4a 81 93 3b 7c d9 12 bd
       -0.016302284 -0.010902155 0.0045014964 -0.03585194
000360 2c 98 f2 3a 23 ba 56 bd 2f 3e fb 3b c5 10 f3 3a
       0.0018508486 -0.052423608 0.007667325 0.0018544426
000370 a9 70 d3 bb e7 31 29 3d 81 01 fe 3b 30 a6 26 bd
       -0.006452639 0.041307356 0.007751644 -0.040685833
000380 57 13 04 3d 86 8d 3b 3d 62 c0 1b bd 83 71 c8 bc
       0.032245006 0.045789264 -0.038025267 -0.02446819
000390 52 f4 93 3d 33 1c fe bc ac 47 2c 3b 5b 5b 3a 3c
       0.07224335 -0.031019306 0.0026287837 0.01137432
0003a0 89 34 8a 3b 60 fc ed bc 5a 5d ea 3c ad 4c 1c 3d
       0.0042176885 -0.029051006 0.028608967 0.03815906
0003b0 98 0a c4 bc 2f 38 70 3d 15 bf 25 3b 42 04 36 3c
       -0.023930833 0.05864733 0.0025290896 0.011109414
0003c0 65 14 ed 3c b4 b1 4c 3d 15 0a 6e 3c 6b 42 21 3d
       0.028940389 0.04997416 0.014528771 0.03936998
0003d0 7c 54 00 3d b3 6b 1e bc 7c a2 b4 3c 7d 16 19 bd
       0.03133057 -0.009669232 0.022050135 -0.037374962
0003e0 02 dc 16 bb 2c 20 10 3d 4d d4 96 3b 67 da 78 ba
       -0.0023019318 0.03518693 0.004602945 -0.00094929937
0003f0 77 35 0e 3d f1 8b 7b bc 80 f5 ee 3b 11 61 1a 3d
       0.034718957 -0.015353189 0.0072924495 0.037690226

fc1.bias f4 [120]
000000 d1 34 48 bc 57 bf ce 3c 21 a6 2e 3d 1d 41 3e bc
       -0.012219624 0.025237722 0.0426389 -0.011612204
000010 a5 93 b8 bc 7b 48 df 3c 1c 23 49 bc 61 e4 c0 3b
       -0.02253134 0.027256241 -0.012276437 0.0058866
000020 5b b4 8e 3c 86 30 32 39 35 c5 00 3c e5 6c 20 3c
       0.017419985 0.00016993479 0.007859518 0.0097915875
000030 db bd 4c bc a9 f5 58 3c a5 b4 1b 3c 8b 05 20 3c
       -0.012496437 0.013242164 0.009503518 0.009766947
000040 a9 d6 f1 3c 4f 28 8a bb 90 2c 01 3d 65 1c 58 bc
       0.029521303 -0.004216231 0.03153664 -0.0131903635
000050 09 56 16 bc 2a 6f 13 bd 63 79 ab bb cb 5b 9c bc
       -0.009175786 -0.035994686 -0.0052329763 -0.019086739
000060 82 8b d1 bb e8 d1 20 3c 03 45 d3 bc 59 f6 8e 3c
       -0.0063948045 0.009815671 -0.025789743 0.017451452
000070 4c 6e 80 3b 37 ff 8a bc 99 e6 01 3d 37 ab a4 bc
       0.0039193984 -0.016967399 0.031714056 -0.020101173
000080 89 23 d8 3c 48 ae 4a 3c f3 f9 23 bc 92 1c e9 bc
       0.026384132 0.012370653 -0.010008323 -0.028456006
000090 07 52 36 3c 0e 8b a8 bc 01 77 db bc 84 a7 80 3c
       0.011127955 -0.020574119 -0.026790144 0.015704878
0000a0 78 04 8e ba bf e5 3c 3c 2e d3 ad bb 4c 1b 14 bd
       -0.0010835072 0.011529385 -0.0053047156 -0.036158845
0000b0 a9 e9 c3 bc 97 b2 b4 bc e9 9d 03 3d 8c 2c ec 3c
       -0.023915129 -0.022057815 0.032133017 0.028829835
0000c0 93 c8 e0 3c 81 89 72 bc f6 3e 11 bc b7 f6 24 3c
       0.027439391 -0.014803291 -0.008865109 0.010068587
0000d0 eb 52 7c bb 77 03 a7 ba 3d 02 c1 3c 5e 45 be bc
       -0.0038501571 -0.0012742121 0.023560638 -0.023226436
0000e0 3c 4e 43 3c 43 ac b5 3c db 38 f6 3c 5c a2 4c 3c
       0.011920508 0.022176867 0.030056408 0.012489881
0000f0 aa 10 04 bd 51 3f 19 3d e7 7c b6 3b 3b 79 d3 3c
       -0.032242455 0.0374139 0.0055690887 0.025814643
000100 33 35 45 3c 2c 34 6a bc c4 76 bd bc 03 2f be 3c
       0.012036609 -0.014294665 -0.02312792 0.023215776
000110 fb e4 aa 3c 40 53 3a 3c b9 99 07 3c e2 27 42 3d
       0.02086114 0.011372387 0.008276396 0.047401316
000120 7d 3c 87 bc 79 7c 0d 3c c8 db 01 bc 30 56 de bc
       -0.016508335 0.008635634 -0.007925935 -0.027140707
000130 12 9b 3c 3c f2 19 79 3c ee 83 d9 bb 11 3b 70 3c
       0.011511581 0.01520394 -0.0066380417 0.01466252
000140 e6 51 93 3b a6 6b 01 bc 49 5e 8b 3c e9 78 d7 bc
       0.004495847 -0.007899201 0.017012732 -0.026302772
000150 98 05 b6 3c 40 d4 79 3b b3 00 4c ba a8 56 94 3c
       0.022219464 0.0038120896 -0.00077820866 0.018107727
000160 b4 07 8e 3b 58 e4 14 bc d8 85 dc bc af 56 9f 3c
       0.0043344144 -0.0090876445 -0.02691929 0.019450514
000170 b2 15 79 bc 7c 68 0d bd c2 bc 52 bc 0c bf 2d 3d
       -0.0152029265 -0.034523472 -0.012862386 0.042418525
000180 85 c7 b1 3c a0 00 78 3a d3 22 e8 bc c0 c9 ba bb
       0.021701584 0.00094605424 -0.028336918 -0.00570032
000190 c7 a9 87 3a 20 1f 65 bc e6 bd dd bc 9a 4e f5 bc
       0.001035028 -0.013984472 -0.02706809 -0.029944707
0001a0 6f 74 13 3d 2f 52 cc 3c 34 1d 06 bc 9c 58 d6 3c
       0.03599971 0.024941532 -0.0081856735 0.0261653
0001b0 dd 42 88 3c 04 00 18 3d ab b0 0f bd 19 40 d5 bc
       0.016633445 0.03710939 -0.035080593 -0.02603154
0001c0 8c 3d f2 bb 50 b1 e3 bc 77 ca ab 3c 28 38 00 bd
       -0.007392591 -0.02779451 0.020970566 -0.031303555
0001d0 8e 2d 01 bc 15 96 2c bc ea ec 10 bc fa c7 f8 bc
       -0.007884396 -0.010533829 -0.008845547 -0.030368794

fc2.weight f4 [60, 120]
000000 b0 aa f7 3a a3 43 12 bc 2f 45 aa 3d 6d 5a 27 3d
       0.0018895473 -0.008927259 0.08313977 0.04085772
000010 71 52 d4 bd 29 db b3 bd 5d 8b 9d bc 49 70 47 3d
       -0.10367287 -0.08782036 -0.019231493 0.048691068
000020 2f 71 79 bd 3e 44 dd 3d 76 e2 1f bd bd c2 62 3d
       -0.060898956 0.10804032 -0.03903433 0.0553615
000030 60 3a 68 bd a5 4a 21 bd 82 c9 ac 3d cb b7 35 bd
       -0.056696296 -0.039377827 0.08436872 -0.04436473
000040 ee 6b dd 3c 74 34 05 bd ee 97 5a 3d 19 7d 32 bd
       0.027029004 -0.032520726 0.053367548 -0.043576334
000050 c7 79 de 3c 21 df f0 3c 73 c6 a8 3d 1d 49 94 3d
       0.027157677 0.029403271 0.08240976 0.07240508
000060 9b a8 10 bd 1f f1 df bd d4 8b 30 bd 04 38 98 bd
       -0.035317045 -0.10934662 -0.0431021 -0.07432559
000070 bb 8f e9 bc 3e e8 03 3d 47 f8 5a bc df b3 3e bd
       -0.028510919 0.032203905 -0.013364858 -0.046558257
000080 64 fd ee bd 2f c4 83 bc 63 52 82 3c 7d 56 d4 bc
       -0.11669424 -0.016084759 0.015908426 -0.025920147
000090 37 0c 16 3d ab 32 7e 3d ae 50 a9 3d 6e ed cd 3d
       0.036632743 0.06206004 0.082673416 0.10055052
0000a0 58 0d e6 bc 14 50 b4 bd 29 1e 64 3c 60 38 cc 3d
       -0.028082535 -0.08804336 0.013923206 0.0997169
0000b0 84 70 a2 bd e7 d8 52 bd b4 d5 5e 3d b4 20 de 3b
       -0.07931617 -0.051476385 0.054403022 0.006778801
0000c0 9c c8 89 bd af 96 b7 bd 79 9a 96 bb 59 1b 28 bd
       -0.06727716 -0.089642875 -0.0045960513 -0.041041706
0000d0 ee fa 23 3d 37 dd ee 3c e8 7a 86 3c 32 0d 70 3d
       0.040034227 0.029158218 0.016416028 0.058606334
0000e0 ea 91 82 bd dd cb 1c bd 41 6c a8 3d 67 98 84 3c
       -0.06375487 -0.038280357 0.08223773 0.016185952
0000f0 42 9a 7b 3d 56 8d 72 bd b9 df 6b 3d 29 c6 d3 bd
       0.06142641 -0.05921682 0.057586405 -0.103405304
000100 2f 27 e5 bd 3f f5 a6 bd 8f 1c 8a 3c 9d 9b c8 bd
       -0.11189114 -0.08152246 0.01685932 -0.09795306
000110 aa e0 bb 3c 52 d8 75 bd 37 f0 6e bd e0 9f 50 bd
       0.022934277 -0.060020752 -0.058334555 -0.05093372
000120 9a e8 32 3d 7d c1 76 3d fa 47 f0 b9 45 e9 79 3d
       0.043678857 0.06024312 -0.00045829994 0.06101348
000130 84 34 a5 3d c6 c0 a4 bd b4 5b e7 3d 95 ed 17 3d
       0.08066657 -0.08044581 0.11296788 0.03709181
000140 14 d4 1a bd 7a f5 c1 3d 32 d2 56 3d c4 f8 f3 3b
       -0.03779991 0.09470649 0.05244655 0.0074454267
000150 29 35 19 3d ab 46 a1 bc 56 74 81 3d 8d 47 14 bd
       0.037404213 -0.019687017 0.063210174 -0.03620105
000160 f9 b2 cd bd 0d 2f 4d 3c 1b d3 86 bd fe 6e 70 3d
       -0.10043902 0.012523425 -0.06583234 0.0586996
000170 45 95 d0 bd 50 a6 45 3d 77 4f 8a bd 7c d9 e9 bc
       -0.10184721 0.04825431 -0.06753438 -0.028546087
000180 b7 cc 46 bc 09 22 1a 3d 7f 47 44 3d 2f 7a 6f bd
       -0.012133769 0.037630115 0.047919746 -0.058466133
000190 d4 80 a5 3d b0 a7 40 3b 7b ee 83 3c 81 eb ad 3c
       0.08081213 0.0029396825 0.016104927 0.021230461
0001a0 78 92 63 3d cb 02 6c bd 30 8b 99 bd 98 01 2e 3d
       0.055559605 -0.05761985 -0.07497251 0.04248199
0001b0 b2 89 19 3d 5e 5e 78 bd 68 5e 39 3d 78 22 aa bc
       0.037484832 -0.06063687 0.04525605 -0.02076839
0001c0 86 65 85 bc da 69 e6 bc c6 72 e9 bc e8 83 36 3c
       -0.016283762 -0.028126646 -0.028497111 0.011139847
0001d0 b3 b6 e4 3d b7 a6 2d 3d cf d0 ab 3d 97 ce 84 bd
       0.111676596 0.04239532 0.083894365 -0.064847164
0001e0 3e a9 43 3d d0 92 9d bd 24 28 ce bd de 70 c6 3c
       0.047768824 -0.07694018 -0.1006625 0.024223741
0001f0 a7 68 7f 3d 45 09 43 3d 59 3a 6d bc e6 b6 52 3d
       0.062355664 0.047616262 -0.014479243 0.051443957
000200 d9 77 cd bb d5 35 72 bd 6b 08 3d 3d 1a 46 80 bc
       -0.0062703905 -0.05913337 0.046150606 -0.015658427
000210 1e 41 52 3d 55 cd 12 bb 99 e4 4a 3d fb 3b 8c bd
       0.05133163 -0.002240022 0.049534414 -0.06847378
000220 67 23 84 bd 03 d5 d6 3d 78 68 c8 bd 6d 99 52 3d
       -0.06452065 0.104898475 -0.09785551 0.05141585
000230 13 21 26 bd 79 92 1b 3b 91 ef 98 3d d6 25 59 bd
       -0.040558886 0.0023738428 0.07467569 -0.0530146
000240 86 4b ac bd c2 67 99 3b 79 a0 7c bc 0c c7 d5 3b
       -0.084128425 0.0046815583 -0.015419119 0.0065239724
000250 20 90 f8 3c 46 27 63 bd c0 c0 7b 3d 7e ad 96 3d
       0.030342162 -0.055457376 0.061463118 0.0735731
000260 b0 b0 92 bd 9f 54 9a 3b 04 01 01 bd db 1b 57 bd
       -0.07162607 0.0047097947 -0.03149511 -0.0525168
000270 53 d3 87 bd a8 80 5f 3d cc c9 85 bd ca c7 3b 3d
       -0.06632104 0.054566056 -0.0653263 0.04584483
000280 80 83 91 bd 9a 91 e4 bc 93 65 97 bd 9c 1a 81 bd
       -0.0710516 -0.02790146 -0.073924206 -0.063039035
000290 6e 7b 08 bd 3c 5d 9d bd b0 00 9b bd bd c2 ad 3d
       -0.033320837 -0.07683799 -0.075684905 0.08484409
0002a0 d3 9d 17 be 67 04 43 bd a2 be 19 bd 7a ae d5 3c
       -0.14806299 -0.04761162 -0.037535317 0.026084173
0002b0 06 1a 0b 3d 94 17 8e 3d af 3c 7f bd f2 6d 11 bd
       0.033960365 0.06938091 -0.06231373 -0.035505243
0002c0 60 2a 8a 3d f1 a7 a8 3d 19 44 5a 3d 4e bb a2 bd
       0.06746364 0.08235157 0.0532876 -0.07945882
0002d0 f6 02 44 bc 09 15 f4 3c ce 7b 22 3d 22 4d 90 bd
       -0.011963597 0.029795187 0.03966885 -0.07045962
0002e0 6b 63 87 bd e0 42 8d bd 43 5e e1 bc 3e c2 a3 3d
       -0.06610759 -0.06897521 -0.027510768 0.07996033
0002f0 f5 83 9e bc 85 6a 05 3d 92 11 83 3d 26 e5 5c 3d
       -0.019350031 0.032572288 0.06399836 0.05392947
000300 fd 50 8d bd 84 b8 73 3c d3 70 80 3c f9 3d 24 bc
       -0.06900213 0.014875535 0.015678799 -0.010024541
000310 bd dd 75 bd 32 41 8a 3d 81 4e 61 bd ce f1 ec 3c
       -0.06002592 0.06750716 -0.055006508 0.028923895
000320 18 c4 13 3d 05 6f 74 bd 85 b4 a3 bd ce 20 9d 3d
       0.03607568 -0.05967619 -0.07993416 0.076722726
000330 ca 8e 90 3b 73 26 ca 3b bc 0d af 3d c9 cf 1e 3d
       0.004411553 0.0061691343 0.085475415 0.038772378
000340 c5 02 93 3d 4e d4 e1 bc 63 da a4 bd 77 f5 cb bd
       0.071782626 -0.027567055 -0.080494665 -0.09958928
000350 d1 c0 7b 3d b2 f3 8c 3c 20 36 28 3d 40 4d d2 bc
       0.06146318 0.017206047 0.041067243 -0.025671601
000360 16 6c 97 bd 3c cf b8 bc fb 6a 7e bc 52 c7 46 3d
       -0.07393663 -0.022559755 -0.015528436 0.04852993
000370 3a d6 37 3d 1a 69 20 3d 17 80 46 3d e9 0b 6d bc
       0.044882037 0.039162733 0.048462 -0.014468172
000380 30 5f ae ba cd 44 d6 bc e3 61 51 3d 1d 70 cb bd
       -0.0013303515 -0.026155854 0.051118743 -0.09933493
000390 c7 40 6a bd 65 b2 c7 bd ca e6 ae bd 63 e8 86 3d
       -0.057190683 -0.09750823 -0.08540113 0.06587293
0003a0 69 5c f1 bc cc 8d be bd ab 64 53 3d 0f 40 6b 3d
       -0.02946301 -0.09304389 0.051609676 0.057434138
0003b0 a5 2c 52 3c c5 63 c9 bd 52 8a de bd 93 59 11 3d
       0.012828027 -0.09833483 -0.10866226 0.035485815
0003c0 30 10 4f 3a ff 28 1c bb 78 2c d4 bb 4f 3e aa 3d
       0.00078988355 -0.0023828147 -0.0064750277 0.08312666
0003d0 26 7d 90 bd a2 91 87 bd d7 ff 3e bd d7 1f 87 3d
       -0.0705512 -0.06619574 -0.046630707 0.0659787
0003e0 87 7e 73 bc 5e 33 a9 bc 6e 80 ab 3d 59 5d 9a 3d
       -0.014861709 -0.020654377 0.083741054 0.07537336
0003f0 77 17 22 3c 30 4e 50 bd aa 3b b1 bc de 60 fd bd
       0.00989329 -0.050855815 -0.021634895 -0.123719916

fc2.bias f4 [60]
000000 ef 38 28 bd cc e2 7b bd cb f2 99 bc bb e4 26 bd
       -0.04106992 -0.061495587 -0.01879253 -0.040745478
000010 63 cc 8d 3d bf 23 a0 3c 11 c3 f6 bc 45 a7 92 bd
       0.06923749 0.019548295 -0.030122312 -0.071608104
000020 18 39 a1 bd ef 32 9b bc cd 65 34 3d a0 9e af 3d
       -0.07872218 -0.018945185 0.044042397 0.08575177
000030 eb 7f ab bd ca fb b9 bd 85 ef 77 bc 0b 88 9c bd
       -0.08374008 -0.09081228 -0.0151327895 -0.07643136
000040 da 46 ea 3d d0 0c 33 bd 8a 22 1d 3d 22 8d a9 3d
       0.11439295 -0.04371339 0.038363017 0.08278872
000050 e4 6a cf 3b 23 5c 8d bd 66 32 a7 b9 71 24 8e 3d
       0.006329881 -0.06902339 -0.00031890272 0.069405444
000060 0e e3 02 3e 6c bf 81 bd 49 31 70 3d 7a d5 d5 3c
       0.12781927 -0.06335339 0.058640752 0.02610277
000070 0a 16 ba 3c a2 be 24 bd 5f f3 b0 3d 66 1b 33 3c
       0.022715587 -0.040220864 0.08640169 0.010931825
000080 bd b1 0e bd f5 2f 6d 3d 57 b6 c2 3d 8f 16 a4 3c
       -0.034837473 0.057907064 0.09507435 0.020030288
000090 55 77 f0 3b f9 45 d6 bc a1 dc 3c 3d f7 39 7a 3d
       0.0073384442 -0.026156412 0.046108846 0.061090436
0000a0 8d ab 78 bd 2c 74 d0 bd 38 e3 20 3d 0a 90 48 bd
       -0.06071048 -0.10178408 0.039279193 -0.04896549
0000b0 19 23 0c 3d 57 8f 08 3d 12 90 c7 3b 02 5f 34 3d
       0.03421316 0.033339825 0.0060901726 0.04403592
0000c0 cb 70 ec 3c 94 4a e6 bc 65 b8 90 3d 29 c9 d3 3b
       0.028862378 -0.028111733 0.070664205 0.006463189
0000d0 d5 7e 99 3d 81 a2 e0 bb 03 6a 27 bc ef f0 9e bb
       0.074948944 -0.0068553095 -0.010218146 -0.004850499
0000e0 85 a1 79 3d 56 49 b0 bc 95 07 0f bd c2 e7 a0 3d
       0.060945053 -0.021519344 -0.03491934 0.07856704

fc3.weight f4 [11, 60]
000000 f9 ef ac 3c a0 40 84 bc fe c2 95 bd ca 82 9c bd
       0.021110522 -0.016144097 -0.073125824 -0.076421335
000010 2e e1 d9 3d 08 a8 17 be 78 dd 9e bd ab d4 00 3e
       0.10638653 -0.14810193 -0.077570856 0.12581126
000020 31 ab 5e 3e 0e 7f 1f be 18 3f 21 3e 93 53 4f 3c
       0.21744992 -0.15575811 0.15746725 0.012654203
000030 7e 4c 77 3a 9c b8 b9 3d db d6 fe bd 6a e2 47 bd
       0.00094337005 0.090684146 -0.12443324 -0.04879991
000040 14 b3 23 bd 97 22 5f 3d e6 df 89 3c d1 a8 73 bd
       -0.039965704 0.054476347 0.016830396 -0.059487168
000050 d0 c5 83 3c 8c 04 45 bc be d7 16 bd 38 e3 89 bd
       0.016085535 -0.01202501 -0.03682684 -0.06732792
000060 db db 0f 3c 55 f0 bc bd 58 f3 db 3d d4 2e 2b 3e
       0.008780445 -0.09225527 0.107397735 0.16717082
000070 5e 7b c5 3d 0d e5 3a 3b d1 75 a9 3d c9 ff 21 3e
       0.09642671 0.0028517873 0.08274425 0.1582023
000080 76 26 a4 bd 4c 4b a8 3d 85 42 2d be 52 98 02 be
       -0.08015148 0.08217487 -0.16919906 -0.12753418
000090 a8 2f ae bd f4 ac a3 3d 3c b1 e8 3c 4f 47 85 bd
       -0.085051835 0.079919726 0.028404824 -0.06507742
0000a0 ce c2 1e bc d9 c5 dc 3c 56 b7 ce bd 7d 09 42 3d
       -0.00969 0.02694981 -0.10093562 0.04737233
0000b0 6b 68 e7 bd 5d 9b 3d be 49 74 ea ba 5a 71 ca 3d
       -0.11299213 -0.18516298 -0.0017887439 0.09884901
0000c0 3e ef 5c 3c bc 8e b2 bb c8 1d 05 3e 88 63 c5 bd
       0.013484774 -0.005449144 0.12999642 -0.09638125
0000d0 1d d0 25 3e 21 8d f3 bd f0 a7 06 be b1 b9 f7 bd
       0.1619267 -0.118921526 -0.1315 -0.12095965
0000e0 fb 9c 20 3d e6 f0 0e 3d fa 04 b5 bd 2c c9 c1 bd
       0.03921221 0.034897707 -0.0883884 -0.094621986
0000f0 0d a8 15 3e 45 0c b6 bc 5d 63 72 bd 4d 85 84 bd
       0.14614888 -0.022222647 -0.05917679 -0.064707376
000100 1f 30 db bd 31 0a 77 be b8 cb 15 bd a8 56 9f 3b
       -0.10702538 -0.24124981 -0.036571234 0.004862625
000110 40 f1 f5 3d 2d b2 1f 3e ec 46 be 3d e6 4d 6a 3b
       0.120089054 0.15595312 0.09290871 0.0035751997
000120 c1 3f 3e 3d a3 5c 35 3e f3 b7 83 bd 7a 6d 36 3e
       0.04644752 0.1771112 -0.0643157 0.178152
000130 d4 e4 06 be 38 21 ce bd 64 de 07 3d 09 4c 85 3d
       -0.13173229 -0.1006493 0.033171073 0.06508643
000140 0c 73 8f 3d 0c 26 5a 3d f8 9a 9e bd de 52 7f bc
       0.07004365 0.05325894 -0.07744402 -0.015583722
000150 d4 f7 2c bd 3c 6f 7f 3c ec 68 9b 3d 1a cc 0c 3e
       -0.042228535 0.015590485 0.07588372 0.13749734
000160 db 4d c9 bd 0a 41 c5 bd 73 19 0e 3e 62 f0 15 bd
       -0.09829303 -0.09631546 0.13876896 -0.0366062
000170 4a ad 01 3d f7 d1 31 3d 34 4c 4b 3d 1f 5e 36 be
       0.031659402 0.04341313 0.04963322 -0.17809342
000180 c1 90 43 bd 51 99 f7 bd 3a 2b 48 bd fd 43 de 3c
       -0.04774547 -0.1208979 -0.04886935 0.027132029
000190 6e f4 c7 bd 36 c0 1c 3e b7 2e d9 bd b5 e8 c9 3d
       -0.09763418 0.15307698 -0.10604613 0.098588385
0001a0 bf d2 58 bd 83 8c 55 bc 5d 3a e9 3d d8 31 bf 3d
       -0.052935358 -0.013033989 0.11388085 0.09335679
0001b0 68 fe 32 bd c6 f7 be bd 63 ad ec bd eb 08 a0 bd
       -0.043699652 -0.09324603 -0.115565084 -0.07814201
0001c0 fc 56 75 bb 1c c5 12 3d 27 1b 01 3e fb d2 67 be
       -0.003743588 0.03583251 0.12608014 -0.22639076
0001d0 43 f1 85 3d b8 ab 13 bd 27 46 cc bd 98 90 a5 3d
       0.06540158 -0.036052436 -0.09974318 0.0808422
0001e0 a5 0e 20 be 98 40 9d 3c 8b db ac bd e4 de d6 3b
       -0.15630586 0.01919584 -0.08440312 0.0065573324
0001f0 d2 ef cb bd d7 55 1d be 20 e1 c3 bd 1a d2 02 be
       -0.099578515 -0.15364777 -0.095644236 -0.1277546
000200 73 33 1c be fe ac fc bc 81 3c 47 3d 22 21 a7 3c
       -0.15254001 -0.030844208 0.048641685 0.020401541
000210 c3 dd a5 3d a2 e2 34 bd 76 02 84 be 2e a0 cd 3c
       0.08098938 -0.044161446 -0.25783128 0.025100794
000220 c5 ee e8 bd a9 d0 18 3e f7 f9 c7 bd 3a 5e dc bd
       -0.11373667 0.14923348 -0.09764474 -0.1076016
000230 25 ab 13 3d 43 5d 1c bc 5c 51 52 bd 82 6f 99 bd
       0.036051888 -0.00954372 -0.05134712 -0.074919716
000240 2e 49 ad bc 13 e6 b7 bd 31 5b 13 be 34 87 fd 3d
       -0.021153059 -0.0897943 -0.14390256 0.123793036
000250 fd c1 11 3e 4a e4 99 bd f0 b1 6b bc 10 6c 04 3e
       0.14234157 -0.07514246 -0.014385685 0.12931848
000260 86 e6 73 3d 0f 4b fd 3c 1f 3b bb 3d 1f ba cc 3d
       0.059546016 0.03091958 0.09142136 0.09996437
000270 f6 c7 83 3d ee 81 c3 bc e3 72 c5 3c 04 73 86 3e
       0.06434624 -0.023865666 0.024102634 0.26259625
000280 4c ff a3 bd 45 da fb bc 6f 48 a4 3d 0b 90 85 bc
       -0.080076784 -0.030743727 0.08021628 -0.016304037
000290 1c af 01 3e 3b 6a 13 3e 9f d1 12 bd b0 0d 0d 3e
       0.12664455 0.14395992 -0.03584444 0.13774753
0002a0 d2 a8 d8 3d d5 19 2b 3e 02 7a 6b 3d a3 98 93 3d
       0.10579075 0.16709073 0.057489403 0.072068475
0002b0 3e c1 88 bd 7d cc 92 3d 43 96 06 3e df 1c 82 bd
       -0.06677483 0.07167909 0.13143258 -0.06353163
0002c0 f9 8e d6 bd 9a 27 0c 3d 6f df eb bb d6 65 9c 3d
       -0.104764886 0.034217454 -0.007198266 0.07636611
0002d0 e5 bf a6 3d 2d 08 bb 3d 6e 26 d5 bd 9a 97 9c 3c
       0.0814207 0.09132419 -0.104077205 0.019115258
0002e0 a6 d9 fa 3d f8 69 26 3d a9 7c 59 3d b1 38 1d be
       0.122485444 0.040628403 0.0530974 -0.15353657
0002f0 c8 f9 11 3c 3e c1 0b bd e2 a0 fb bd e8 79 50 bd
       0.00890965 -0.034119837 -0.12286545 -0.05089751
000300 6f 48 24 3e 09 76 ef 3d a7 74 25 be a4 70 c2 3d
       0.16043256 0.11692435 -0.1615778 0.09494141
000310 02 dd 3a 3e ff 5f 1e bc 91 d6 8b 3d 60 65 ff bd
       0.1824837 -0.009666442 0.06828035 -0.124705076
000320 78 a9 14 3d 82 0b bd 3d e1 53 da 3d d2 a7 80 3d
       0.03629443 0.092307106 0.1066053 0.06282009
000330 0e c7 bc bd ed 29 08 3e eb 27 b9 3c e0 f5 a5 3d
       -0.09217654 0.13297243 0.022602042 0.081035376
000340 ae 4b 5b bd be 42 ad 3d 30 21 1e 3e 75 76 91 3d
       -0.05353897 0.08459996 0.15442348 0.07102672
000350 8a 33 8a bc 97 97 f1 bc 41 76 81 3d 7a 8c e9 3b
       -0.016870279 -0.029491229 0.06321383 0.007127342
000360 bc 10 b3 3d 86 c3 06 3e 42 28 29 3e f1 06 bf bd
       0.08743426 0.13160524 0.16519263 -0.09327496
000370 99 2b 96 3d 60 82 f5 bd df a2 e9 bd a8 8b f6 bd
       0.07332534 -0.11987758 -0.11408018 -0.12038356
000380 95 69 b2 3d c0 94 80 bd 62 77 68 bd 55 59 d1 3d
       0.087115444 -0.06278372 -0.056754477 0.10222117
000390 65 18 48 bc f8 05 d4 3c d1 20 6d 3d a5 b8 a2 3d
       -0.012212847 0.025881752 0.057892624 0.079453744
0003a0 30 a0 49 be 8b 07 ed bd 03 a0 da 3c 14 6d 4f 3c
       -0.19690013 -0.11573704 0.026687628 0.012660284
0003b0 c3 f9 77 3d ae 6a 37 3e 49 ca 3d 3e a4 f5 aa 3c
       0.060540926 0.17911789 0.18534197 0.020869084
0003c0 8d 8c c1 bd 65 ca 12 be e8 bd 1f be 7e e9 a7 3d
       -0.09450636 -0.1433502 -0.15599787 0.08198832
0003d0 f8 c5 ff 3a cf b6 32 3e eb a0 a8 3d 3e 58 34 3c
       0.0019513955 0.17452548 0.08233818 0.011007367
0003e0 87 5e e3 3d 0c 42 4d 3d 6b 8a 57 bb 1b 05 d4 bd
       0.11102014 0.050111815 -0.00328889 -0.10352536
0003f0 3c 48 b6 bb 27 bf 49 bd f5 05 9c 3d 2c 66 0c be
       -0.00556281 -0.049254563 0.07618324 -0.1371085

fc3.bias f4 [11]
000000 65 26 29 bd b2 54 6c be 97 f1 b1 3d 23 96 da 3c
       -0.04129638 -0.23079184 0.08688658 0.026682919
000010 e8 f8 23 be c6 73 52 3c e4 c6 5a bd 70 0c 12 3d
       -0.16012919 0.012844985 -0.053412333 0.035656393
000020 24 e6 22 bd c4 86 b3 3e da 66 8d 3d
       -0.03977026 0.35063756 0.06904383
