model-fold-4.pth (torch, 432769 bytes, 12 tensors)

conv1.weight f4 [3, 1, 3, 3]
0	0xbe475bd5	-0.19468625
1	0x3e91a226	0.28444022
2	0xbf1c8434	-0.61139226
3	0x3ed11216	0.4083411
4	0x3f25b7d9	0.64733654
5	0x3eb094bd	0.34488478
6	0xbe3e20c2	-0.18567184
7	0x3f031c62	0.51215184
8	0xbf9d3597	-1.2281979
9	0x3cf9dc0c	0.030500434
10	0x3eae1cdf	0.34006402
11	0x3eb8a24e	0.3606133
12	0xbde8f212	-0.11374296
13	0xbe9800dc	-0.29688156
14	0x3d2932c7	0.04130819
15	0xbe9fd626	-0.3121807
16	0xbeab6f22	-0.33483225
17	0xbe1bf313	-0.15229444
18	0xbe0016ce	-0.125087
19	0xbcf0551d	-0.02933746
20	0x3c5eb069	0.013591864
21	0x3cd389db	0.02582257
22	0x3d187b70	0.037227094
23	0x3deb5aee	0.11491953
24	0x3da39bbc	0.07988688
25	0x3e34c98e	0.17655012
26	0x3e5ac3b0	0.21363711

conv1.bias f4 [3]
0	0x3e1dee18	0.15422857
1	0x3cfa3c4f	0.030546336
2	0x3e8f6c30	0.28012228

conv2.weight f4 [6, 3, 5, 5]
0	0xbced3c32	-0.028959367
1	0xbdfcc38a	-0.123419836
2	0xbe376ed4	-0.17913371
3	0xbdbddbb8	-0.09270424
4	0xbe15fc42	-0.1464701
5	0xbdf047d8	-0.11732453
6	0xbd14556b	-0.036214273
7	0xbdc396ee	-0.09550272
8	0xbe299dea	-0.16564146
9	0x3be4d9a3	0.006983952
10	0xbdffc80a	-0.12489326
11	0xbdce999a	-0.10087891
12	0xbe0bf9fc	-0.1366958
13	0xbb90ad49	-0.0044151885
14	0xbe16c746	-0.14724454
15	0xbd2450ad	-0.040116
16	0xbe0c3226	-0.13691005
17	0xbcac6e8f	-0.021048812
18	0xbda57969	-0.08079798
19	0xbdcd85dc	-0.10035297
20	0xbd764251	-0.060121838
21	0xbd47be78	-0.04876563
22	0xbde43631	-0.11143149
23	0xbdadb301	-0.08481408
24	0xbdb6b731	-0.0892166
25	0xbd95e7a0	-0.073195696
26	0xbc928ba1	-0.017888846
27	0xbd991165	-0.07474021
28	0xbc99fb0e	-0.01879647
29	0xbdbb1653	-0.091351174
30	0x3d5b2a76	0.05350729
31	0x3de7cd7d	0.11318491
32	0xbc30673a	-0.010766799
33	0xbd85f53b	-0.065409146
34	0x3d4dfeef	0.05029195
35	0xbd38b6b0	-0.0450961
36	0xbae22db3	-0.0017256051
37	0x3dc800c5	0.09765772
38	0x3d3d8703	0.046271335
39	0x3d2973f5	0.04137035
40	0xbd1d87c9	-0.038459573
41	0x3d49874e	0.049201302
42	0x3bc4b9df	0.006003603
43	0x3cf3e63a	0.029772867
44	0x3dbf050f	0.09327137
45	0xbdcfc3ff	-0.10144805
46	0xbd80754c	-0.062723726
47	0x3dad31e4	0.084567815
48	0xbd1b2230	-0.0378744
49	0xbcb2f440	-0.021844983
50	0xbe1cc813	-0.15310697
51	0xbd21ba21	-0.039484147
52	0xbc80a4ce	-0.015703585
53	0xbe1f8f6a	-0.15582052
54	0xbca0ed97	-0.019644542
55	0xbdf6f07e	-0.12057589
56	0xbdf01a5c	-0.11723778
57	0xbcf44df3	-0.029822325
58	0xbe5ccd1b	-0.21562617
59	0xbdcea2d7	-0.10089653
60	0xbe19cfe5	-0.15020712
61	0xbd87f9da	-0.06639452
62	0xbcde825c	-0.02716177
63	0xbe26d3da	-0.16291752
64	0xbd9a0b05	-0.07521633
65	0xbdfd421b	-0.12366124
66	0xbc156f6d	-0.009120804
67	0xbe54c3c5	-0.20777805
68	0xbd0e2ead	-0.034712482
69	0xbdf71553	-0.12064614
70	0xbe30051b	-0.17189448
71	0xbdbcd69f	-0.09220623
72	0xbbdd6922	-0.0067569176
73	0xbb7f57a9	-0.0038962162
74	0xbe268147	-0.16260253
75	0x3cf2a334	0.029618837
76	0xbc213f60	-0.00984177
77	0x3a581c8d	0.00082440005
78	0xbdb0afbc	-0.08627269
79	0x3c13e96b	0.009027819
80	0x3df90908	0.12159926
81	0x3cbd2609	0.023089426
82	0xbd9e15c6	-0.07718997
83	0x3d851867	0.06498795
84	0x3d58ab83	0.05289794
85	0xbdb7f546	-0.08982329
86	0x3d2d62ee	0.042330675
87	0x3df5053a	0.119638875
88	0xbde6bfb7	-0.112670355
89	0xbd943817	-0.07237261
90	0xbc4d5091	-0.012531416
91	0xbd00ddce	-0.03146153
92	0xbdbb7379	-0.09152884
93	0x3dc5a3d7	0.096503906
94	0xbe01efea	-0.12689176
95	0x3c895745	0.016765246
96	0xbd5747c0	-0.05255866
97	0xbd22a417	-0.03970727
98	0x3e072e57	0.13201271
99	0x3ba3a550	0.004994072
100	0xbd6db7b3	-0.058036517
101	0xbd3bd47d	-0.04585694
102	0xbdc2bd4d	-0.095087625
103	0xbd955c9e	-0.07293056
104	0x3ddebe97	0.10876196
105	0x3d894625	0.06702832
106	0xbd934db9	-0.07192559
107	0x3da22f8e	0.079192266
108	0x3d75aa89	0.059977088
109	0xbd029f25	-0.031890053
110	0x3de876d3	0.11350789
111	0x3de74f49	0.11294419
112	0xbdbf586c	-0.09343037
113	0x3da7f958	0.082018554
114	0xbdc20c51	-0.094750054
115	0x3d9664e0	0.07343459
116	0xbd9ee1d2	-0.077579156
117	0xbd4ee448	-0.050510675
118	0x3d2b1a28	0.04177299
119	0x3bd0a618	0.006367456
120	0x3c774759	0.015092694
121	0x3d35850a	0.04431633
122	0xbd7ad483	-0.061237823
123	0x3d041b8d	0.032252837
124	0xbda4461e	-0.08021186
125	0xb88362fc	-6.265004e-05
126	0xbd3be7c9	-0.045875344
127	0xbd6db872	-0.05803723
128	0xbca77436	-0.020441156
129	0xbd943bc8	-0.07237965
130	0x3c85d1f5	0.016335467
131	0xbd0ecc54	-0.03486283
132	0xbd99b62a	-0.07505448
133	0xbde722c6	-0.112859294
134	0xbdf2bb55	-0.11852137
135	0x3dd883c1	0.10572005
136	0xbd891a89	-0.06694514
137	0xbcb60bef	-0.022222487
138	0xbddadc71	-0.10686577
139	0x3b2589c3	0.0025259114
140	0x3dbe2ff1	0.09286488
141	0x3dc35f0d	0.09539614
142	0x3db33740	0.087507725
143	0xbba74248	-0.005104337
144	0xbdca7c07	-0.098869376
145	0xbd071914	-0.0329829
146	0x3d25abdd	0.040447105
147	0x3dc10880	0.09425449
148	0x3dbf3464	0.093361646
149	0xbd9761a3	-0.073916696
150	0xbd6cf0f0	-0.057846963
151	0x3d96c4c5	0.073617496
152	0xbb0ad28a	-0.002118262
153	0x3db445c7	0.088023715
154	0xbc8f25e0	-0.017474115
155	0x3d4228ee	0.047402315
156	0x3d100b73	0.03516717
157	0xbddbceee	-0.10732828
158	0xbd509c4e	-0.050930314
159	0xbde34b46	-0.11098342
160	0x3d4cd434	0.05000706
161	0x3d5d6ee9	0.05406085
162	0xbdb888ee	-0.09010492
163	0x3cea1b33	0.028577423
164	0xbbee9c42	-0.007281811
165	0xbdb099bd	-0.08623073
166	0xbc783e18	-0.015151523
167	0x3d48df96	0.049041353
168	0xbde741aa	-0.11291821
169	0xbcce524f	-0.025185732
170	0xbdf88579	-0.12134833
171	0xbdf510e3	-0.119661115
172	0x3d32339c	0.04350625
173	0xbd926531	-0.07148207
174	0xbd70a9d0	-0.058755696
175	0xbd8472dc	-0.0646722
176	0x3c6879c6	0.014189189
177	0x3d52c8e4	0.051461115
178	0x3dcfc4f6	0.10144989
179	0xbbe3cee4	-0.0069521535
180	0xbd641bcf	-0.055690583
181	0x3c888d2f	0.016668884
182	0xbddd930d	-0.10819063
183	0xbd98063d	-0.07423065
184	0x3cbc7057	0.023002787
185	0x3b1002b0	0.0021974258
186	0xbde0a7ac	-0.10969481
187	0xbd3cde65	-0.04611053
188	0xbde59a2b	-0.11211046
189	0x3ce0f147	0.0274588
190	0xbd5bdce5	-0.05367746
191	0x3dad5966	0.08464317
192	0x3ce1d8fe	0.02756929
193	0xbd8b6b96	-0.0680763
194	0xbd72592c	-0.059167072
195	0x3d501f7f	0.050811287
196	0xbc8acf89	-0.016944664
197	0x3db2dd1d	0.0873358
198	0xbde0314d	-0.109469034
199	0xbdc67527	-0.09690314
200	0xbdcc34e1	-0.09971023
201	0xbdb1f7e5	-0.0868986
202	0x3c943556	0.018091839
203	0x3d1cdb49	0.038295064
204	0x3b8090df	0.00392352
205	0x3c5457ae	0.012960358
206	0xbdc68762	-0.09693791
207	0xbdc8b677	-0.098004274
208	0xbd82c3ea	-0.06385024
209	0xb9f9ce2a	-0.00047646585
210	0x3d34a8c3	0.044106256
211	0xbcc0fe82	-0.023558859
212	0x3d17c6e3	0.037054908
213	0xbce5bd1e	-0.02804428
214	0xbd18afb0	-0.037276924
215	0xbd80f620	-0.062969446
216	0x3d70ca42	0.058786638
217	0xb8ff8b9c	-0.00012185352
218	0x3d8e27dd	0.06941197
219	0xbce4a418	-0.027910277
220	0xbdfc86f5	-0.123304285
221	0x3c49c523	0.012315067
222	0xbe0720af	-0.13196062
223	0x3d87af8f	0.06625282
224	0x3cfe050e	0.03100827
225	0x3e3462e9	0.17615856
226	0xbe5f1642	-0.21785834
227	0xbcbadcba	-0.022810329
228	0x3e284612	0.1643298
229	0xbdad7a3d	-0.08470581
230	0x3e1a8a4d	0.1509182
231	0x3d9a64cf	0.07538759
232	0x3d050fc5	0.032485742
233	0x3e2bbd2c	0.16771382
234	0x3e8d1f2f	0.27562854
235	0xbd0934d2	-0.03349764
236	0xbd65c394	-0.05609472
237	0xbdef834f	-0.11694967
238	0xbe79b782	-0.24386409
239	0x3e02afd0	0.1276238
240	0x3e88c810	0.26715136
241	0x3d1cde1b	0.038297754
242	0xbc63f2ba	-0.013912851
243	0x3e83128f	0.25600097
244	0xbded6a1b	-0.11592504
245	0x3e2c02ab	0.16797893
246	0x3e9d2309	0.30690792
247	0x3c192082	0.009346129
248	0x3e937ac5	0.28804603
249	0xbdfa2a22	-0.122150674
250	0xbc304e0a	-0.010760793
251	0x3df017e5	0.117233075
252	0x3b742161	0.003725134
253	0x3db9dfd0	0.09075892
254	0xbd941ef3	-0.072324656
255	0x3dbe6e93	0.09298434

conv2.bias f4 [6]
0	0xbc26e877	-0.01018726
1	0x3d14a280	0.036287785
2	0xbda9eb3c	-0.082968205
3	0x3d98d5a3	0.07462623
4	0xbd01703c	-0.031601176
5	0x3dce7bc3	0.100821994

conv3.weight f4 [16, 6, 7, 7]
0	0x3d252106	0.040314697
1	0xbd1a43de	-0.03766238
2	0x3d4934b2	0.04912252
3	0x3c189a6b	0.00931416
4	0xbd041019	-0.032241914
5	0xbbbc78e3	-0.0057517155
6	0x3d066bb2	0.03281755
7	0x3cd621aa	0.0261391
8	0x3d52015c	0.051270828
9	0x3d5090f1	0.050919477
10	0xbc39b819	-0.011335396
11	0xb9c522c5	-0.00037600673
12	0xbd665c4d	-0.05624037
13	0x3b2c466a	0.0026287087
14	0x3d370d30	0.04469031
15	0xbce76064	-0.028244205
16	0xbbb3f15e	-0.0054914197
17	0xbc93e996	-0.018055718
18	0x3d6622e8	0.056185633
19	0xbcf5c04f	-0.029998926
20	0x3d315f71	0.04330391
21	0xbd319f0e	-0.043364577
22	0x3ced09e5	0.028935382
23	0xbd3a23d2	-0.045444317
24	0x3bdbef12	0.006711849
25	0x3c675636	0.014119675
26	0xbd066682	-0.032812603
27	0xbd4ccea0	-0.05000174
28	0x3c9b1b02	0.018933777
29	0x3d52666b	0.051367205
30	0xbcbbe74a	-0.022937436
31	0xbc509447	-0.012730665
32	0xbd34fe33	-0.044187736
33	0x3cccd8fa	0.025005806
34	0x3d3e6269	0.04648057
35	0x3cfa027b	0.03051876
36	0x3cecf5b6	0.028925758
37	0x3cb5eacb	0.022206685
38	0xbd437a37	-0.047723975
39	0xbce3a34e	-0.02778783
40	0x3c1dbb7a	0.009627217
41	0xbd2b9c34	-0.041897014
42	0xbd471cd0	-0.048611462
43	0x3b699587	0.0035642104
44	0xbd411ede	-0.047148578
45	0x3ccd5fca	0.02507009
46	0x3d212315	0.039340097
47	0x3ca6b6d1	0.020350846
48	0xbc8f2e39	-0.017478095
49	0xbd77379c	-0.060355768
50	0xbd509025	-0.050918717
51	0xbc99b4bf	-0.018762944
52	0xbc85c92f	-0.016331283
53	0xbc8c6073	-0.017135834
54	0x3cebec00	0.028799057
55	0xbd5ef62d	-0.05443399
56	0xbd78bb46	-0.060725473
57	0x3c24ff11	0.010070578
58	0x3b5675df	0.0032724065
59	0xbce42ab3	-0.027852392
60	0xbccd4adf	-0.025060115
61	0x3d3ef07c	0.046616063
62	0x3d67b9cd	0.056573678
63	0x3cded11a	0.027199317
64	0xbd060800	-0.032722473
65	0xbd59cf55	-0.053176243
66	0x3d0ec365	0.03485431
67	0xbd60bdaf	-0.054868396
68	0x3ca0cdd6	0.0196294
69	0x3d79ed73	0.061017465
70	0xbc989f3b	-0.018630615
71	0x3c433f84	0.011916999
72	0xb997edd9	-0.00028978175
73	0xbcecfc44	-0.028928883
74	0x3cf21b19	0.029553937
75	0x3d3f373c	0.046683535
76	0xbd3b619c	-0.045747384
77	0xbc035167	-0.008015013
78	0xbc27e0da	-0.01024648
79	0xbd0f55e8	-0.034994036
80	0xbc4e05d2	-0.01257463
81	0xbb43f20a	-0.0029898905
82	0xbcf9d17b	-0.030495396
83	0x3cf29927	0.029614044
84	0xbd2cab7c	-0.042155728
85	0xbad433f3	-0.0016189798
86	0xbcfca0a3	-0.030838316
87	0xbd2f1225	-0.042741913
88	0x3c44caa6	0.012011206
89	0xbc432a39	-0.011911922
90	0x3c53fc5f	0.012938588
91	0x3ba3cf16	0.004999052
92	0x3d1b4b54	0.037913635
93	0x3c668b08	0.014071234
94	0x3baa0b3c	0.0051893275
95	0xbd5ef53d	-0.054433096
96	0x3d30ecdf	0.043194648
97	0xbc5f8058	-0.013641439
98	0x3c82a3e7	0.015947295
99	0xbcffd517	-0.031229539
100	0xbc8b44ce	-0.017000582
101	0x3b2c8385	0.002632351
102	0x3d031a12	0.032007284
103	0x3d1d043c	0.038334116
104	0x3cfe150c	0.031015895
105	0xbc980799	-0.01855831
106	0x3c7ffc27	0.015624083
107	0x3d6ccd62	0.057813056
108	0x3d343f87	0.044005897
109	0xbbca2110	-0.006168492
110	0x3a34cac7	0.0006896671
111	0xbd3a7024	-0.045517102
112	0x3bd460c6	0.006481263
113	0xbcb343a6	-0.021882843
114	0x3cc5d698	0.024150178
115	0xbd325a9a	-0.043543436
116	0x3b7cc5b0	0.003856998
117	0x3ba849d3	0.0051357537
118	0xbc9a5475	-0.0188391
119	0x3cc20a1d	0.023686463
120	0x3c8d1fd6	0.017227095
121	0x3cdb309e	0.02675658
122	0x3931c076	0.00016951733
123	0x3c877dfb	0.016539564
124	0x3d27bd9b	0.040952306
125	0x3d64aa49	0.05582646
126	0x3b49efff	0.0030813215
127	0x3cd20922	0.02563912
128	0x3ccc38e9	0.02492948
129	0xbcd7d23e	-0.026345368
130	0x3d0638ce	0.032769017
131	0xbc6679dd	-0.01406714
132	0xbd3d7d1a	-0.046261884
133	0xbd694807	-0.056953456
134	0x3a95739a	0.001140225
135	0x3d2143e0	0.03937137
136	0xbc95052f	-0.018190948
137	0x3d4fcdee	0.0507335
138	0xbd2040a2	-0.03912414
139	0x3cbc28da	0.022968698
140	0x3d57d989	0.052697692
141	0x3d28c2df	0.04120147
142	0xbccb1c6d	-0.024793828
143	0xbd2b9a0f	-0.04189497
144	0xbcff7d05	-0.031187544
145	0x3b4f97c1	0.0031676146
146	0xbc9aaf09	-0.018882291
147	0xbb81af0b	-0.0039576343
148	0x39a05ba0	0.00030585844
149	0xbc830dd2	-0.015997801
150	0xbd615140	-0.055009127
151	0xbd6c55d9	-0.05769906
152	0xbd7ab526	-0.061207913
153	0xbc2ae55e	-0.010430662
154	0xbc11a997	-0.008890531
155	0xbd64d469	-0.055866633
156	0xbc4fc186	-0.012680417
157	0x3cc132da	0.023583818
158	0x3c6dd17d	0.014515278
159	0xbd8dfcec	-0.06933007
160	0xbd5dcc66	-0.054150008
161	0x3c96f195	0.018425742
162	0xbd8d9ddf	-0.06914877
163	0xbd6edbb1	-0.058314983
164	0xbcb89f52	-0.022536907
165	0x3d3a4853	0.04547913
166	0xbd7fd1d0	-0.062455952
167	0x3c914e37	0.017737491
168	0x3aefbb82	0.0018290135
169	0xbda0e7a1	-0.0785668
170	0x3cbf6e06	0.023367893
171	0xbd3ccde1	-0.04609478
172	0xbd51a712	-0.05118472
173	0x3b7829c9	0.0037866703
174	0x3cb21d86	0.021742593
175	0x3b19ab08	0.002344789
176	0xbd989872	-0.07450952
177	0x3cff27b7	0.031146867
178	0xbc4e138e	-0.012577904
179	0x3c570aa5	0.013125096
180	0xbd4668ef	-0.048439916
181	0x3da7c771	0.08192337
182	0xbd449d43	-0.04800154
183	0xbd2863d4	-0.04111083
184	0x3d8e35e7	0.06943875
185	0x3a7136de	0.0009201596
186	0xbd902f28	-0.07040244
187	0xbd39e48a	-0.045383967
188	0x3da8b80f	0.082382314
189	0xbd144d00	-0.036206245
190	0xbd9f2803	-0.077713035
191	0x3bc975ee	0.0061480915
192	0xbad27138	-0.001605547
193	0xbd194e53	-0.03742821
194	0xbb3db4b6	-0.0028946823
195	0xbd5aace8	-0.053387552
196	0xbc75a269	-0.014992335
197	0x3d6d3e2a	0.057920612
198	0xbca41b05	-0.020032415
199	0x3c813585	0.01577259
200	0x3cdb5264	0.026772685
201	0xbd420da5	-0.047376294
202	0xbd569bad	-0.052394558
203	0xbcc4ad56	-0.024008434
204	0x3d8adc85	0.06780342
205	0x3ca95a4f	0.020672945
206	0xbd1a50fb	-0.037674885
207	0xbcd369ba	-0.02580725
208	0x3d1b74f4	0.037953332
209	0xbcd59850	-0.026073605
210	0xbcd9db86	-0.026593935
211	0x3bcd5ac5	0.006266924
212	0xbda69fe5	-0.08135966
213	0xbd3c42a2	-0.045961984
214	0x3d6522d7	0.05594143
215	0x3d88d4e8	0.06681234
216	0xbcb0f280	-0.021600008
217	0x3d28bd4d	0.041196156
218	0xbc82b38d	-0.015954757
219	0x3c94632f	0.0181137
220	0x3c18cea1	0.009326608
221	0x3d28c8bd	0.041207064
222	0x3d00e90e	0.03147226
223	0xbb96e153	-0.0046044975
224	0xbb841bd5	-0.004031638
225	0x3d226b3f	0.03965306
226	0x3c7fc09c	0.0156098865
227	0x3d821cb9	0.06353135
228	0x3b258f7f	0.0025262532
229	0x3d7fb11f	0.062424775
230	0x3bf2862a	0.0074012475
231	0x3c8cee0c	0.017203353
232	0x3c38f5f9	0.011289113
233	0xbd65fdb0	-0.05615014
234	0x3d98b259	0.07455892
235	0xbd204bb6	-0.039134704
236	0xbd17a98e	-0.037026934
237	0x3c1cca8d	0.009569776
238	0x3d47b6a5	0.048758168
239	0xbd7deec4	-0.061995283
240	0xbd36d7d8	-0.04463944
241	0x3bd3d426	0.006464499
242	0xbd10fc92	-0.03539712
243	0xbc55b29d	-0.013043073
244	0xbd9c6f20	-0.07638383
245	0xbd02ff31	-0.03198165
246	0x3d95ad75	0.07308475
247	0x3d47932a	0.04872433
248	0x3d0d4867	0.034492876
249	0x3d1b63ab	0.037936848
250	0xbd81ee3a	-0.06344266
251	0x36a81c24	5.010066e-06
252	0x3c38826b	0.011261563
253	0x3cd714a8	0.026254967
254	0x3bfa5702	0.0076397667
255	0xbd7c78f8	-0.061638802

conv3.bias f4 [16]
0	0x3d75633b	0.059909087
1	0x3d3b836c	0.04577963
2	0xbd1bded2	-0.038054295
3	0x3cc8b17b	0.024498692
4	0xbc9a632a	-0.018846113
5	0xbcd1adbe	-0.025595542
6	0xbc831551	-0.016001375
7	0xbd08d4bc	-0.033406004
8	0x3b62457f	0.0034526286
9	0xbc7bc172	-0.015365945
10	0x3c11e859	0.008905494
11	0xbac83a85	-0.0015276229
12	0xbcaf90ea	-0.021431405
13	0xbd066728	-0.03281322
14	0xbd668707	-0.056281116
15	0xbb47566d	-0.0030416504

fc1.weight f4 [120, 784]
0	0x3c9cfcfc	0.019163601
1	0x3c69072d	0.014222902
2	0x3c982feb	0.018577537
3	0x3ca4a78b	0.020099422
4	0x3cf7e8b4	0.030262329
5	0x3b84b9b8	0.0040504597
6	0x3b84a352	0.0040477896
7	0xbc88629e	-0.016648587
8	0xbd024268	-0.03180161
9	0x3d0766cf	0.03305703
10	0xbba479d9	-0.005019408
11	0xbcf1443c	-0.029451482
12	0x3c7c5431	0.015400932
13	0x3cd61cda	0.026136804
14	0x3c65ba1d	0.014021424
15	0x3c26a0a8	0.010170139
16	0xbc0c905e	-0.008579342
17	0xbc30d521	-0.010793001
18	0xbcb441ca	-0.022004027
19	0xbcd94299	-0.026521014
20	0xbcbf2015	-0.023330728
21	0xbc2caa6d	-0.01053868
22	0xbcdd24ad	-0.026995027
23	0x3c21046a	0.009827713
24	0x3d159be1	0.03652561
25	0x3d076721	0.033057336
26	0xbbd38713	-0.006455311
27	0xbc824163	-0.01590032
28	0x3d2deb3a	0.042460658
29	0x3cd0cb03	0.025487429
30	0xbcf33723	-0.029689377
31	0xbcd17c37	-0.025571926
32	0x3c7650ae	0.015033884
33	0xbb6034d8	-0.0034211185
34	0xbd1b6308	-0.03793624
35	0xbc72576a	-0.014791349
36	0x3cbc4067	0.022979928
37	0x3c8f9919	0.017529057
38	0x3cb82cfa	0.022482384
39	0x3cbe5ab8	0.023236617
40	0x3bde7be2	0.0067896703
41	0x3cdd1cf2	0.026991341
42	0xbc263a39	-0.010145717
43	0x3c3e1d0b	0.011603604
44	0x3ce1292b	0.02748545
45	0x3bad0911	0.005280622
46	0x3cca2dcc	0.02468004
47	0x3cf76a42	0.030202035
48	0xbb8cad8f	-0.0042931507
49	0x3d31a11b	0.043366533
50	0x3d40ea74	0.047098592
51	0xbcb91ce1	-0.022596778
52	0xbcb910b7	-0.022590978
53	0xbc22967c	-0.009923574
54	0x3d172676	0.036901914
55	0xbd01a51d	-0.031651605
56	0x3d07485f	0.033028003
57	0xba91061b	-0.0011064442
58	0xbc5bb474	-0.013409723
59	0x3adc83eb	0.0016823983
60	0xbc75cbe5	-0.0150022255
61	0xb985e40e	-0.0002553765
62	0xbcb7ddda	-0.022444654
63	0x3b9331eb	0.0044920347
64	0xbc3e1d21	-0.011603625
65	0xbc0a0673	-0.008424389
66	0x3d5e35eb	0.05425064
67	0xbcbb8d2e	-0.022894468
68	0x3cd3a9aa	0.025837738
69	0xbcd7131c	-0.02625423
70	0x3c854449	0.016267912
71	0xbbd148d6	-0.0063868565
72	0xbb6b6295	-0.0035916914
73	0x3d29d2ca	0.04146079
74	0x3cc4987f	0.023998497
75	0xbc832efe	-0.016013619
76	0x3b2f0046	0.0026703044
77	0x3d1f2652	0.038854904
78	0xbc985455	-0.0185949
79	0xbc99246a	-0.018694121
80	0xbc9d6bad	-0.019216383
81	0xbc2eee7a	-0.010676974
82	0x3c4fe72d	0.012689394
83	0x3ba7c456	0.0051198406
84	0xbd12d34e	-0.035846047
85	0x3d013e7b	0.031553727
86	0xbbf175fc	-0.007368801
87	0x3c0a1d1a	0.00842979
88	0xbd14840d	-0.036258746
89	0xbcb9556d	-0.022623742
90	0xbd0ce285	-0.034395713
91	0x3d151aac	0.03640239
92	0xbc1b8796	-0.009492775
93	0xbca28289	-0.019837635
94	0xbcd7dcd8	-0.026350424
95	0x3cd826ec	0.026385747
96	0x3c6b5e89	0.014365801
97	0xbb8b60a5	-0.0042534643
98	0x3cba7d28	0.022764757
99	0x3d3df1f5	0.046373326
100	0xbc9ab04c	-0.018882893
101	0x3c17fce9	0.009276607
102	0xbcd40a42	-0.025883798
103	0xbc73d468	-0.014882185
104	0xbbca4380	-0.0061725974
105	0x3b3b29ca	0.0028558844
106	0x3d456e9e	0.048201196
107	0x3c52a8d0	0.012857631
108	0x3c5120e1	0.012764187
109	0xbc6098a5	-0.013708268
110	0xbcdeeb90	-0.027211934
111	0xbc8da39c	-0.01728993
112	0x3d294454	0.04132493
113	0x3a0f29cc	0.00054612453
114	0x3d0f4018	0.034973234
115	0xbd19dfdd	-0.03756701
116	0x3d0bad3c	0.034100756
117	0x3c25ea39	0.010126644
118	0x39f68f6f	0.00047027643
119	0x3d18d137	0.037308898
120	0x3cae10a6	0.021248173
121	0x3cb55da9	0.022139387
122	0x3c92be77	0.017913086
123	0xbc3cbc42	-0.011519494
124	0x3c946a61	0.018117132
125	0xbca22036	-0.01979075
126	0xbced15b9	-0.028941022
127	0x3cda8327	0.026673866
128	0xbcc27849	-0.023738997
129	0xbc6b2baa	-0.014353672
130	0x392aa4da	0.00016273875
131	0xbd1cebc1	-0.03831077
132	0x3b4256fb	0.0029653895
133	0x3cbbb221	0.022912087
134	0xbc620bd9	-0.01379677
135	0x3cc537b0	0.024074405
136	0x3ccb8981	0.02484584
137	0xbd20b4d7	-0.039234962
138	0xbcee6660	-0.02910155
139	0xbb9a57cc	-0.0047101732
140	0xbc7359ae	-0.014852924
141	0xbd121925	-0.03566851
142	0xbc70936b	-0.014683585
143	0xbba2a840	-0.0049639046
144	0xbd0bddaa	-0.034146942
145	0x3ccfb494	0.025354661
146	0x3d27cbcb	0.040965836
147	0xbc7abc9b	-0.015303756
148	0x3cb9a709	0.022662656
149	0x3c8b443b	0.017000308
150	0x3c41617b	0.011803026
151	0x3c1a548e	0.0094195735
152	0x3d56bcd5	0.052426178
153	0x3ca851e4	0.020546861
154	0x3d0b6a65	0.034037013
155	0xbcb21e20	-0.02174288
156	0xbc51484c	-0.012773585
157	0x3cb6462d	0.02225026
158	0xbbd347fa	-0.0064477893
159	0xbc211ea6	-0.009833967
160	0x3baf4f76	0.0053500487
161	0xbb47315b	-0.0030394408
162	0xbcd22258	-0.025651142
163	0xbc30b9ed	-0.010786516
164	0xbd07fe83	-0.033201706
165	0xbc8b955a	-0.01703899
166	0xbcf2c1c0	-0.029633403
167	0xbca97498	-0.020685479
168	0x3cdec743	0.027194625
169	0x3bae01cd	0.0053102733
170	0x3d1d5956	0.038415276
171	0x3bc32c41	0.005956203
172	0x3c8ac5ae	0.016939964
173	0xbbc0f862	-0.0058889845
174	0xbc6a5fc2	-0.014305057
175	0xbc701ffa	-0.014656061
176	0x3d16ae7d	0.0367875
177	0xbbdf671b	-0.006817711
178	0x3ca0c9a4	0.0196274
179	0xbc5bf19a	-0.0134243015
180	0x3b5f70c4	0.0034094313
181	0xbccb7c50	-0.02483955
182	0x3ca29f43	0.019851333
183	0xbc5bb8c8	-0.0134107545
184	0x3d0e4761	0.03473604
185	0xbcf14851	-0.029453428
186	0xbce0581c	-0.027385764
187	0x3c15cde7	0.009143329
188	0x3c9087e5	0.017642925
189	0xbcef6301	-0.029222013
190	0xbcb1601a	-0.02165227
191	0x3c491b61	0.012274594
192	0xbc8aa38c	-0.016923688
193	0xbce24d99	-0.027624892
194	0xbbda6218	-0.0066645257
195	0x3c8ac920	0.016941607
196	0x3d13aaae	0.036051445
197	0x3c0c48ac	0.008562248
198	0x3c0ce9e7	0.008600689
199	0xbcfdb82a	-0.030971605
200	0x3c0ed617	0.008718035
201	0x3c5fa323	0.013649735
202	0xbaaa1c6c	-0.0012978441
203	0xbc0a2ddd	-0.008433786
204	0x3c208d5c	0.009799328
205	0x3c2addaa	0.010428825
206	0xbb782fcd	-0.0037870288
207	0x3d01361f	0.031545755
208	0xbc1d3ec4	-0.009597484
209	0xbd1a7781	-0.037711624
210	0xbbd8fde3	-0.0066220625
211	0x3caf7cbb	0.02142178
212	0x3bd83814	0.006598482
213	0xbd0173ac	-0.031604454
214	0x3c28919b	0.010288621
215	0xbcdf92ea	-0.027291734
216	0xbbbb360b	-0.0057132295
217	0x3c010edb	0.007877077
218	0x3d0dda16	0.03463181
219	0x3ce09337	0.027413948
220	0xbc5f7f27	-0.013641155
221	0xbd02555c	-0.031819686
222	0xbd07d6f6	-0.033163987
223	0xbc814f44	-0.015784867
224	0x3bfc1fe7	0.0076942327
225	0xbc93658a	-0.017992754
226	0xbcb33ed4	-0.021880545
227	0x3cdc9c24	0.026929922
228	0x3cf9085a	0.03039949
229	0xbce693b9	-0.028146612
230	0xbce2022b	-0.027588924
231	0xbbf4b145	-0.0074674212
232	0x3c59cfec	0.013294201
233	0x3beb73d2	0.0071854377
234	0x3ca70bb4	0.020391323
235	0x3cafe01b	0.021469167
236	0xbc6c15be	-0.014409481
237	0xbc927c7e	-0.017881628
238	0x3d017f74	0.03161569
239	0xbc508feb	-0.012729625
240	0x3cdb627a	0.026780356
241	0x3c3d6ecc	0.011562061
242	0x3cada0e8	0.02119489
243	0xbbcd0a3d	-0.006257324
244	0xbcad1760	-0.02112931
245	0x3caf1a27	0.021374775
246	0xbd1432ba	-0.03618119
247	0xbbdaa3ba	-0.0066723498
248	0x3d0aab19	0.033854578
249	0xba424e5f	-0.0007412191
250	0xbb7b1ba9	-0.0038316047
251	0xbb264786	-0.002537222
252	0xbd04cb6c	-0.03242056
253	0xbd197aab	-0.0374705
254	0x3d2307c3	0.039802324
255	0x3d03a24a	0.032137193

fc1.bias f4 [120]
0	0x3c92cc43	0.017919665
1	0x3c2a6c88	0.010401852
2	0x3c440a7f	0.011965393
3	0xb9a84cb1	-0.00032100597
4	0x3a7dc9f5	0.0009681278
5	0x3c883db0	0.016630977
6	0x3b862f2a	0.004094978
7	0xbcf42809	-0.029804247
8	0x3c36114b	0.011112521
9	0x3d2ba767	0.041907694
10	0xbcc3e851	-0.023914488
11	0x3c2f324a	0.010693142
12	0xbce95ccc	-0.028486632
13	0xbc736cad	-0.014857453
14	0xbba09f56	-0.004901807
15	0x3c8057b4	0.01566682
16	0x3c90dc60	0.017683208
17	0xbc650f9c	-0.013980772
18	0xbcc694ac	-0.024240814
19	0x3d09007c	0.033447728
20	0xbc9e387f	-0.019314049
21	0x3cc8a59d	0.024493033
22	0x3cbde290	0.023179322
23	0xbc9ba425	-0.018999169
24	0x3ccfa340	0.025346398
25	0xbd188615	-0.037237246
26	0xbd066ace	-0.0328167
27	0x3c3fab4f	0.011698558
28	0xbb444072	-0.002994564
29	0x3cdd973c	0.027049653
30	0x3d0ef211	0.03489882
31	0xbbf51bc5	-0.007480117
32	0x3bc4c1fb	0.0060045696
33	0xb9a7b65a	-0.00031988585
34	0x3ca4aa74	0.02010081
35	0x3bf36bfd	0.0074286447
36	0x3ca076dc	0.019587927
37	0x3ccb0c59	0.024786161
38	0xbc4f503f	-0.0126534095
39	0x3cf54130	0.02993831
40	0xbd0c68fe	-0.034279816
41	0xbba87232	-0.0051405663
42	0xbc728c5a	-0.01480397
43	0xbd2f14e7	-0.042744543
44	0x3c2081ce	0.009796573
45	0xbd076855	-0.033058483
46	0xbbf40862	-0.0074472884
47	0xbc890175	-0.016724328
48	0x3ccdcb3c	0.025121324
49	0xbbbd967c	-0.0057857614
50	0x3c2d8d27	0.010592735
51	0x3c4a86ad	0.012361211
52	0x3c78be55	0.015182097
53	0x3c150250	0.00909479
54	0x3cea2676	0.028582793
55	0x3c81be55	0.015837828
56	0xbce30f47	-0.027717246
57	0xbc4f435d	-0.012650338
58	0xbd02277a	-0.03177593
59	0x3bb0a990	0.005391307
60	0xbcd337a0	-0.02578336
61	0xba8edbb9	-0.0010899223
62	0x3cf33330	0.029687494
63	0x3c300eea	0.010745743
64	0xbcb8714c	-0.022514962
65	0xbd011413	-0.031513285
66	0xbcd86f90	-0.026420385
67	0xbba16493	-0.0049253195
68	0xbca8288b	-0.020527145
69	0xbc378a52	-0.011202412
70	0xbcd9c18d	-0.02658155
71	0xbcaf1f60	-0.021377265
72	0xbd0ca87c	-0.034340367
73	0x3d1d12c2	0.038347967
74	0x3c3ff241	0.011715473
75	0x3ce85448	0.028360501
76	0xbc731bd6	-0.01483818
77	0xbd020825	-0.03174605
78	0xbbea68b0	-0.007153593
79	0xbc6b58cf	-0.014364435
80	0xbd058848	-0.03260067
81	0xbc8edfe9	-0.017440753
82	0xbd02fcca	-0.03197936
83	0xbb578860	-0.0032887682
84	0xbcf9ef15	-0.030509511
85	0xba4da388	-0.00078444974
86	0xbcc06007	-0.02348329
87	0x3ce6d64f	0.028178362
88	0x3a212f48	0.0006148708
89	0xbcdf5c50	-0.027265698
90	0xbd02cda9	-0.031934414
91	0x3d09bc16	0.03362664
92	0xbcc4109a	-0.023933697
93	0xba8f4bd7	-0.0010932636
94	0xbd08ae9f	-0.033369657
95	0x3c08d0c9	0.0083505595
96	0x3cac9cc7	0.021070851
97	0x3c81b6d2	0.015834246
98	0xbbc07ee6	-0.0058745025
99	0xbc812e12	-0.015769038
100	0x3cb4bcfc	0.022062771
101	0x3c4ba830	0.012430236
102	0xbd02359b	-0.031789403
103	0xbcffc20e	-0.031220462
104	0x3cc92839	0.024555312
105	0xbc98b6a1	-0.018641772
106	0x3c65e21d	0.01403096
107	0xbd0301dc	-0.031984195
108	0xbc59dae7	-0.013296819
109	0x3c0f43b9	0.008744174
110	0xbca65476	-0.020303946
111	0x3b882821	0.0041551744
112	0x3c357b7f	0.011076807
113	0x3ca341c1	0.019928815
114	0xbc2aeae3	-0.010431978
115	0xbce2d4f1	-0.027689429
116	0xbcfd1b63	-0.030896848
117	0x3c966bc6	0.018361937
118	0x3c1975f2	0.009366499
119	0xba10dd3b	-0.000552613

fc2.weight f4 [60, 120]
0	0xba6ae1b3	-0.00089600234
1	0x3c5a3d6e	0.01332031
2	0xbd3d6fed	-0.04624932
3	0x3d6962ce	0.056978993
4	0xbc9553d3	-0.018228447
5	0xbddd074f	-0.1079241
6	0x3dcd00ce	0.10009919
7	0x3d03d74d	0.03218775
8	0xbdb6e79a	-0.08930893
9	0x3d8331ae	0.0640596
10	0xbda542f2	-0.080694094
11	0x3d6ce613	0.057836603
12	0x3c79e24f	0.01525171
13	0x3d38b1bf	0.045091387
14	0xbd153f14	-0.03643711
15	0x3da7d1b2	0.08194293
16	0x3be1b8af	0.006888471
17	0xbd9c7451	-0.07639373
18	0xbd396936	-0.045266353
19	0xbc079705	-0.008275752
20	0x3d451da9	0.04812399
21	0xbd5f176a	-0.05446569
22	0x3d8a4d74	0.06753054
23	0xbd4c45cb	-0.049871247
24	0xbc3aff73	-0.011413443
25	0x3dbaf086	0.091279075
26	0xbd5d7783	-0.054069053
27	0x3dc1e1b7	0.0946688
28	0x3d238735	0.039923865
29	0x3ca5c793	0.020236766
30	0xbcf4d2b9	-0.029885637
31	0xbd890e19	-0.06692142
32	0xbca90629	-0.02063282
33	0x3d020196	0.031739794
34	0xbd4a9b35	-0.049464423
35	0xbdd79c42	-0.10527851
36	0xbd1505a3	-0.03638233
37	0xbd6fdada	-0.058558322
38	0x3d828f13	0.063749455
39	0x3ceca359	0.028886484
40	0x3d25ba45	0.040460844
41	0x3ddb0895	0.10694996
42	0x3d5cf6ee	0.053946428
43	0x3dab5898	0.08366507
44	0x3d23c730	0.039984882
45	0x3cb68f01	0.022284986
46	0xbd703a90	-0.0586496
47	0x3d940a30	0.072285056
48	0x3cb85867	0.022503091
49	0x3db9e4df	0.09076857
50	0xbd35870c	-0.044318244
51	0xbdc98ff1	-0.09841908
52	0xbd861fe8	-0.065490544
53	0x3da164a1	0.078805216
54	0x3dcae605	0.09907154
55	0x3d5626e8	0.052283198
56	0xbd8e3c47	-0.06945091
57	0xbd7727fa	-0.06034086
58	0xbc8320b0	-0.016006798
59	0x3caf7332	0.021417234
60	0x3d67661e	0.05649387
61	0xbdb48110	-0.08813679
62	0xbda07455	-0.078346886
63	0x3d61ebc1	0.055156473
64	0xbd3d84dc	-0.046269283
65	0x3d9371cf	0.07199442
66	0xbdb645c5	-0.08900026
67	0x3c438bf0	0.011935219
68	0xbd8a583a	-0.06755109
69	0xbcc4ac6c	-0.024007998
70	0x3c97c57a	0.018526781
71	0xbc2be4eb	-0.01049159
72	0xbd80bf08	-0.06286436
73	0x3d47227c	0.04861687
74	0x3d21142d	0.03932588
75	0xbd80d9da	-0.06291552
76	0xbdae06ad	-0.08497367
77	0xbda3d520	-0.07999635
78	0xbd864816	-0.06556718
79	0x3c4b6fa0	0.01241675
80	0x3db9ab3e	0.09065865
81	0x3d7bdb4d	0.06148844
82	0xbd6c7d81	-0.057736877
83	0x3cfbde61	0.030745687
84	0xbc123d25	-0.008925711
85	0xbd37db33	-0.04488678
86	0x3c81b93a	0.015835393
87	0xbd69ab46	-0.057048105
88	0x3d8482f3	0.06470289
89	0xbdb069b5	-0.08613912
90	0x3d5fc35f	0.05462968
91	0xbdd5932c	-0.104284614
92	0x3d7b8297	0.061403837
93	0x3b5eee43	0.0034016527
94	0x3ce0d8a9	0.027447062
95	0xbd81f013	-0.06344619
96	0xbd67e026	-0.05661025
97	0xbd43248a	-0.04764227
98	0x3da50835	0.08058206
99	0x3bae08c1	0.005311102
100	0xbd4a87f6	-0.04944607
101	0xbd6b7475	-0.05748411
102	0xbdc5d1ec	-0.0965918
103	0x3da95f47	0.08270126
104	0x3cc0923f	0.023507236
105	0xbd405d81	-0.046964172
106	0x3da85991	0.082202084
107	0xbd8ad1fe	-0.06778334
108	0x3dba3954	0.09092966
109	0xbd6f8c35	-0.05848332
110	0xbca7a3cb	-0.020463845
111	0xbd3bd52f	-0.045857605
112	0xbc65d5b2	-0.014028
113	0xbd434bec	-0.047679827
114	0xbd0b08c5	-0.03394391
115	0xbd895b9a	-0.06706925
116	0x3d18f8dc	0.037346706
117	0x3d93c3d1	0.072150834
118	0xbdbb2411	-0.091377385
119	0x3d59a51d	0.05313598
120	0xbd866ac8	-0.06563336
121	0xbd8c178e	-0.0684043
122	0xbc9925fe	-0.018694874
123	0xbd70638e	-0.058688693
124	0x3da06b56	0.07832973
125	0xbda4ae85	-0.080410995
126	0x3cdf8af1	0.027287932
127	0xbc24f10e	-0.010067238
128	0x3bb54d17	0.0055328715
129	0xbd81ae4a	-0.06332071
130	0xbcf4385c	-0.02981203
131	0x3dadf372	0.08493699
132	0x3d03bc34	0.032161906
133	0x3b59e14d	0.0033245862
134	0x3db4f4d6	0.08835761
135	0x3d02a72f	0.03189772
136	0xbc2c36ff	-0.010511159
137	0xbd018bf9	-0.03162763
138	0xbca53409	-0.020166414
139	0x3d058236	0.032594882
140	0xbc0930d1	-0.008373455
141	0xbd756a91	-0.059916083
142	0xbd528af7	-0.05140206
143	0xbd735923	-0.05941118
144	0xbd1f4227	-0.038881447
145	0x3d4aac9a	0.049481012
146	0x3dac2c90	0.08406937
147	0xbcf51ee7	-0.029921962
148	0x3d739834	0.059471324
149	0xbbdec986	-0.006798926
150	0x3cbc9dbe	0.023024436
151	0xbd9cd487	-0.07657724
152	0xbcb6e359	-0.022325205
153	0xbc882869	-0.016620832
154	0xbddbd08a	-0.10733135
155	0x3d8ac12a	0.06775124
156	0xbda08e9a	-0.07839699
157	0x3d4dfe32	0.050291248
158	0xbd4c3dfc	-0.0498638
159	0x3da5b38c	0.080908865
160	0x3cc51948	0.024059907
161	0x3d9ba4ac	0.07599768
162	0xbd45ebfc	-0.048320755
163	0x3c96c320	0.01840359
164	0xbd28be1e	-0.041196935
165	0x3d4d6506	0.05014517
166	0xbd322090	-0.043488085
167	0xbd84b4d4	-0.06479803
168	0xbcc8d643	-0.02451623
169	0xbceab118	-0.028648898
170	0xbd0e63b2	-0.034763046
171	0xbdb79a15	-0.08964936
172	0x3d0c6260	0.034273505
173	0xbc7668f9	-0.015039676
174	0xbd60f080	-0.05491686
175	0xbd59d788	-0.053184062
176	0xbd26f9d1	-0.040765587
177	0xbd7e2a83	-0.06205226
178	0xbd82503d	-0.063629605
179	0x3cdd22c0	0.02699411
180	0x3cea71c3	0.028618699
181	0x3c5fccad	0.013659638
182	0xbc947eae	-0.018126812
183	0xbdcad4b4	-0.09903851
184	0x3c8a099f	0.01685029
185	0x3c0a3ca7	0.008437312
186	0x3d41db5e	0.047328345
187	0x3d34c6b3	0.044134807
188	0x3d95e140	0.07318354
189	0x3d699bc0	0.0570333
190	0xbdb3f441	-0.08786822
191	0xbd5b2ad4	-0.05350764
192	0x3b806499	0.003918242
193	0x3ccf3b61	0.025296869
194	0xbcb88e7c	-0.02252888
195	0xbc8f2fe3	-0.017478889
196	0xbce0565c	-0.02738493
197	0xbd87f241	-0.06638003
198	0x3cc2feef	0.023803202
199	0x3d2fb513	0.042897295
200	0xbda6a933	-0.08137741
201	0x3d9b7dd5	0.0759236
202	0xbc6f9976	-0.01462399
203	0xbd821dbe	-0.06353329
204	0x3d93d74a	0.072187975
205	0x3d9a4b16	0.07533853
206	0xbcd07cf9	-0.025450217
207	0xbc30dbda	-0.010794604
208	0xbd677317	-0.056506243
209	0xbd962194	-0.07330623
210	0x3d4afb88	0.049556285
211	0x3d449f6e	0.048003606
212	0xbdc0348a	-0.09385021
213	0x3da5b216	0.08090608
214	0xbcd1afee	-0.025596585
215	0xbd6963ee	-0.056980066
216	0xbd19db25	-0.037562508
217	0xbd99c502	-0.075082794
218	0x3cae6767	0.02128954
219	0xbd8e0ab9	-0.06935639
220	0xbcfc82a6	-0.030824017
221	0x3c21b915	0.009870787
222	0xbd4d1589	-0.050069366
223	0xbabc81fe	-0.0014382002
224	0xbd4021de	-0.0469073
225	0xbbebf403	-0.0072007193
226	0xbdae9b97	-0.0852577
227	0x3d8761c6	0.06610446
228	0xbbcb3d83	-0.006202401
229	0xbdb8d4b9	-0.090249486
230	0xbd521100	-0.051285744
231	0xbcb9c0db	-0.022674968
232	0xbd9eb3f0	-0.07749164
233	0x3d84dfc6	0.06487994
234	0xbda4685b	-0.08027717
235	0x3d8762fe	0.06610678
236	0x3d6bdb75	0.057582337
237	0x3d55d7b4	0.052207664
238	0xbb34032a	-0.0027467706
239	0x3dadd166	0.08487205
240	0xbd58446e	-0.052799635
241	0xbd5701b9	-0.052491877
242	0x3dd9c57d	0.10633371
243	0xbd6e5aa8	-0.058191925
244	0x3c7d75e1	0.015469999
245	0xbb98e2a4	-0.0046656895
246	0xbd331c20	-0.043727994
247	0xbc425560	-0.011861175
248	0xbdb29adb	-0.087209426
249	0xbd28c8d5	-0.041207153
250	0xbd7ff807	-0.062492397
251	0xbc7762fd	-0.015099284
252	0xbd81f12c	-0.06344828
253	0x3d5953e0	0.053058505
254	0xbd54b1e5	-0.051927466
255	0xbd31b28b	-0.043383162

fc2.bias f4 [60]
0	0x3d0fd70f	0.035117205
1	0x3bd97f9a	0.0066375257
2	0x3d819378	0.063269556
3	0xbdb9ec4e	-0.09078275
4	0x3c6d7f97	0.014495752
5	0xbd3ffa81	-0.04686976
6	0xbda9e16d	-0.0829495
7	0x3dbffa36	0.09373896
8	0xbd6d3ee1	-0.057921294
9	0xbd1e9856	-0.038719498
10	0x3d01836e	0.03161948
11	0x3d819660	0.0632751
12	0x3dabcac9	0.083882876
13	0xbdc16eb6	-0.094449446
14	0x3d4d2098	0.050079912
15	0x3d3ca5cb	0.04605655
16	0x3d520fa3	0.051284444
17	0xbbb6eebc	-0.0055826586
18	0xbcec9f5e	-0.028884586
19	0xbd315f4f	-0.043303784
20	0xbc4cfc0b	-0.012511264
21	0xbd8ae559	-0.06782026
22	0xbd09987b	-0.033592682
23	0x3b0dbe5f	0.0021628363
24	0xbca3e91d	-0.020008618
25	0x3b5d0057	0.0033722126
26	0xbd82c99c	-0.0638611
27	0x3dd8cd34	0.105860144
28	0x3dc0516a	0.093905285
29	0x3d2fd8aa	0.042931236
30	0x3c8df163	0.017327016
31	0x3c39da50	0.011343554
32	0x3e048da0	0.1294465
33	0xba0738ef	-0.0005158325
34	0xbd5ecded	-0.054395605
35	0xbd982954	-0.07429758
36	0x3e00eb18	0.12589681
37	0x3cac5a34	0.021039106
38	0x3ca86d62	0.02055997
39	0xbd8e219f	-0.069400065
40	0xbd026aa7	-0.031839993
41	0xbd3bf53c	-0.04588817
42	0xbd92a047	-0.07159477
43	0x3a57200a	0.00082063733
44	0x3dafc353	0.08582177
45	0x3be12300	0.0068706274
46	0x3d15cc2b	0.036571663
47	0x3d7e30ca	0.062058248
48	0x3d644de5	0.05573835
49	0x3d1871c9	0.03721789
50	0xbdbf7241	-0.09347964
51	0x3ddd8adf	0.10817503
52	0xbd208f34	-0.03919907
53	0xbdb8cabb	-0.09023043
54	0xbc8f39ec	-0.017483674
55	0x3c18bab3	0.009321856
56	0xbd6d7253	-0.057970356
57	0x3b6adda9	0.0035837686
58	0xbb0459c9	-0.0020195118
59	0xbd506abe	-0.050883047

fc3.weight f4 [11, 60]
0	0xbccf5ec1	-0.025313737
1	0x3d67e39b	0.056613546
2	0xbc9d1540	-0.019175172
3	0xbe33ab44	-0.17545801
4	0xbde6f665	-0.11277465
5	0x3db89f07	0.09014707
6	0x3d4a586b	0.04940073
7	0x3d40c134	0.047059253
8	0xbd0820e6	-0.0332345
9	0x3ced5018	0.028968856
10	0x3cb095c4	0.021555789
11	0x3d679945	0.056542654
12	0x3b390ca5	0.0028236296
13	0xbdac2f0f	-0.08407413
14	0x3d7e6ee7	0.062117483
15	0x3d4c6d26	0.04990878
16	0xbdae317a	-0.08505531
17	0x3df2c7b3	0.11854496
18	0x3d9f2c91	0.07772172
19	0x3e219769	0.15780415
20	0xbd997cbe	-0.07494496
21	0xbd0be6e3	-0.034155738
22	0x3d4a35ee	0.049367838
23	0x3d7173c3	0.05894829
24	0x3d27b588	0.040944606
25	0x3df5a588	0.11994463
26	0x3c0f0c1f	0.008730917
27	0xbdf4354c	-0.11924228
28	0x3d9492a5	0.07254533
29	0xbde48b77	-0.11159413
30	0xbd830324	-0.063970834
31	0x3c57dc88	0.013175137
32	0x3cb7e10a	0.022446174
33	0x3dc23715	0.09483162
34	0x3e0f899d	0.14017339
35	0xbd5aae7c	-0.053389058
36	0x3c91e4ef	0.01780936
37	0xbe0b20ac	-0.13586682
38	0xbbc8a6a3	-0.0061233803
39	0x3deeb726	0.116560265
40	0xbdfa58ea	-0.1222399
41	0x3db2393b	0.08702322
42	0x3e0a1be0	0.13487196
43	0x3be34ba7	0.0069365087
44	0x3cbe8fca	0.023261923
45	0xbde4edf9	-0.11178202
46	0x3e0389d9	0.12845553
47	0x3d9b67f1	0.075881846
48	0xbda23bbf	-0.07921552
49	0xbdba1a1b	-0.090870105
50	0x3d5b1a5d	0.05349194
51	0xbcb90e0f	-0.022589711
52	0xbda7b87b	-0.08189484
53	0x3d1396a2	0.036032327
54	0x3ca5635c	0.02018898
55	0xbe31ff99	-0.17382659
56	0xbdf7e9d4	-0.12105146
57	0xbdde62d1	-0.108586915
58	0xbbd0882a	-0.0063638883
59	0xbc0d54cf	-0.008626177
60	0x3cc32f7b	0.023826351
61	0x3e1e9be9	0.15489163
62	0xbdca177c	-0.098677605
63	0x3db55a77	0.088551454
64	0xbda85b28	-0.08220512
65	0xbe0461a9	-0.1292788
66	0x3c9a0e90	0.018805772
67	0xbdb0769b	-0.08616372
68	0xbe096962	-0.13419107
69	0x3df914bf	0.1216216
70	0x3cd56e85	0.026053676
71	0x3dbd1735	0.09232942
72	0xbe08bea3	-0.13353972
73	0x3cf59f77	0.029983265
74	0xbd4e2bfd	-0.05033492
75	0x3d7ead91	0.062177245
76	0x3b9462ad	0.0045283646
77	0x3ddfee79	0.10934157
78	0xba708e4a	-0.0009176476
79	0x3dd76635	0.10517541
80	0x3dd3255f	0.10309862
81	0xbdab55cb	-0.08365973
82	0x3d2283c3	0.03967644
83	0x3e0eb12b	0.13934772
84	0xbddd8119	-0.10815639
85	0xbd5ae11d	-0.05343734
86	0x3d695e67	0.056974795
87	0x3e0808c7	0.13284598
88	0xbc287d63	-0.010283801
89	0xbd60fea8	-0.05493036
90	0xbda5899a	-0.08082886
91	0xbdc5c953	-0.0965754
92	0xbbca0aa7	-0.0061658206
93	0xbbc6f226	-0.006071347
94	0xbd803b85	-0.062613524
95	0xbe14ab2c	-0.14518422
96	0xbc2514d8	-0.01007577
97	0x3c875d7b	0.016524067
98	0xbd1d1e3f	-0.038358923
99	0x3c10c478	0.008835904
100	0x3dc4e03a	0.0961308
101	0x3d946def	0.07247531
102	0x3d7a1a32	0.061060138
103	0x3dc4d2ef	0.09610545
104	0xbc4c6dd4	-0.012477357
105	0x3dea9915	0.11454979
106	0x3e03cf7f	0.12872122
107	0x3dc9a382	0.0984564
108	0x3ccf722e	0.025323
109	0x3cf63d58	0.030058548
110	0x3e09046e	0.13380596
111	0xbda8bfa3	-0.08239677
112	0xbe24ccc1	-0.16093732
113	0xbdd00748	-0.10157639
114	0xbc8d2913	-0.0172315
115	0xbe4ee3ac	-0.20204037
116	0x3dd97bc8	0.106193125
117	0xbd77ff07	-0.060545947
118	0xbdb7dfa7	-0.08978205
119	0x3c42ad62	0.011882158
120	0x3ddd0b3c	0.107931584
121	0xbd9a410b	-0.07531937
122	0xbe063bd5	-0.13108762
123	0xbce5bd31	-0.028044315
124	0xbd838b00	-0.064229965
125	0xbd05d82d	-0.032676864
126	0x3bd9724e	0.0066359406
127	0x3e0138d6	0.12619337
128	0x3d7c606a	0.061615385
129	0xbe0adf04	-0.13561636
130	0xbc4271a3	-0.011867913
131	0x3de7c237	0.113163404
132	0xbe22dbf1	-0.15904213
133	0x3e062bdd	0.1310267
134	0xbd2e64ca	-0.04257659
135	0x3c19fd06	0.009398704
136	0x3de5df5e	0.112242445
137	0x3df015d3	0.11722913
138	0xbcde92ba	-0.027169574
139	0x3d693ecf	0.056944665
140	0xbd2e5736	-0.04256364
141	0x3b820068	0.0039673336
142	0xbd405451	-0.04695541
143	0x3e24bde3	0.16088061
144	0x3ddff4ca	0.10935362
145	0x3e03c043	0.12866311
146	0x3e0c3869	0.13693394
147	0x3d4bedab	0.049787205
148	0x3da9b82f	0.08287083
149	0xbe3152f3	-0.17316799
150	0x3ce32c90	0.02773121
151	0xbca4ec85	-0.020132313
152	0x3df0f03e	0.117645726
153	0xbd9f4476	-0.0777673
154	0x3d056779	0.032569382
155	0x3dcac434	0.09900704
156	0xbdc8ea5f	-0.09810328
157	0xbc8cc7da	-0.01718514
158	0xbe14df10	-0.14538217
159	0x3c201211	0.009769932
160	0xbce5e806	-0.028064739
161	0xbd0b80af	-0.03405827
162	0x3de84c1f	0.11342644
163	0xbd8ade42	-0.067806736
164	0x3bab03e0	0.005218968
165	0x3de68c59	0.11257238
166	0xbdf42c86	-0.11922555
167	0x3c7cdc45	0.015433376
168	0x3cf00e0c	0.029303573
169	0x3ab6922f	0.0013929064
170	0x3dc834e1	0.09775711
171	0xbd957f88	-0.07299715
172	0xbe093af1	-0.1340139
173	0x3d8d32ae	0.06894432
174	0xbdf6780d	-0.120346166
175	0x3d433c7b	0.0476651
176	0xbc89f0f2	-0.016838524
177	0x3e34c91e	0.17654845
178	0xbdf408f4	-0.1191577
179	0xbdd25172	-0.10269441
180	0x3e0fcc42	0.14042762
181	0xbd369c7e	-0.044582836
182	0x3d6e9c43	0.05825449
183	0xbe321de1	-0.1739421
184	0xbe0cf3e0	-0.13764906
185	0xbde1ec42	-0.11031391
186	0x3dde3a12	0.1085092
187	0xbd3a2d0e	-0.045453124
188	0x3e29ad2d	0.16569968
189	0xbc5e3f13	-0.013564843
190	0xbd85ac8d	-0.06527052
191	0x3df285c6	0.118419215
192	0x3e019671	0.12655045
193	0xbd6a00b2	-0.05712957
194	0x3d89c281	0.06726552
195	0xbe132e6c	-0.14373177
196	0xbd8b1ba4	-0.067923814
197	0xbe3011bc	-0.17194265
198	0x3c80c5fb	0.015719404
199	0x3e056a22	0.13028768
200	0x3db38735	0.08766023
201	0xbdd6630a	-0.10468109
202	0xbe2e64bb	-0.17030613
203	0x3d85b66f	0.06528937
204	0xbdb10c2e	-0.08644901
205	0xbdd949f4	-0.106098086
206	0xbdf0b9b2	-0.117541686
207	0x3bc0bef5	0.005882139
208	0xbe200dfc	-0.15630335
209	0x3de28baf	0.11061799
210	0xbd78a765	-0.060706515
211	0x3c7b8e98	0.015353821
212	0x3d321feb	0.04348747
213	0xbd798ceb	-0.060925405
214	0x3dfe28cb	0.124101244
215	0xbd27dc83	-0.04098178
216	0xbd8282db	-0.06372615
217	0xbd61bd87	-0.055112388
218	0x3de9bebf	0.11413335
219	0x3d1812d2	0.037127323
220	0x3e0101b1	0.12598301
221	0xbd30fae3	-0.043208014
222	0x3e0e1e56	0.1387876
223	0xbcd72ec1	-0.026267411
224	0x3dd1e8fc	0.10249516
225	0x3cfaa627	0.030596806
226	0x3c6d3071	0.014476881
227	0x3d8149d5	0.063129105
228	0x3d46bd45	0.048520345
229	0x3b948fc7	0.004533741
230	0xbd4421a0	-0.04788363
231	0xbd47746e	-0.04869502
232	0x3dc92aa0	0.09822583
233	0x3cd1de6a	0.02561875
234	0xbe1b13f9	-0.15144338
235	0x3e4052a0	0.18781519
236	0xbe0a4c79	-0.13505735
237	0xbd780ea4	-0.060560837
238	0xbd8f8837	-0.07008403
239	0xbdc7bf28	-0.09753257
240	0x3cf565f3	0.02995584
241	0x3c64ef07	0.013973004
242	0x3dd37686	0.10325341
243	0xbcc3c0cf	-0.02389565
244	0x3d872e9a	0.066006854
245	0x3c2b81fb	0.0104680015
246	0xbdc51dbc	-0.09624812
247	0x3da8be3f	0.082394116
248	0x3d7d9b51	0.0619157
249	0xbc20ecfd	-0.009822127
250	0xbe03e273	-0.12879352
251	0x3cf17a4d	0.029477263
252	0x3de0cb1e	0.109762415
253	0x3dc32435	0.0952839
254	0xbde0d59d	-0.109782435
255	0xbcafb8d3	-0.021450436

fc3.bias f4 [11]
0	0xbccd98df	-0.025097309
1	0xbeaf60cb	-0.34253535
2	0x3d9d2c13	0.07674422
3	0xbde0e46c	-0.10981068
4	0x3c82d672	0.015971396
5	0x3e196fd3	0.14984064
6	0xbd6ad584	-0.05733253
7	0x3d5ec40b	0.05438618
8	0xbe2aba59	-0.16672648
9	0x3f06d23d	0.5266455
10	0x3e3597cd	0.17733689
