model-fold-3.pth (torch, 432769 bytes, 12 tensors)

conv1.weight f4 [3, 1, 3, 3]
0	0x3f37dc6f	0.7182073
1	0x3e092e85	0.13396652
2	0x3c651334	0.013981629
3	0xbf2c3815	-0.67273074
4	0xbdeffbd5	-0.11717955
5	0xbd6cb991	-0.057794157
6	0xbd7d0e7f	-0.061781403
7	0x3ded0261	0.11572719
8	0x3dd63672	0.10459603
9	0xbe92a572	-0.2864185
10	0xbe9523cc	-0.29128873
11	0xbe8b6cf5	-0.27231565
12	0xbeb55a9c	-0.35420692
13	0xbe500208	-0.20313275
14	0xbe250d81	-0.16118433
15	0x3f062fd9	0.5241676
16	0x3eaffdf4	0.34373438
17	0x3ef251d7	0.47328064
18	0xbec0dce4	-0.37668526
19	0xbf216ae8	-0.6305375
20	0xbec74bee	-0.38925117
21	0x3f1fc7e9	0.62414414
22	0x3f9432c5	1.1577994
23	0xbdbdc507	-0.092660956
24	0xbeb73191	-0.35780004
25	0x3effad04	0.49936688
26	0xbf0ebc73	-0.557563

conv1.bias f4 [3]
0	0x3d29ac7f	0.04142427
1	0xbe8eaaaf	-0.27864596
2	0x3e9dc0f0	0.30811262

conv2.weight f4 [6, 3, 5, 5]
0	0x3da32561	0.07966114
1	0x3d0fb871	0.035088006
2	0xbddeb0f8	-0.10873598
3	0xbd800e7b	-0.06252762
4	0xbdf43c1e	-0.11925529
5	0x3d367d62	0.044553168
6	0xbc315605	-0.010823731
7	0xbd93d25f	-0.072178595
8	0xbd0aa5f0	-0.033849657
9	0xbc99b206	-0.018761646
10	0x3c4a703c	0.01235586
11	0x3da9ae87	0.082852416
12	0xbd86aa24	-0.065754205
13	0xbc010ed7	-0.007877073
14	0x3dcf6a40	0.101276875
15	0xbd8e3d15	-0.06945244
16	0x3cb64b56	0.02225272
17	0x3d479930	0.048730075
18	0x3d9e3103	0.07724192
19	0xbd8a7923	-0.06761386
20	0x3e7b5979	0.2454585
21	0x3e2fd5cb	0.171714
22	0x3e444471	0.19166733
23	0x3e2e733f	0.1703615
24	0x3e25dfbe	0.16198632
25	0xbd3e9b54	-0.04653485
26	0xbdec361d	-0.11533759
27	0x3d344ab7	0.044016566
28	0x3d861410	0.06546795
29	0xbb9d99a2	-0.004809574
30	0xbe029a30	-0.1275413
31	0xbe2f1ec0	-0.17101574
32	0xb8c93431	-9.594148e-05
33	0xbdda8e09	-0.10671622
34	0xbda273bd	-0.079322316
35	0xbdcd997b	-0.1003904
36	0xbdb3f0dd	-0.087861754
37	0xbdec2b6c	-0.115317196
38	0xbbfe8b59	-0.0077680764
39	0xbe2dcd23	-0.16972785
40	0x3e13e52b	0.1444289
41	0xbd225c44	-0.039638773
42	0x3c4afcf5	0.012389411
43	0xbe24894f	-0.16068004
44	0x3d8ba23d	0.06818054
45	0x3d0efbc8	0.034908086
46	0x3e2a87b8	0.16653335
47	0xbd3b499c	-0.045724496
48	0x3d4a01af	0.04931801
49	0xbce4c008	-0.027923599
50	0xbde180f2	-0.110109225
51	0xbe103a59	-0.14084758
52	0x3d11f3bf	0.035632845
53	0x3e66b1ff	0.22528838
54	0xbdaf3ca3	-0.085564874
55	0xbd2b5fdd	-0.04183947
56	0xbd722ba5	-0.059123654
57	0x3cebc720	0.028781474
58	0xbd3f2b45	-0.046672124
59	0xbd1778bf	-0.036980387
60	0xbe35f222	-0.17768148
61	0xbda8ab12	-0.08235754
62	0xbe165d54	-0.1468404
63	0xbe2dd8ac	-0.16977185
64	0xbddf6055	-0.10907046
65	0x3c9f14e4	0.019419141
66	0xbe07eab8	-0.13273132
67	0xbdc3c174	-0.09558383
68	0xbe15b1df	-0.14618634
69	0x3dad03b7	0.08447974
70	0xbdde426e	-0.10852514
71	0x3dbfe537	0.09369891
72	0x3d97e81b	0.074173175
73	0x3dbc9bb2	0.09209384
74	0xbd367bfe	-0.044551842
75	0xbcc75eab	-0.024337133
76	0x3d91b092	0.07113756
77	0x3d319e7a	0.043364026
78	0x3dc7906e	0.09744345
79	0x3b9d363d	0.0047977255
80	0x3ca420a6	0.0200351
81	0xbdf5db77	-0.1200475
82	0x3cc8f129	0.024529057
83	0xbaecd176	-0.0018067795
84	0xbd82b3e5	-0.063819684
85	0xbcf6d127	-0.030129028
86	0x3e1948a5	0.14969118
87	0xbda32c7c	-0.07967469
88	0xbe0485c3	-0.12941651
89	0x3c449436	0.011998227
90	0xbdfe20cb	-0.124085985
91	0xbcc72d62	-0.024313632
92	0xbe132ab0	-0.14371753
93	0xbe0fde25	-0.14049585
94	0x3ba0e2fe	0.004909872
95	0xbca9a32a	-0.020707686
96	0xbdc73781	-0.097273834
97	0xbdb7c2f0	-0.08972728
98	0xbe1327d6	-0.14370665
99	0x3be6a22e	0.0070383763
100	0xbde3e903	-0.11128428
101	0x3aeefbc6	0.0018232993
102	0xbd880e65	-0.066433705
103	0xbc691c0a	-0.014227876
104	0xbe188fa1	-0.1489854
105	0x3da0f32e	0.07858883
106	0xbc577f9c	-0.013152983
107	0x3d17b4e9	0.037037764
108	0xbb8d1468	-0.004305411
109	0xbd5c0e5b	-0.053724628
110	0x3e08f9a8	0.13376486
111	0x3dc4fc21	0.09618402
112	0xbced297e	-0.02895045
113	0x3c8398bc	0.01606404
114	0xbd9aba0a	-0.075550154
115	0xbd9ac728	-0.07557517
116	0x3c6ce8a5	0.014459764
117	0xbb95b247	-0.0045683715
118	0xbdee89b9	-0.11647362
119	0xbd8cc217	-0.06872957
120	0xbde50d18	-0.11184138
121	0x3d5d362c	0.05400674
122	0x3dfb963f	0.122845165
123	0xbd07692d	-0.033059288
124	0x3d8712b1	0.06595362
125	0xbe08cbb8	-0.13358963
126	0x3e6be9e0	0.23038435
127	0xbe625f2e	-0.2210662
128	0xbe7d02cb	-0.24708097
129	0xbe462f00	-0.19353867
130	0xbdbb11f7	-0.09134286
131	0x3e19cdde	0.15019938
132	0xbd460402	-0.048343666
133	0xbe878d36	-0.26474923
134	0xbe51c640	-0.20485783
135	0xbad0bb67	-0.0015924991
136	0x3edfe20e	0.43727154
137	0x3e7c50e7	0.24640237
138	0xbdf440e5	-0.1192644
139	0x3e548a4c	0.20755881
140	0xbcd7e3c5	-0.026353726
141	0x3e6c6198	0.23084104
142	0x3e827ee8	0.25487447
143	0xbe81932d	-0.253076
144	0x3cab4b31	0.020909877
145	0xbd9b8f5f	-0.07595705
146	0x3da436d5	0.08018271
147	0xba0fd8f3	-0.0005487345
148	0xbe6a86c1	-0.22902967
149	0x3df7f364	0.1210697
150	0x3e3388a3	0.17532592
151	0x3e3e292d	0.18570395
152	0x3e6b9343	0.23005395
153	0xbdc7a76e	-0.097487316
154	0xbe03701c	-0.12835735
155	0x3d8c36ee	0.068464145
156	0xbd1dbce6	-0.038510226
157	0x3dc24242	0.09485294
158	0x3e619fd7	0.2203363
159	0x3e37fe04	0.17967993
160	0x3c5b7136	0.013393691
161	0x3e3b21ea	0.18274656
162	0x3e3c1297	0.18366466
163	0x3e4365e1	0.19081832
164	0xbe0bbd46	-0.13646421
165	0x3de8ef98	0.11373824
166	0xbde970f5	-0.11398498
167	0xbda8cc9b	-0.082421504
168	0xbdcb8bf5	-0.09938804
169	0xbe57903e	-0.21051118
170	0xbe765d6f	-0.2405908
171	0xbe6e5bd9	-0.23277225
172	0xbd425f22	-0.047454007
173	0xbe50df97	-0.20397793
174	0xbd930bf7	-0.071800165
175	0xbcb198b5	-0.021679262
176	0xbd42e69e	-0.047583215
177	0xbc6a79c9	-0.014311262
178	0x3de1d456	0.11026828
179	0x3e07e6a3	0.13271575
180	0xbd7ed369	-0.062213335
181	0xbcb6a966	-0.022297572
182	0xbdadbd3a	-0.08483358
183	0x3c87ca82	0.016576055
184	0x3e1e92a7	0.15485631
185	0xbceeea7e	-0.029164549
186	0x3dffd797	0.124922924
187	0x3e109a80	0.14121437
188	0xbdbfa8e8	-0.09358388
189	0xbe253903	-0.1613503
190	0x3c2859cf	0.010275318
191	0x3c8074d7	0.015680714
192	0xbd9a4b22	-0.07533862
193	0xbd966d1b	-0.07345029
194	0xbbbdc9e8	-0.0057918914
195	0x3cba496d	0.02274009
196	0x3b3018d1	0.002687026
197	0xbe34778a	-0.17623726
198	0xbdffbd97	-0.12487333
199	0x3c7a18d4	0.015264709
200	0xbe02bd38	-0.12767494
201	0xbe1cd954	-0.15317279
202	0xbd24bfe0	-0.04022205
203	0xbdb47dfc	-0.08813092
204	0xbdd50e83	-0.104031585
205	0xbc669cb1	-0.014075444
206	0x3d45a829	0.048256073
207	0x3d785755	0.06063016
208	0x3e3b76b3	0.18306999
209	0x3e4682db	0.19385855
210	0xbcdf04d6	-0.027223986
211	0xbbc44f18	-0.005990874
212	0x3df3293a	0.11873098
213	0x3dd40b1b	0.10353681
214	0xbd1b74e7	-0.037953284
215	0x3da67b47	0.08128982
216	0xbd253634	-0.040334895
217	0xbdd50abd	-0.10402439
218	0xbe0a00de	-0.13476893
219	0xbe141871	-0.14462449
220	0x394f7fbc	0.00019788643
221	0x3c5e9d7b	0.013587351
222	0xbe3ce238	-0.1844567
223	0xbe413649	-0.18868364
224	0xbcbfdcd3	-0.023420727
225	0x3da18f6e	0.07888685
226	0x3c90fea4	0.017699547
227	0xbd16f1d9	-0.036851738
228	0x3ca4e498	0.020128533
229	0xbdd9ffdd	-0.10644505
230	0xbcd38453	-0.025819933
231	0x3de4525b	0.111485206
232	0x3e02c1ab	0.12769191
233	0xbe82bc0a	-0.25534087
234	0xbd635df8	-0.055509537
235	0xbddb7695	-0.10715977
236	0xbd77bbe2	-0.060481913
237	0x3e02d7a1	0.12777568
238	0x3e1ff3dc	0.15620369
239	0x3e06a05c	0.1314711
240	0x3cbf74c3	0.023371106
241	0xbd874ff9	-0.066070504
242	0xbe2a7848	-0.16647446
243	0xbd0591fe	-0.032609932
244	0xbe95582b	-0.2916883
245	0x3db06e69	0.08614809
246	0xbc6266db	-0.013818468
247	0xbd97d2bb	-0.074132405
248	0x3d523dc0	0.05132842
249	0x3e220b36	0.15824589
250	0xbd457175	-0.048203904
251	0xbd2bf46b	-0.041981142
252	0xbd4c9ab9	-0.049952243
253	0x3bd58012	0.0065155113
254	0x3d7245fa	0.059148766
255	0x3d98f87e	0.07469271

conv2.bias f4 [6]
0	0x3da11086	0.0786448
1	0xbda63414	-0.08115402
2	0x3d3209da	0.043466426
3	0x3d65c59e	0.056096666
4	0x3d94202d	0.072326995
5	0xbb3177f3	-0.0027079552

conv3.weight f4 [16, 6, 7, 7]
0	0x3987e4a6	0.00025919563
1	0x3c15934c	0.009129357
2	0xbcd057e4	-0.025432535
3	0xbbbb25cf	-0.0057112942
4	0xbd9fe064	-0.07806471
5	0xbb15cb14	-0.002285664
6	0x3c37c615	0.01121666
7	0x3d02c84f	0.03192931
8	0xbcb87ead	-0.022521341
9	0x3d34e96a	0.044167913
10	0xbae876cc	-0.00177356
11	0x3c22c230	0.009933993
12	0x3c09e9cc	0.008417558
13	0xbc3db17f	-0.011577963
14	0xbdb5ae61	-0.08871151
15	0x3ca2b92b	0.019863686
16	0xbd938228	-0.0720256
17	0x3d41397b	0.04717396
18	0xbd03081b	-0.03199015
19	0xbdacf942	-0.0844598
20	0xbd646be7	-0.055766966
21	0x3d2159ce	0.039392285
22	0xbc071efb	-0.008247132
23	0xbd3911c4	-0.04518296
24	0xbd961f20	-0.073301554
25	0x3ce4bb64	0.027921386
26	0xbcb5dca7	-0.022199942
27	0x3c697152	0.014248209
28	0x3d0f74b3	0.035023402
29	0xbb4b3e8f	-0.003101263
30	0xbc862472	-0.0163748
31	0xbc46268b	-0.01209415
32	0xbdb21662	-0.086956754
33	0x3d0837c0	0.033256292
34	0x3ca1bd98	0.019743726
35	0xbd7fbb1c	-0.0624343
36	0xbd00c571	-0.031438295
37	0x3d40a182	0.047029026
38	0x3d9ca0a8	0.0764783
39	0xbdb990c2	-0.090608135
40	0x3d90857b	0.070567094
41	0x3d8b27e3	0.06794717
42	0x3cc65008	0.024208084
43	0x3d1ed529	0.038777504
44	0x3d21ac85	0.039471168
45	0xbd1f7d7a	-0.038938023
46	0xbd8a2c3a	-0.06746717
47	0x3b8f8ce8	0.004380811
48	0x3d4c1ab9	0.049830172
49	0x3ca9396a	0.02065726
50	0xbca5c688	-0.020236269
51	0x3c96b976	0.018398982
52	0xbb52fbb1	-0.0032193477
53	0xbdf124df	-0.11774611
54	0xbd9a2493	-0.07526507
55	0xbdabbeae	-0.08385979
56	0x3c08816f	0.008331641
57	0xbce00550	-0.027346283
58	0xbc19166b	-0.009343724
59	0xbd153f08	-0.036437064
60	0xbd0592df	-0.03261077
61	0x3c00d975	0.007864346
62	0xbccc4155	-0.024933496
63	0x3d03171c	0.03200446
64	0xbdb20c2f	-0.0869373
65	0x3cd8a322	0.026444975
66	0xbd84dbc5	-0.0648723
67	0x3caa3bbb	0.020780435
68	0xbd5d1cab	-0.053982418
69	0xbd39b9b5	-0.04534312
70	0xbd1e6a57	-0.038675632
71	0xbdcaec6b	-0.099083744
72	0x3d1fd6b2	0.03902311
73	0x3df9348f	0.12168228
74	0x3d337019	0.043808077
75	0xbd3cefba	-0.04612706
76	0x3dbe4b31	0.092916854
77	0xbbda4f93	-0.006662318
78	0xbd49124a	-0.049089707
79	0xbc5b7bf2	-0.01339625
80	0x3ddf9c9e	0.10918544
81	0x3d0f3c01	0.034969334
82	0xbc87b6c7	-0.016566647
83	0xbd84a1f0	-0.064761996
84	0x3cf0f524	0.029413767
85	0xbc3fa22d	-0.011696381
86	0xbbfc7468	-0.0077043064
87	0x3d91e20c	0.07123193
88	0x3d061e01	0.032743458
89	0xbd2c6acf	-0.042094048
90	0x3d29fa5f	0.041498538
91	0x3d7cb185	0.061692733
92	0xbbc935c1	-0.006140441
93	0x3d3d0ac3	0.04615284
94	0x3d7184b5	0.05896445
95	0x3c9879b8	0.018612728
96	0x3cc07880	0.023494959
97	0xbccc69dc	-0.024952821
98	0xbcfa8853	-0.030582583
99	0x3a3792ee	0.000700279
100	0xba8a08b1	-0.0010531155
101	0x3c91b3c7	0.01778592
102	0x3d2e21df	0.04251277
103	0xbd2084fd	-0.039189328
104	0xbbb416b6	-0.0054958714
105	0xbcc727d2	-0.02431098
106	0xbd99b87c	-0.07505891
107	0xbd30d9e8	-0.04317656
108	0x3c89fd65	0.01684446
109	0x3d252651	0.040319744
110	0xbc839391	-0.016061576
111	0xbd958754	-0.073012024
112	0x3d21b622	0.039480336
113	0x3bad16c2	0.005282254
114	0xbd4d5a8b	-0.050135177
115	0xbda4da54	-0.08049455
116	0xbde838ae	-0.11338936
117	0xbd109af4	-0.035304025
118	0xbd92fed0	-0.07177508
119	0x3b880cc4	0.0041519124
120	0xbd649f1f	-0.055815812
121	0x3c8b09a3	0.016972369
122	0xbc7dda7e	-0.015493987
123	0x3d15d389	0.03657869
124	0xbd0d49a6	-0.034494065
125	0x3b7d644c	0.0038664518
126	0x3d855524	0.0651038
127	0x3d946877	0.072464876
128	0xbbcf4ee4	-0.006326543
129	0x3cf9c527	0.030489517
130	0x3c244cbe	0.010028062
131	0x3d9474b4	0.07248822
132	0x3ce17e69	0.027526097
133	0xbda9c7fb	-0.08290096
134	0xbd9005a0	-0.07032323
135	0x3dcbc58e	0.0994979
136	0x3db10e08	0.086452544
137	0x3d105ce1	0.035244826
138	0x3d7a7a4b	0.061151784
139	0x3d8a08ce	0.067399606
140	0x3d82ae29	0.06380875
141	0x3c05d367	0.008168078
142	0x3cda7c33	0.02667055
143	0xbc28d2b5	-0.010304143
144	0xbceaa31f	-0.028642235
145	0xbd832ec9	-0.06405408
146	0xbc4b2af4	-0.012400378
147	0xbd6890bf	-0.056778666
148	0xbd319de4	-0.043363467
149	0xbdb58713	-0.08863654
150	0xbccb7ec6	-0.024840724
151	0x3c68cf05	0.014209514
152	0xbcf931cf	-0.030419258
153	0xbd6a947b	-0.05727051
154	0xbcab9197	-0.020943446
155	0xbd06d39b	-0.032916646
156	0xbc2cd127	-0.010547913
157	0x3d39aa85	0.045328636
158	0xbd68633c	-0.056735262
159	0x3ccde478	0.025133356
160	0x3d9e739a	0.07736893
161	0x3de7df29	0.11321861
162	0x3d1b373a	0.037894465
163	0xbd71b03e	-0.05900597
164	0xbcc5f3ca	-0.0241641
165	0xbd5c4f65	-0.053786654
166	0xbd8d33c5	-0.0689464
167	0xbd274245	-0.040834684
168	0x3dc885ba	0.09791131
169	0xbcc9c8a1	-0.0246318
170	0x3c7febce	0.015620185
171	0x3dd214ff	0.10257911
172	0x3de25a92	0.11052431
173	0x3d9c6056	0.07635562
174	0x3dfb7528	0.12278205
175	0x3dd7d27a	0.10538192
176	0x3d690dfa	0.056898095
177	0x3b84f414	0.0040574167
178	0xbda92684	-0.082592994
179	0x3cdd44a4	0.02701027
180	0xbd31faf4	-0.04345222
181	0x3cc1e509	0.023668783
182	0x3dae72c4	0.085179836
183	0x3b87bb72	0.0041422183
184	0xbdb27355	-0.08713404
185	0xbd698ebd	-0.05702089
186	0x3d5bb5c5	0.053640146
187	0xbd8c9eb8	-0.06866211
188	0x3d7b80ed	0.06140225
189	0x3db9d6df	0.090741865
190	0x3cb1aa02	0.021687511
191	0xbdb45c5d	-0.088066794
192	0xbc2e16f9	-0.010625594
193	0x3d195676	0.03743597
194	0xbdb6ef7c	-0.08932397
195	0xbddc59c1	-0.10759307
196	0xbd799122	-0.060929425
197	0xbd7c4f4c	-0.06159906
198	0xbd88397d	-0.0665159
199	0xbd98b522	-0.07456423
200	0xbd98536e	-0.07437788
201	0xbd9c337d	-0.07627008
202	0xbc92e7d6	-0.017932814
203	0xbc8635d2	-0.016383085
204	0x3cb32670	0.021868914
205	0x3d06c5ea	0.03290359
206	0x3da167fe	0.07881163
207	0x3d41c15c	0.047303542
208	0x3cf53925	0.029934475
209	0xbc9351ff	-0.017983435
210	0xbccade41	-0.024764182
211	0x3c88d634	0.016703703
212	0xbd9076bd	-0.070538975
213	0x3cf5327b	0.029931298
214	0x3c022fcb	0.007945965
215	0x3c38dae3	0.011282655
216	0x3d260824	0.040535107
217	0xbcf084c4	-0.029360183
218	0x3be80251	0.0070803543
219	0xbc885502	-0.016642097
220	0xbd27a820	-0.04093182
221	0xbb8256b0	-0.003977619
222	0xbd9c6b67	-0.07637673
223	0x3cd753cc	0.026285075
224	0x3d4e90c0	0.050431013
225	0xbcb89430	-0.022531599
226	0xbd9f6765	-0.07783393
227	0xbd0cafe0	-0.034347415
228	0x3d3239b1	0.04351205
229	0x3bcb5543	0.0062052323
230	0x3d09020a	0.03344921
231	0xbd07896e	-0.033090048
232	0x3ce6741b	0.028131535
233	0xbd6828d6	-0.05667957
234	0xbcc68c05	-0.024236688
235	0x3c9c3b47	0.019071234
236	0x3c3c49e8	0.01149223
237	0xbd6afe33	-0.05737133
238	0x3d600f20	0.054701924
239	0x3d025254	0.031816795
240	0x3d1c9b75	0.038234193
241	0x3d806b62	0.06270482
242	0x3d53e1e1	0.051729087
243	0xbcc1d148	-0.023659363
244	0x3da698f7	0.081346445
245	0xbd4e539d	-0.05037271
246	0x3c55d02d	0.013050121
247	0xbb131e47	-0.0022448467
248	0x3cafbb21	0.021451535
249	0xbb9e4b70	-0.00483077
250	0xbd181df5	-0.037137944
251	0xbdfb0d60	-0.122584105
252	0xbd2079a6	-0.039178513
253	0xbd6021ec	-0.05471985
254	0x3d4f1184	0.050553814
255	0xbdd58b85	-0.10427002

conv3.bias f4 [16]
0	0xbd67e786	-0.056617282
1	0xbbe1e249	-0.0068934304
2	0xbd4d6367	-0.050143626
3	0xbcd09944	-0.025463708
4	0xbb6fab70	-0.003657069
5	0xbd632c6a	-0.05546228
6	0x3ccf26aa	0.025286991
7	0x3d14bbd7	0.03631195
8	0xbcc7710d	-0.024345899
9	0x3d333bea	0.04375831
10	0xbc42b2d9	-0.011883461
11	0x3d4d2ea4	0.050093308
12	0xbd1e1b55	-0.038600285
13	0xbd3aa049	-0.045563016
14	0x3cf9c191	0.030487807
15	0xbd25ed54	-0.040509537

fc1.weight f4 [120, 784]
0	0x3c9a86fa	0.01886319
1	0xbba83a5b	-0.0051339096
2	0xbcd67665	-0.026179502
3	0xbd09c698	-0.03363666
4	0xbbc005e9	-0.0058600795
5	0xbca6c5e2	-0.02035803
6	0x3b7e2692	0.0038780314
7	0xba032c74	-0.00050038774
8	0xbce6354e	-0.02810159
9	0xbce25676	-0.027629118
10	0xbd126461	-0.03574026
11	0xbc9c5410	-0.019083053
12	0xbb82e5b9	-0.00399467
13	0xbcc290bc	-0.023750655
14	0x38719395	5.7596324e-05
15	0x3cc55a12	0.0240908
16	0xbd0c1acb	-0.03420524
17	0xbd194131	-0.037415687
18	0xbbda860e	-0.0066688126
19	0xbb9a35c3	-0.004706116
20	0x3c569bd0	0.013098672
21	0x3ce1a049	0.02754225
22	0xbc6df2de	-0.014523236
23	0x3cc90afe	0.024541374
24	0x3c5c81e6	0.013458705
25	0xbbc7dcec	-0.006099334
26	0xbcb91448	-0.022592679
27	0xba1b7815	-0.00059306744
28	0x3bedbcf1	0.0072551896
29	0xbccc499f	-0.024937449
30	0xbc08f435	-0.008359005
31	0x3d08cf82	0.03340102
32	0x3b58ba52	0.003307004
33	0x3b3ad78f	0.002850983
34	0xbd0b391e	-0.033990018
35	0xbc11db4c	-0.008902382
36	0xbc671038	-0.014102988
37	0xbd194e4d	-0.03742819
38	0xbbfe1a61	-0.0077546095
39	0x3b48cd3c	0.0030639907
40	0x3baef53a	0.005339292
41	0xbce02caa	-0.027365047
42	0x38fd0be0	0.00012066192
43	0x3cbc1987	0.022961391
44	0x3d0507ae	0.032478027
45	0x3c9af1bb	0.018914094
46	0x3c59b7c7	0.013288445
47	0x3c872414	0.016496696
48	0x3ce97ca3	0.028501814
49	0xbc0cf4bc	-0.008603271
50	0x3c25891a	0.010103488
51	0xbc582a7f	-0.013193726
52	0x3b8874c8	0.004164312
53	0xbc88e7ab	-0.01671203
54	0x3c570abe	0.01312512
55	0xbbc17ce4	-0.0059047807
56	0x3c2b3415	0.010449429
57	0xbcd8b540	-0.026453614
58	0xbcabd338	-0.02097474
59	0x3c409cd6	0.011756143
60	0xbd1daaf7	-0.038493123
61	0x3c8dba2a	0.017300684
62	0x3c6a879b	0.014314557
63	0x3d1068cc	0.035256192
64	0x3d02e225	0.03195395
65	0xbd220732	-0.039557643
66	0x3a299e8c	0.00064704637
67	0x3ce18109	0.02752735
68	0xbd290239	-0.041261885
69	0x3afa77e1	0.0019109213
70	0x3c55d2c1	0.013050736
71	0x3c2c399f	0.010511785
72	0xbcfe7c08	-0.031065002
73	0x3cc91c8d	0.024549747
74	0x3c4c404b	0.0124665005
75	0xbbcffb46	-0.006347093
76	0xbcc6b93f	-0.024258254
77	0xbd04997f	-0.032372948
78	0xbc31a134	-0.0108416565
79	0x3c68887e	0.0141926985
80	0xbc9319af	-0.017956583
81	0x3c4d69fb	0.012537475
82	0xbbff19cb	-0.007785057
83	0x3b8bade9	0.004262675
84	0xbc9b4e9f	-0.018958388
85	0xbc956094	-0.018234529
86	0x3cd3ce7a	0.025855292
87	0x3cb8881d	0.022525841
88	0xbc86890f	-0.016422777
89	0xbd1e07ce	-0.038581662
90	0x3b3555a2	0.002766945
91	0xbd0ceb78	-0.034404248
92	0x3cb740c7	0.022369755
93	0x3c8a53f5	0.016885737
94	0x3d0fa2fd	0.035067547
95	0x3d1e6b33	0.038676452
96	0xbc8022c5	-0.01564158
97	0x3be5ca78	0.0070126615
98	0x3d2ca1c4	0.04214646
99	0xbd059cd6	-0.032620274
100	0x3cb159a4	0.02164919
101	0x3d04292e	0.032265835
102	0xbbf3b7de	-0.00743769
103	0xbbdecfcd	-0.006799674
104	0xbb2473df	-0.0025093479
105	0x3c8cac5a	0.017172027
106	0xbc9f944c	-0.019479893
107	0xbce9967b	-0.028514137
108	0x3cb3b32d	0.021936024
109	0xbd026e72	-0.03184361
110	0x3b5ccb31	0.0033690447
111	0x3cfdce7b	0.030982247
112	0x3d00f7c9	0.031486306
113	0x3cd8fb39	0.02648698
114	0xbc5b00ca	-0.013366887
115	0xbcb4b088	-0.022056833
116	0xbcf56cbe	-0.029959079
117	0x3c60d65d	0.013722983
118	0xbc377c57	-0.0111990785
119	0xbcf1bb4f	-0.029508261
120	0x3bd6be11	0.0065534194
121	0xbba1d545	-0.004938754
122	0xbc7f4a5a	-0.015581692
123	0x3c5d377a	0.013501996
124	0x3c3b2cc3	0.011424246
125	0x3c6c04ba	0.014405424
126	0x3c88c113	0.016693627
127	0xbd07954f	-0.033101376
128	0xbb8596e4	-0.0040768255
129	0x3a175c9f	0.00057739945
130	0xbd2aab0d	-0.041667033
131	0xbd2a1761	-0.041526202
132	0xbd12e389	-0.035861526
133	0x3ce193d2	0.027536307
134	0xbc114d6a	-0.008868555
135	0x3b9e135a	0.004824084
136	0xbd0e1491	-0.034687582
137	0xbce67d67	-0.028135968
138	0x3c323907	0.010877854
139	0xbb55564a	-0.0032552653
140	0xbc8a48c4	-0.0168804
141	0x3c648434	0.013947535
142	0xbcf98ae7	-0.030461742
143	0xbcf4af89	-0.029868858
144	0x3cd29421	0.025705399
145	0xbc7b7311	-0.015347258
146	0xbd0df558	-0.034657806
147	0xbc610d3c	-0.0137360655
148	0x3c8df347	0.017327918
149	0xbc07fcfd	-0.008300063
150	0xbcb9bb83	-0.02267242
151	0x3bb6ebde	0.005582317
152	0x3d04b59b	0.032399755
153	0xba13a004	-0.0005631449
154	0x3ce8fe38	0.028441533
155	0x3ca6b1f2	0.020348523
156	0xbd08740b	-0.033313792
157	0xbce9cb14	-0.028539218
158	0xbc5dd26c	-0.013538938
159	0x3ba2e630	0.004971288
160	0xbd2a344a	-0.041553773
161	0x3cdfb339	0.02730714
162	0xbb9f93db	-0.0048699207
163	0x3a44af13	0.0007502895
164	0xbd12aea7	-0.035811093
165	0x3c39cc1f	0.01134017
166	0x3d027ba1	0.031856183
167	0x3c8fb9e2	0.01754469
168	0xbc5e447c	-0.013566133
169	0xbbd84dca	-0.00660107
170	0x3c89efb9	0.016837941
171	0xbcde5d5d	-0.027144128
172	0x3cf6f42d	0.030145729
173	0xbcb528eb	-0.022114238
174	0xbc0c1607	-0.008550174
175	0x3cd3c6d2	0.02585164
176	0x3c99ac45	0.018758902
177	0x3cb95b99	0.022626685
178	0xbc553f3e	-0.013015566
179	0x3ce82156	0.028336208
180	0xbacc7103	-0.0015597645
181	0x3c371555	0.01117452
182	0xbcbc37fe	-0.022975918
183	0x3cd10156	0.025513332
184	0x3b9c8974	0.004777128
185	0xbcde4028	-0.027130201
186	0xbca2e5ac	-0.019884907
187	0x3cb7e856	0.022449654
188	0xbc39b16a	-0.011333803
189	0xbc1c94ed	-0.009556991
190	0xbc2964c0	-0.010338962
191	0x3b87816d	0.004135302
192	0x3c8c4da1	0.01712686
193	0x3c3a63f9	0.011376374
194	0x3cf4d8f3	0.029888606
195	0x3cf665d0	0.030077845
196	0x3ba9d025	0.0051822835
197	0x3d116940	0.035500765
198	0xbb8d04c6	-0.0043035476
199	0x3ce66bc6	0.028127562
200	0x3c8450ff	0.016151903
201	0xbc11e4f7	-0.008904687
202	0xbc97857e	-0.018496271
203	0x3cb857e5	0.022502849
204	0xbbc7ccf8	-0.006097432
205	0x3c5d958e	0.013524426
206	0xbc548d05	-0.012973075
207	0x3be04522	0.006844179
208	0x3c0af10a	0.00848032
209	0xbd1372b6	-0.03599807
210	0x3b2c6865	0.0026307341
211	0x3bc8748f	0.0061174105
212	0xba329745	-0.0006812702
213	0xbc88811d	-0.016663129
214	0x3cba0af9	0.02271031
215	0x3ceca460	0.028886974
216	0x3c9c195f	0.019055067
217	0xbd2a3c50	-0.041561425
218	0xbc8e2496	-0.01735143
219	0x3bfe27e9	0.0077562225
220	0x3b700cbd	0.0036628686
221	0x3a20993f	0.0006126351
222	0x3c573cb9	0.013137036
223	0x3b8c8050	0.004287757
224	0xbc8a674e	-0.016894963
225	0x3afcf852	0.001930008
226	0xbd0185bf	-0.03162169
227	0xbd01dc60	-0.031704307
228	0xbcbe53c5	-0.023233304
229	0xbcebc743	-0.028781539
230	0xbc57083c	-0.013124522
231	0xbc4045bc	-0.011735376
232	0xbcc68f47	-0.024238242
233	0xbd276670	-0.040869176
234	0x3b0ecb80	0.0021788776
235	0xbcffa2e5	-0.031205604
236	0xbd0d7ee4	-0.03454484
237	0xbc1935c7	-0.0093512
238	0x3c57c15b	0.013168658
239	0xbc81341b	-0.015771916
240	0xbc9e6826	-0.019336771
241	0xbb8555a9	-0.0040690494
242	0x3c6bbf37	0.014388851
243	0x3c8bd873	0.017070984
244	0x3d136b92	0.03599126
245	0xbce28c26	-0.027654719
246	0xbd14ab03	-0.036295902
247	0xbc862ce2	-0.016378824
248	0xbc4e18e8	-0.01257918
249	0x3c5e27bf	0.013559281
250	0xbc8ff82a	-0.017574389
251	0xbc6951b6	-0.014240673
252	0xbc4279b2	-0.011869835
253	0x3c9bfb69	0.01904078
254	0xbc190c05	-0.009341245
255	0xbcbf4dc3	-0.02335251

fc1.bias f4 [120]
0	0x3caa85d3	0.020815765
1	0x3cadce52	0.021216545
2	0xbcefd99f	-0.029278575
3	0x3c38a60b	0.0112700565
4	0xbca078e9	-0.019588904
5	0x3c83ff1b	0.016112855
6	0x3cab73f2	0.02092931
7	0x3ab5e881	0.0013878496
8	0x3ceb8055	0.028747717
9	0xbd104720	-0.03522408
10	0xbc2bbb59	-0.010481679
11	0x3c2541aa	0.010086456
12	0x3bac2de0	0.005254492
13	0x3c065513	0.008198994
14	0xbc532d90	-0.012889281
15	0x3c521a58	0.012823664
16	0x3d114618	0.035467237
17	0x3b409334	0.0029384615
18	0xbcb10362	-0.021608058
19	0x3ca2fc4b	0.019895693
20	0x3c5b9dea	0.013404349
21	0x3cdecb8d	0.02719667
22	0xbb260abb	-0.0025335986
23	0x3c7f4cc5	0.015582268
24	0x3cbf0725	0.023318836
25	0x3cc4d0ce	0.024025347
26	0xbc2ec343	-0.010666671
27	0x3d066388	0.032809764
28	0x3d0f7e63	0.03503264
29	0x3b2cc209	0.002636077
30	0xbbf05c8c	-0.007335251
31	0xbc87a1a2	-0.016556565
32	0x3ceebefc	0.029143803
33	0xbcfc37d4	-0.03078834
34	0x3bf05f35	0.0073355683
35	0xbce708ec	-0.028202496
36	0x3cf30e6d	0.029669965
37	0xbcf661f3	-0.030076003
38	0xba697280	-0.00089053065
39	0xbc80e502	-0.0157342
40	0xbd16559e	-0.036702745
41	0xbcdb4cf3	-0.02677009
42	0xbca432a4	-0.020043679
43	0xbb43ee4d	-0.0029896677
44	0x3cad8795	0.021182815
45	0xbc4fd406	-0.012684828
46	0xbc9b794a	-0.018978734
47	0x3c9e073f	0.019290565
48	0x3c98ae7d	0.01863789
49	0xbd081fd3	-0.033233475
50	0x3c6ccc76	0.014453044
51	0x3d13e289	0.036104713
52	0x3cc99630	0.024607748
53	0xbb798ce3	-0.003807836
54	0x3c8fbdd0	0.017546564
55	0x3c9eb922	0.019375388
56	0xbb87f767	-0.0041493657
57	0x3c260984	0.010134105
58	0x3ba6216b	0.0050699017
59	0xbcfae1db	-0.030625274
60	0xbd06c332	-0.032900997
61	0x3cfbf539	0.03075658
62	0xbbc72922	-0.0060779015
63	0x3c9e16ac	0.01929792
64	0x3cb2a0eb	0.021805247
65	0xbc940001	-0.018066408
66	0x3cc09f34	0.023513414
67	0xbcd734ae	-0.026270237
68	0x3bfbc77e	0.0076836934
69	0x3b9622b1	0.0045817723
70	0xbd16eaae	-0.0368449
71	0xbc216f2d	-0.0098531665
72	0x3cae8c03	0.021306997
73	0x3c8f47a3	0.017490214
74	0xbcbbbd23	-0.022917336
75	0xbc929a2a	-0.017895777
76	0x3ca409d4	0.020024218
77	0xbc93c6c6	-0.018039118
78	0x3c4e8f1e	0.012607364
79	0x3c101cf0	0.008795962
80	0xbc02cc66	-0.007983303
81	0xbd04a5ad	-0.032384563
82	0x3d022463	0.031772982
83	0xbbf43a7d	-0.0074532614
84	0x3c526c10	0.012843147
85	0xbcb1bf2a	-0.0216976
86	0xbb84ba76	-0.004050548
87	0xbbf09d4c	-0.00734297
88	0xbcf627c8	-0.030048266
89	0x3c8f476d	0.017490113
90	0x3b11eedf	0.0022267622
91	0xbb3411ad	-0.0027476356
92	0xbd01d13e	-0.03169369
93	0xbcc2989e	-0.023754414
94	0x3cc1541e	0.02359968
95	0xbbc0c765	-0.0058831447
96	0xbd2b9bac	-0.041896507
97	0x3cb0832e	0.021546926
98	0x3c9da17f	0.019242046
99	0x3cb938c1	0.02261007
100	0xbc8e05ef	-0.017336814
101	0x3c009091	0.007846967
102	0xbbc580ce	-0.0060273176
103	0x3cd2b73f	0.025722144
104	0x3ce091f9	0.027413355
105	0x3c997c8f	0.018736152
106	0xbc8b9796	-0.017040055
107	0x3b9f137f	0.004854619
108	0x3cba81b4	0.022766925
109	0xbb632cd8	-0.003466418
110	0x3bcfb058	0.0063381605
111	0xb902aa35	-0.00012461173
112	0xbcada294	-0.021195687
113	0xbca4ac87	-0.020101799
114	0x3c90150e	0.017588165
115	0xbc9cef01	-0.019156935
116	0x3c440cae	0.011965914
117	0x3c9a604b	0.018844744
118	0x3cf95c12	0.03043941
119	0x3c46472f	0.012101932

fc2.weight f4 [60, 120]
0	0x3d440233	0.04785366
1	0xbd1d77d1	-0.038444344
2	0x3cce61be	0.025193091
3	0xbdd64ed6	-0.104642555
4	0xbc5cf9ab	-0.01348726
5	0xbdabe7ff	-0.08393859
6	0x3d286c59	0.041118953
7	0x3d2471bf	0.04014754
8	0x3d2683be	0.040652983
9	0xbd92bb45	-0.07164625
10	0x3cf5c054	0.029998936
11	0xbc3d0b8d	-0.011538398
12	0xbdaed2b0	-0.08536279
13	0x3de893f3	0.11356344
14	0xbc8fab30	-0.017537683
15	0x3dbe4912	0.09291281
16	0xbd626d73	-0.05528016
17	0xbd0292d7	-0.03187832
18	0xbd6df977	-0.058099236
19	0xbd6b6b5f	-0.057475444
20	0x3d819f54	0.063292176
21	0xbdf22134	-0.11822739
22	0x3dc368fc	0.095415086
23	0x3d9fe038	0.07806438
24	0xbd2966ed	-0.041357923
25	0x3cc449b5	0.023960928
26	0xbbe3c856	-0.006951372
27	0xbd28405b	-0.041077
28	0x3c629ba4	0.013831053
29	0x3d036b11	0.03208453
30	0xbd4962c5	-0.04916646
31	0x3d185d8c	0.03719859
32	0xbbc425ef	-0.0059859673
33	0x3da47761	0.08030582
34	0xbd87dac7	-0.06633525
35	0xbd412b6e	-0.04716056
36	0x3dab8b86	0.08376221
37	0xbad2ba1b	-0.0016077192
38	0xbd5bd543	-0.05367018
39	0xbc88f7f9	-0.016719805
40	0xbd19ca76	-0.037546597
41	0x3c9a12c1	0.01880777
42	0x3bd17789	0.0063924235
43	0x3d4b3e11	0.049619738
44	0x3dbb9874	0.091599375
45	0x3decf1df	0.11569571
46	0xbbde5952	-0.00678555
47	0x3d8f20c6	0.06988673
48	0xbd2f005d	-0.042724956
49	0x3d62d60c	0.055379912
50	0xbd31f26e	-0.04344409
51	0x3dee6c23	0.11641719
52	0xbc945c1d	-0.01811033
53	0x3d01edd5	0.031720955
54	0x3d11626c	0.035494253
55	0x3db15582	0.086588874
56	0xbd6b2de5	-0.057416815
57	0xbc2952f9	-0.010334724
58	0xbb4c5348	-0.003117757
59	0xbccc863f	-0.024966357
60	0xbde203fc	-0.11035916
61	0xbda4c025	-0.08044461
62	0x3e029096	0.12750468
63	0xbc1998ea	-0.009374836
64	0xbce1137d	-0.027475113
65	0xbd168615	-0.036748964
66	0xbcb8f1b2	-0.022576187
67	0x3ca2a41f	0.01985365
68	0x3dba8b93	0.09108653
69	0xbd89d8c8	-0.06730801
70	0xbd952a4d	-0.07283459
71	0x3cd59603	0.026072508
72	0xbdbe984c	-0.09306392
73	0x3ce37907	0.027767671
74	0xbd234ebd	-0.039870013
75	0xbc9d023a	-0.0191661
76	0xbd8f6309	-0.07001311
77	0xbcff5d20	-0.031172335
78	0xbc542a87	-0.012949592
79	0x3db2222e	0.086979255
80	0xbd0b1d43	-0.033963453
81	0x3d5c34ee	0.053761415
82	0x3db1d45a	0.08683081
83	0x3d535b06	0.05160048
84	0x3d93dd32	0.07219924
85	0xbd999bd4	-0.07500425
86	0x3d3ba229	0.045808945
87	0x3c34a9a2	0.011026772
88	0x3cf789ac	0.030217014
89	0x3c3a9c44	0.011389796
90	0xbc07c3a8	-0.008286394
91	0xbd193bc3	-0.03741051
92	0x3ce7ad7c	0.028280966
93	0x3ce47365	0.027887056
94	0xbd1a0390	-0.037601054
95	0x3d8673db	0.065650664
96	0xbd0b3451	-0.03398544
97	0xbdaa2a11	-0.08308805
98	0x3d4943a0	0.049136758
99	0xbda541d2	-0.08069195
100	0xbc56916d	-0.013096196
101	0xbd926f7a	-0.07150169
102	0x3cd01820	0.025402129
103	0xbd841090	-0.064484715
104	0xba7cce84	-0.00096438103
105	0xbc270c7f	-0.01019585
106	0xbd91c123	-0.07116916
107	0xbdac974d	-0.08427296
108	0xbd7fb049	-0.062423978
109	0x3d552509	0.052037273
110	0xbd273452	-0.04082138
111	0xbcde98d4	-0.027172484
112	0x3d03103b	0.0319979
113	0x3cede10b	0.029037973
114	0x3d851afd	0.06499288
115	0xbdabcd97	-0.083888225
116	0xbca6122d	-0.020272339
117	0xbcbb9dd6	-0.02290241
118	0xbbb6c0cd	-0.005577183
119	0xbd989131	-0.07449568
120	0xbdb50239	-0.088383146
121	0x3da7b221	0.08188272
122	0x3d1360a7	0.035980847
123	0x3c86249a	0.016374875
124	0x3d621d3b	0.055203658
125	0xbe0b5624	-0.13607079
126	0xbd9d8126	-0.07690649
127	0xbdc68cb2	-0.09694804
128	0xbdb4c03b	-0.088257276
129	0xbca3e5a3	-0.02000696
130	0x3ceb86a2	0.028750721
131	0x3c74738b	0.014920126
132	0xbc569fe3	-0.013099643
133	0x3a2de65d	0.0006633753
134	0x3b94bf0e	0.004539377
135	0x3d0faa1f	0.03507435
136	0x3d57462d	0.05255716
137	0xbd0637c0	-0.03276801
138	0x3cbdc131	0.02316341
139	0xba8d0f35	-0.0010761978
140	0x3cf56608	0.029955879
141	0xb9d3f4ef	-0.00040427546
142	0x3c865e12	0.016402278
143	0x3cbe6ac0	0.023244262
144	0xbd871073	-0.06594934
145	0xbcfb789c	-0.03069716
146	0x3d46e4f5	0.048558194
147	0x3d18534b	0.03718881
148	0xbcded0af	-0.027199117
149	0xbd3de5e0	-0.046361804
150	0xbcf58d03	-0.029974466
151	0x3c9842ea	0.018586595
152	0xbd2d46c8	-0.04230383
153	0xbd8cbceb	-0.06871971
154	0x3d26f5e5	0.040761847
155	0xbd133063	-0.035934817
156	0xbcd350bf	-0.025795339
157	0xbd424be0	-0.04743564
158	0x3d3fb406	0.046802543
159	0xbda0b8e6	-0.078477666
160	0x3c09f4d7	0.008420191
161	0x3da8bfee	0.08239733
162	0x3d8df9fc	0.06932446
163	0xbc9438c2	-0.01809347
164	0xbb806a50	-0.0039189234
165	0x3cc1ba09	0.023648279
166	0xbd66e8ef	-0.056374487
167	0x3c95829d	0.018250758
168	0xbd84b641	-0.06480075
169	0x3d1f1ef4	0.03884788
170	0x3d5f4e7a	0.0545182
171	0xbc4e8372	-0.012604581
172	0x3e204962	0.15652993
173	0x3d9ce932	0.07661666
174	0x3dbb3bbb	0.09142252
175	0xbd533c6c	-0.051571295
176	0x3d7d001f	0.061767694
177	0xbdaa7846	-0.083237216
178	0x3d3aeeb9	0.04563782
179	0x3b9af74f	0.0047291885
180	0x3dc07898	0.093980014
181	0x3dbf7bf1	0.09349812
182	0x3dd33b19	0.10314006
183	0x3db61edf	0.08892607
184	0xbcb4c157	-0.022064848
185	0xbdcbeaa4	-0.099568635
186	0xbd80387a	-0.06260772
187	0x3d3296ee	0.04360097
188	0xbc292b21	-0.010325224
189	0x3ddbff51	0.10742057
190	0xbddc121a	-0.1074564
191	0xbdbc519f	-0.091952555
192	0x3c82106f	0.015876977
193	0xbdabae0d	-0.08382807
194	0x3b008d31	0.0019615407
195	0x3d87f5e4	0.06638697
196	0xbd80e46f	-0.0629357
197	0xbd5569db	-0.052102905
198	0xbd944d25	-0.07241277
199	0xbc9a06e1	-0.018802108
200	0xbd827063	-0.06369092
201	0xbd23ae57	-0.039961185
202	0x3da464e8	0.08027059
203	0x3dac522d	0.08414111
204	0x3d121adc	0.035670146
205	0x3dced7b7	0.10099738
206	0xbd5246d2	-0.05133707
207	0x3cadaae1	0.021199645
208	0xbc9a645d	-0.018846685
209	0x3cc53e33	0.02407751
210	0x3da68904	0.081316024
211	0xbdff59c4	-0.12468293
212	0x3c8a07b6	0.01684938
213	0x3d1a2841	0.037636045
214	0x3ddc7b19	0.107656665
215	0x3c158d77	0.009127966
216	0xbd91424f	-0.070927255
217	0xbd084eca	-0.033278264
218	0xbca5d480	-0.02024293
219	0xbd65c774	-0.056098416
220	0xbdba5cd8	-0.0909974
221	0xbdaa4960	-0.083147764
222	0x3d31eaee	0.043436937
223	0xbd92bbc2	-0.07164718
224	0x3da900ba	0.08252092
225	0xbdb86af3	-0.09004774
226	0x3b134958	0.0022474136
227	0x3bb443be	0.0055012396
228	0x3d9c39ae	0.07628189
229	0xbbe1caae	-0.0068906164
230	0x3c98efb5	0.018668989
231	0xbcde7759	-0.027156519
232	0x3d1e4fe9	0.038650427
233	0x3d1b2c59	0.03788409
234	0x3db43d4a	0.088007525
235	0x3d6e5984	0.058190838
236	0xbcbe65c8	-0.023241892
237	0x3d5e4619	0.05426607
238	0x3d259eb8	0.04043457
239	0x3d19775f	0.037467357
240	0x3d94114b	0.07229861
241	0x3d931a85	0.071827926
242	0x3c4746a7	0.012162841
243	0xbd23f6ba	-0.04003022
244	0x3cd564d1	0.02604905
245	0x3dc42830	0.09577978
246	0x3d25c2fb	0.04046915
247	0x3d235e24	0.0398847
248	0xbd2d3be6	-0.04229345
249	0xbcebe937	-0.028797729
250	0x3a7571c1	0.0009362959
251	0xbd56ea51	-0.052469555
252	0x3ce037a5	0.027370283
253	0xbcd9b00b	-0.026573202
254	0x3da887a8	0.082289994
255	0x3d61cb3c	0.05512546

fc2.bias f4 [60]
0	0xbcc70d89	-0.024298446
1	0x3d3ff8f3	0.046868276
2	0xbd7db8ba	-0.061943747
3	0x3c039ef7	0.008033506
4	0x3dd4c108	0.1038838
5	0xbd4bc2a1	-0.04974616
6	0x3d84c83c	0.06483504
7	0xbdba42f3	-0.09094801
8	0xbdacabd4	-0.08431211
9	0xbbac6b77	-0.0052618342
10	0xbd8f0647	-0.06983619
11	0x3d7dc71a	0.061957456
12	0xbc1a435a	-0.009415472
13	0xbd3f632a	-0.04672543
14	0xbda4afbe	-0.08041333
15	0x3d48caf8	0.04902169
16	0xbc03c8a6	-0.008043444
17	0x3da8070e	0.082044706
18	0x3d1719dc	0.036889896
19	0xbd8c2b38	-0.06844181
20	0x3ced81f5	0.028992632
21	0x3daa8f99	0.0832817
22	0xbdf091e5	-0.11746577
23	0x3c2c3f05	0.010513072
24	0xbd2acd01	-0.041699413
25	0xbc517ec9	-0.012786576
26	0xbd9dd9ec	-0.07707581
27	0xbd2c40ad	-0.042053867
28	0xbccaf227	-0.02477367
29	0x3d4830fd	0.048874844
30	0xbd0ebd38	-0.03484842
31	0x3db3f238	0.08786434
32	0xbcd2ed51	-0.025747927
33	0xbd62dd61	-0.055386905
34	0xbda319a0	-0.07963872
35	0xbc23e165	-0.010002469
36	0x3e02b8ab	0.12765758
37	0xbcfdec1c	-0.030996375
38	0x3be42460	0.006962344
39	0xbc3887df	-0.011262863
40	0xbd5c8ab2	-0.053843208
41	0x3db756ff	0.0895214
42	0x3d709da1	0.058744077
43	0xbd8b452a	-0.068003014
44	0xbd740d72	-0.059583135
45	0x3dab9905	0.083787955
46	0xbce6b48d	-0.028162265
47	0xbdbcb17a	-0.092135385
48	0xbd485e51	-0.048918072
49	0xbcb35d2b	-0.021895012
50	0xbcb37274	-0.021905161
51	0xbc98ef9e	-0.018668946
52	0xbdbaed54	-0.09127298
53	0xbd7b1156	-0.06129583
54	0xbc955117	-0.018227143
55	0xbb748879	-0.003731279
56	0xbda327a7	-0.079665475
57	0xbd9088da	-0.07057352
58	0x3cedac21	0.029012742
59	0xbbdfafa6	-0.006826359

fc3.weight f4 [11, 60]
0	0x3d8e4ff1	0.06948841
1	0xbd36f19e	-0.044664018
2	0xbc888bb6	-0.016668182
3	0x3dbfd959	0.09367628
4	0xbb90dd42	-0.0044209072
5	0x3d020fff	0.031753536
6	0xbd5f77f1	-0.054557744
7	0xbdab02b2	-0.083501235
8	0xbb348c7d	-0.0027549558
9	0xbdb61537	-0.08890765
10	0xbe3a0dcb	-0.18169324
11	0xbc8a5428	-0.016885832
12	0xbd2f01af	-0.042726215
13	0xbdfc8118	-0.1232931
14	0xbdc66eb2	-0.09689082
15	0xbe09bfbc	-0.13452047
16	0x3d4b4266	0.04962387
17	0xbdae577f	-0.08512782
18	0x3d785517	0.060628023
19	0xba1b2887	-0.000591882
20	0x3d1f2a59	0.038858745
21	0x3db3fd39	0.08788533
22	0xbe304467	-0.17213593
23	0xbe149a3c	-0.1451196
24	0x3de8abeb	0.11360916
25	0xbd086b7c	-0.03330563
26	0xbd96ac5d	-0.073570944
27	0x3dee173b	0.116255246
28	0x3e490475	0.19630606
29	0xbd76be56	-0.060240112
30	0xbe0f5c42	-0.14000037
31	0x3d821268	0.06351167
32	0xbcd57827	-0.02605827
33	0x3c854b23	0.01627118
34	0x3ccd84e6	0.025087785
35	0x3d926c98	0.07149619
36	0xbe18fa3a	-0.14939204
37	0x3e0d83c0	0.1381979
38	0x3d800e76	0.06252758
39	0x3cb677b2	0.022273872
40	0x3cb166cc	0.021655463
41	0xbe087dd7	-0.13329254
42	0x3d3fa41c	0.046787366
43	0xbc7ffdaa	-0.015624443
44	0xbe81901b	-0.25305256
45	0x3dcba033	0.09942665
46	0x3c14bb0c	0.009077799
47	0x3dd5cb68	0.10439187
48	0xbdea4d6e	-0.1144055
49	0x3e07efac	0.13275021
50	0x3dee47d8	0.11634797
51	0xbd8184f6	-0.063241884
52	0xbdcf25ff	-0.10114669
53	0x3e27792b	0.16354816
54	0x3d2a3ee2	0.041563876
55	0xbd064f50	-0.032790482
56	0xbda573c5	-0.08078722
57	0x3a3f9d05	0.00073094695
58	0xbce1ccfb	-0.027563563
59	0x3da3a60d	0.07990656
60	0x3e229ef5	0.1588095
61	0x3c2fee49	0.010737964
62	0xbce45a64	-0.027875133
63	0xbdc49ae9	-0.09599859
64	0xbdea6ddd	-0.11446736
65	0xbbd01f07	-0.006351355
66	0x3c9329db	0.017964294
67	0x3d96b6dd	0.07359097
68	0x3dc08d99	0.094020076
69	0xbd9730f6	-0.073823854
70	0xbd970318	-0.07373637
71	0xbbbed64b	-0.0058238856
72	0xbdf32e6f	-0.11874091
73	0xbdb657d1	-0.089034684
74	0x3e097332	0.1342285
75	0x3d9a2604	0.07526782
76	0x3d0bd5ce	0.034139447
77	0xbe094884	-0.13406569
78	0xbcd2e507	-0.025743974
79	0x3e3805dd	0.17970987
80	0xbd9f5aa8	-0.07780963
81	0x3ba4f8b4	0.0050345305
82	0x3e04e5ed	0.12978335
83	0xbdd938e5	-0.10606555
84	0xbcbc5eb5	-0.022994379
85	0xbddc7eb2	-0.10766353
86	0x3c72d592	0.014821427
87	0xbdc405d7	-0.09571426
88	0x3db59991	0.08867181
89	0x3df1a288	0.117985785
90	0xbc83e938	-0.016102418
91	0xbe1c7cf3	-0.1528204
92	0x3e2e8e92	0.17046574
93	0xbde9b343	-0.114111446
94	0x3e2676b1	0.16256215
95	0x3e07bb7c	0.13255113
96	0xbe296c1e	-0.1654515
97	0xbc79af94	-0.015239615
98	0x3dbf3103	0.0933552
99	0x3dcec488	0.10096079
100	0xbe0bc63b	-0.13649838
101	0xbd200716	-0.039069258
102	0xbdfda0eb	-0.12384208
103	0xbde34af9	-0.11098284
104	0xbe02ca0a	-0.12772384
105	0xbcc08148	-0.023499146
106	0x3da7f6c1	0.082013614
107	0x3d5bdf53	0.053679775
108	0x3a438355	0.00074582297
109	0xbe22ab6e	-0.15885708
110	0xbdfc5a50	-0.12321913
111	0x3c457eb4	0.012054134
112	0x3d9de583	0.077097915
113	0xbda411ad	-0.08011184
114	0xbe0601c7	-0.13086616
115	0x3df10505	0.117685355
116	0xbdb54580	-0.08851147
117	0xbd606d7f	-0.054791924
118	0x3b716ab0	0.0036837272
119	0x3c028315	0.007965823
120	0x3dc522cd	0.09625778
121	0xbd448cd3	-0.047985863
122	0xbe16b6a1	-0.14718105
123	0x3e1a0e0c	0.15044421
124	0xbd21e56a	-0.039525427
125	0xbc9c2f55	-0.019065538
126	0x3e19c6b5	0.15017207
127	0x3d526dbf	0.051374193
128	0x3dacd873	0.08439722
129	0xbd8ca724	-0.06867817
130	0x3d0f5d4a	0.035001077
131	0x3de6d59e	0.11271213
132	0x3d6dd107	0.058060672
133	0xbdaf8ad8	-0.08571404
134	0x3db85c25	0.0900195
135	0x3e0dd617	0.138512
136	0x3c0d6f2f	0.008632465
137	0xbe0f65be	-0.14003655
138	0xbe0155e0	-0.12630415
139	0x3c4601a7	0.012085355
140	0x3e05a315	0.13050492
141	0x3d656740	0.05600667
142	0xbe23fead	-0.1601512
143	0x3d57607c	0.05258225
144	0x3e28a547	0.16469298
145	0xbd578404	-0.052616134
146	0xbd901f62	-0.07037236
147	0xbde81e8b	-0.113339506
148	0x3d929f2a	0.071592644
149	0x3cd6361a	0.026148845
150	0x3e251450	0.1612103
151	0xbdbd7f20	-0.09252763
152	0x3db1ea68	0.086872876
153	0xbdf649fd	-0.12025831
154	0xbbcd607d	-0.006267606
155	0xbd2380a6	-0.03991761
156	0x3df660cd	0.12030182
157	0x3c10f87d	0.008848307
158	0x3dc42159	0.09576673
159	0xbc9bf65b	-0.01903837
160	0xbde2065a	-0.11036368
161	0xbdb257ee	-0.087081775
162	0xbc8133c4	-0.015771754
163	0xbc84b8e9	-0.016201453
164	0xbd12a814	-0.035804823
165	0xbda86add	-0.082235076
166	0xbe355379	-0.17707624
167	0xbda66839	-0.08125348
168	0xbd609e4d	-0.054838467
169	0xbd9e939f	-0.07743
170	0xbdad0a31	-0.084492095
171	0xbd0299bf	-0.031884905
172	0x3e06d118	0.131657
173	0x3e206006	0.1566163
174	0xbe43e513	-0.19130354
175	0xbdad1ea8	-0.08453113
176	0x3bb8b2e1	0.0056365584
177	0xbd2bf1f7	-0.041978803
178	0xbc1d5e15	-0.00960495
179	0x3e001845	0.12509258
180	0xbe41ddc9	-0.1893226
181	0xbdb56753	-0.08857598
182	0x3df17a91	0.11790956
183	0x3bab8ec2	0.005235524
184	0xbd11bb32	-0.035578914
185	0xbe0b66c4	-0.1361342
186	0x3c72177a	0.014776105
187	0x3e094e13	0.13408689
188	0x3e089640	0.13338566
189	0xbdc4ff30	-0.09618986
190	0x3d48c817	0.049018946
191	0x3d6b08af	0.05738133
192	0x3e0928bd	0.13394447
193	0xbb013133	-0.0019713163
194	0xbdbc0554	-0.09180704
195	0xbe410577	-0.18849741
196	0xbc1da085	-0.00962079
197	0x3d264701	0.04059506
198	0x3d61da04	0.055139557
199	0x3e0f5318	0.13996542
200	0x3d200669	0.039068613
201	0x3d08bf25	0.033385415
202	0x3dbc0447	0.09180503
203	0x3dc897f4	0.09794608
204	0x3d512f3d	0.05107044
205	0xbcb98aa1	-0.022649111
206	0x3cbd575a	0.023112942
207	0xbd4eed24	-0.050519124
208	0xbdae43f4	-0.08509055
209	0xbe3b8420	-0.1831212
210	0x3d4fce27	0.05073371
211	0xbe357b6c	-0.17722863
212	0x3d970764	0.073744565
213	0x3da5b03f	0.08090257
214	0x3e50205a	0.20324841
215	0xbd03db24	-0.03219141
216	0xbd24b326	-0.04020991
217	0x3dd23946	0.1026483
218	0x3e01627d	0.12635227
219	0xbc88ddd4	-0.016707338
220	0xbdf60c02	-0.12014009
221	0x3d521223	0.051286828
222	0xbda18d22	-0.07888247
223	0x3e0728fa	0.13199225
224	0xbe121ec3	-0.14269547
225	0x3dd3c3b9	0.103400655
226	0xbd96f054	-0.07370058
227	0x3dfd4bce	0.12367974
228	0xbdcae6d5	-0.09907309
229	0xbdf682dc	-0.12036678
230	0xbde78de6	-0.11306362
231	0x3e0b9ded	0.13634463
232	0x3dde15d6	0.108440086
233	0x3d8c67d0	0.06855738
234	0x3dcb362d	0.099224426
235	0xbe601101	-0.21881486
236	0x3e04b9a0	0.12961435
237	0xbdaa192e	-0.08305584
238	0x3dfbba35	0.122913755
239	0xbcc08b4d	-0.023503924
240	0x3e15074a	0.14553562
241	0xbe140ffd	-0.14459224
242	0xbdb99694	-0.090619236
243	0x3db212d6	0.08694999
244	0xbe11edc8	-0.14250863
245	0x3cb2da60	0.021832645
246	0x3e073443	0.1320353
247	0xbd270718	-0.04077825
248	0x3cc5e27f	0.024155853
249	0x3b3c5c46	0.0028741523
250	0x3e6ba56a	0.23012319
251	0xbddd749e	-0.108132586
252	0x3cadb611	0.02120498
253	0xbd2c4032	-0.04205341
254	0x3dc5273c	0.09626624
255	0x3c4f38b8	0.0126478

fc3.bias f4 [11]
0	0xbe1af27f	-0.15131567
1	0xbe9009b8	-0.28132415
2	0x3d04b105	0.03239538
3	0x3d7ef8c6	0.062248968
4	0xbcf34c22	-0.029699389
5	0x3d7fc941	0.06244779
6	0xbdec8d47	-0.11550384
7	0x3da1b607	0.07896047
8	0xbc63e9d2	-0.013910728
9	0x3d88850d	0.066660024
10	0x3d201ac0	0.03908801
