model-fold-0.pth (torch, 432769 bytes, 12 tensors)

conv1.weight f4 [3, 1, 3, 3]
-0.32833117 0.2323367 0.28400528 0.8404657 -0.25510553 -0.32116818 0.6143939 -0.96767294
-0.28254965 -0.20129755 -0.26295283 0.106758155 -0.16807283 -0.31127644 0.3431558 0.10294821
-0.14191979 -0.01264175 -0.0908104 -0.25065055 -0.10791314 -0.09020757 0.08480137 0.042319674
-0.1616011 -0.34798577 0.46593153
00000000: 061b a8be ace9 6d3e 2469 913e c328 573f
00000010: 319d 82be 2870 a4be eb48 1d3f 6ab9 77bf
00000020: 59aa 90be f220 4ebe c1a1 86be 05a4 da3d
00000030: 491b 2cbe a05f 9fbe 1eb2 af3e 83d6 d23d
00000040: 6c53 11be 581f 4fbc cefa b9bd 4555 80be
00000050: 9001 ddbd bfbe b8bd 57ac ad3d 6557 2d3d
00000060: c27a 25be 312b b2be 948e ee3e

conv1.bias f4 [3]
-0.18488972 -0.29144636 0.166656
00000000: bb53 3dbe 7538 95be dfa7 2a3e

conv2.weight f4 [6, 3, 5, 5]
-0.0634581 -0.26823217 -0.1390563 -0.117726386 -0.14667507 0.030627128 -0.10551783 0.07390181
-0.16717249 -0.14782354 0.10903898 0.24846256 0.10798346 -0.20652711 -0.16670087 0.25617474
0.28124937 0.0093252035 -0.20566437 -0.1895136 0.06850373 0.060268406 -0.09156177 -0.17409347
-0.1774981 0.08327302 0.07232289 0.065330386 0.14258476 0.03651418 0.067918815 -0.0024509227
0.036376186 0.12129994 0.1028177 0.11047876 -0.05852634 -0.026595788 0.005142492 0.029170984
0.09871483 0.12957673 -0.03385828 -0.0083938455 -0.05892062 0.10634218 0.02204167 0.14230162
-0.0735434 0.121268265 0.023350526 -0.068177216 0.116666675 -0.028484872 -0.07406651 0.07432496
-0.066705495 0.03965131 -0.062091596 0.101478636 -0.06766615 -0.057925317 -0.10452899 0.124871746
0.009384944 0.0053794715 0.05521568 -0.037130635 -0.10936138 -0.0006431277 0.10164625 0.13364221
0.12396535 0.055047903 -0.020873625 -0.11888158 -0.23226231 -0.10027701 0.18598865 0.1618159
-0.22193912 -0.16909939 0.2409056 0.32296327 0.14165454 -0.054010246 0.2060987 0.0621197
-0.18491682 -0.01913847 0.015720017 -0.03932328 -0.20148826 -0.19757393 -0.2204525 0.16567267
0.035233933 -0.22496185 -0.26828316 -0.15828736 0.04668886 -0.027643424 -0.0038256976 0.066309124
0.08181648 -0.08673667 0.017347096 -0.0042858124 0.012733537 0.036700796 -0.076104246 -0.026328662
-0.11294347 -0.045526482 -0.08579187 -0.008028618 -0.07186882 0.08014334 0.005746664 -0.011533755
-0.087226614 -0.120921 -0.043297067 -0.040813573 -0.033409197 0.034579653 -0.093862765 -0.11153121
-0.006742197 -0.011150777 -0.12122418 -0.07887857 -0.021464987 -0.035611294 0.031808972 0.031955406
0.014661973 -0.03247004 -0.1090217 -0.032752767 -0.07430979 -0.107524276 0.04427847 0.030433469
0.038738295 -0.069998786 -0.029662017 -0.09831136 -0.008471792 -0.082461424 0.07746391 -0.21597326
0.08961803 -0.018710917 -0.13970776 -0.11137142 0.20049022 -0.14307009 0.043783456 -0.100371964
0.1234252 0.041348882 -0.17968807 0.20358178 -0.060815092 -0.2840451 -0.14882946 0.14891425
-0.087014996 0.042510033 0.17504226 -0.104145266 -0.06729481 -0.13368103 0.0017108375 -0.1014558
0.03864448 -0.07921545 0.08549784 -0.09308912 0.05430373 -0.038988385 0.0005750831 -0.009371687
-0.07839867 0.033723284 -0.021930173 0.08009799 -0.08824247 -0.08890297 -0.116755605 -0.05956277
-0.08281117 0.11346062 -0.013183848 0.07661923 -0.07455408 0.008780825 -0.03715175 -0.007966083
0.039417718 -0.0055337157 -0.08735102 -0.10969566 0.08357016 0.015516574 -0.09267609 -0.10043913
-0.12843785 0.0074187615 -0.048503567 0.0031244187 -0.07707808 -0.0031933228 -0.10291741 0.042059798
-0.06579662 0.06406407 0.059802715 0.015443765 -0.070956685 0.00045282146 -0.054624155 -0.036029857
-0.053198073 0.08209491 -0.036135685 0.120106086 0.063804194 -0.043368753 0.053992845 -0.03814791
-0.008873756 -0.06394583 0.019880522 -0.038532395 0.14184631 0.11517768 -0.17808506 -0.24239784
0.09679796 -0.2076514 0.045667507 0.027440608 0.29863912 -0.14681882 0.29615554 0.06496356
0.015645847 -0.06482031 -0.046201825 0.0041356543 -0.06036082 0.03732087 0.057201535 0.11991403
00000000: 52f6 81bd ba55 89be c664 0ebe 881a f1bd
00000010: fd31 16be bee5 fa3c bb19 d8bd d559 973d
00000020: 442f 2bbe 0e5f 17be d44f df3d f86c 7e3e
00000030: 6f26 dd3d d87b 53be a2b3 2abe 5629 833e
00000040: ebff 8f3e bdc8 183c ae99 52be da0f 42be
00000050: af4b 8c3d 01dc 763d bd84 bbbd 8f45 32be
00000060: 10c2 35be 0c8b aa3d 061e 943d f0cb 853d
00000070: bd01 123e e58f 153d 0519 8b3d a99f 20bb
00000080: 32ff 143d 1a6c f83d 1692 d23d b042 e23d
00000090: 51b9 6fbd 69df d9bc 5982 a83b fdf7 ee3c
000000a0: 002b ca3d c3af 043e fbae 0abd 5786 09bc
000000b0: bf56 71bd eec9 d93d bb90 b43c 84b7 113e
000000c0: ec9d 96bd 7f5b f83d 9a49 bf3c 7fa0 8bbd
000000d0: f0ee ee3d 1b59 e9bc 2fb0 97bd af37 983d
000000e0: e49c 88bd 6969 223d c253 7ebd 08d4 cf3d
000000f0: 8d94 8abd 1943 6dbd 4c13 d6bd c2bc ff3d
00000100: 4fc3 193c 4746 b03b d629 623d 4b16 18bd
00000110: dcf8 dfbd 9297 28ba e92b d03d 81d9 083e
00000120: 8ce1 fd3d e979 613d 2aff aabc 3078 f3bd
00000130: 2cd6 6dbe 085e cdbd cf73 3e3e 11b3 253e
00000140: 0244 63be 6428 2dbe f5af 763e 715b a53e
00000150: e30d 113e d939 5dbd 8a0b 533e 3a71 7e3d
00000160: d65a 3dbe 48c8 9cbc 44c7 803c 7311 21bd
00000170: f052 4ebe d250 4abe 4dbe 61be 19a6 293e
00000180: 7551 103d 665c 66be 695c 89be 1516 22be
00000190: d13c 3f3d 7674 e2bc 8eb8 7abb 14cd 873d
000001a0: 668f a73d ffa2 b1bd 7f1b 8e3c 0070 8cbb
000001b0: 53a0 503c 9353 163d 8bdc 9bbd 35af d7bc
000001c0: e84e e7bd fa79 3abd a6b3 afbd 778a 03bc
000001d0: f62f 93bd 3122 a43d 834e bc3b 13f8 3cbc
000001e0: dea3 b2bd 6ea5 f7bd 4458 31bd 222c 27bd
000001f0: 15d8 08bd 65a3 0d3d 1f3b c0bd 7a6a e4bd
00000200: a6ed dcbb c0b1 36bc 6244 f8bd 168b a1bd
00000210: 57d7 afbc 26dd 11bd 204a 023d ace3 023d
00000220: c638 703c 4eff 04bd c546 dfbd c427 06bd
00000230: bb2f 98bd b035 dcbd 575d 353d 9c4f f93c
00000240: 0cac 1e3d 865b 8fbd c2fd f2bc 7757 c9bd
00000250: 45cd 0abc 89e1 a8bd 66a5 9e3d 1828 5dbe
00000260: a889 b73d a347 99bc 8d0f 0fbe b316 e4bd
00000270: 4f4d 4d3e f780 12be 4856 333d d18f cdbd
00000280: 5ac6 fc3d 725d 293d 2600 38be be77 503e
00000290: 3f19 79bd 5c6e 91be c066 18be fa7c 183e
000002a0: eb34 b2bd 001f 2e3d 473e 333e 1d4a d5bd
000002b0: ddd1 89bd aee3 08be 2e3e e03a 0fc8 cfbd
000002c0: ad49 1e3d b63b a2bd 7e19 af3d 82a5 bebd
000002d0: 976d 5e3d 49b2 1fbd 2cc1 163a b48b 19bc
000002e0: 7b8f a0bd 6d21 0a3d e8a6 b3bc 6a0a a43d
000002f0: 78b8 b4bd c312 b6bd 901d efbd 17f8 73bd
00000300: e798 a9bd 0b5e e83d 1101 58bc 8bea 9c3d
00000310: cfaf 98bd 73dd 0f3c 6f2c 18bd 2c84 02bc
00000320: 7974 213d 2c54 b5bb 17e5 b2bd 1ea8 e0bd
00000330: d526 ab3d 3a39 7e3c f6cc bdbd 08b3 cdbd
00000340: 3685 03be 1519 f33b adab 46bd 0cc3 4c3b
00000350: 1ddb 9dbd 1147 51bb 5dc6 d2bd e546 2c3d
00000360: 61c0 86bd 0634 833d b1f3 743d d807 7d3c
00000370: bd51 91bd ab68 ed39 94bd 5fbd 0b94 13bd
00000380: 39e6 59bd 6021 a83d 0303 14bd 2efa f53d
00000390: c6ab 823d 6fa3 31bd 9a27 5d3d fc40 1cbd
000003a0: 3b63 11bc 08f6 82bd 7adc a23c 25d4 1dbd
000003b0: 2940 113e 47e2 eb3d ee5b 36be 2437 78be
000003c0: 023e c63d 92a2 54be da0d 3b3d 20cb e03c
000003d0: 3ae7 983e ac57 16be b3a1 973e 9d0b 853d
000003e0: b82b 803c 83c0 84bd 203e 3dbd 6284 873b
000003f0: e83c 77bd c5dd 183d 284c 6a3d 7d95 f53d

conv2.bias f4 [6]
0.0693167 0.1293064 -0.10374567 -0.11463657 -0.10115397 0.1109156
00000000: eaf5 8d3d e668 043e 9c78 d4bd 94c6 eabd
00000010: d029 cfbd b827 e33d

conv3.weight f4 [16, 6, 7, 7]
0.06300675 -0.049550466 -0.017266653 0.021218425 -0.065269135 0.021312261 0.052328374 0.07144279
0.060875963 -0.04829254 0.01655211 -0.012806148 -0.02243768 -0.021825323 0.07530105 0.055841696
0.050128732 0.027373705 -0.059131507 -0.014538144 0.018232236 -0.043547913 -0.0045374758 -0.0270258
-0.071525015 0.0071610897 -0.042672247 -0.046089057 0.08946138 0.0073971082 -0.018182363 -0.0051337294
-0.06731392 -0.019826684 0.029017916 0.10232638 -0.07268189 -0.020083424 -0.037887175 -0.031116862
0.03479306 -0.016484737 0.06232138 -0.033842433 0.002174741 -0.0011759773 0.034917574 -0.016977573
0.00023518132 0.02210006 0.005569119 0.05126367 -0.013558714 -0.045313507 -0.02082146 0.028090341
-0.047292534 -0.024750782 0.020889426 -0.041986845 0.032329656 0.036179207 0.04211068 0.008963922
0.024057588 -0.014274334 -0.012364489 -0.060139567 0.038759388 -0.051789604 0.042182308 0.0048904163
0.032420203 -0.06447628 -0.04355746 -0.03769918 -0.049271036 -0.028939765 0.027915552 0.02498241
-0.046227917 -0.01747041 -0.004568523 -0.029858558 0.035033554 -0.035582047 -0.058346745 -0.019937005
0.0044319625 -0.0022039711 -0.052762046 -0.03181314 0.025295425 0.025411425 -0.015746666 0.023151712
-0.06568475 -0.028772723 0.051242653 0.019161766 -0.0076436643 -0.03453329 -0.022477403 0.030714266
0.015275402 -0.04330997 -0.02981511 -0.055099323 0.051130887 0.029901946 -0.046428356 -0.021890111
0.071143135 0.035851706 -0.014271559 -0.019762384 0.029577645 -0.026612364 -0.03881037 0.0030649828
0.00026153238 -0.044016734 -0.020348042 0.0018732509 0.015388394 0.05044303 0.0010432004 -0.052513316
0.023378808 -0.0061586113 0.028474836 -0.05929899 -0.057603337 0.023876667 0.057631522 0.037157387
-0.016434185 -0.02843591 -0.052038234 -0.04543289 -0.019128643 0.031125447 -0.055740267 0.026896974
-0.03544596 0.04783616 -0.015178032 0.047575984 -0.022202084 0.009109585 -0.020611176 -0.0570155
-0.007907773 -0.04151323 -0.00934482 -0.05618959 0.014982941 0.031083148 0.0045940657 0.02017781
-0.0004897511 -0.029818106 -0.069189325 -0.06409964 0.01583448 -0.071521215 -0.069456376 -0.07124101
-0.022229029 -0.015351209 -0.053187028 -0.028259918 -0.08838019 -0.060863495 -0.07607266 0.02237659
-0.04040418 0.018115407 -0.0589887 -0.0054365597 -0.08084295 0.022993777 -0.011202195 0.04219527
-0.01374908 -0.042417996 -0.0406808 0.028473722 0.008573237 0.106602505 0.030022047 -0.029110141
0.03493219 -0.00802789 -0.032184664 -0.06663886 0.0056433263 -0.038172904 -0.051874433 0.0052597616
-0.016694589 -0.027302498 0.034983154 -0.006087658 -0.032731738 0.005843536 0.05118673 -0.019849144
0.033670764 -0.045063823 0.021561535 0.020072693 -0.010336062 -0.009491929 0.04116102 0.020479465
0.034704413 0.048147976 0.038289785 -0.059197415 -0.0032662363 0.0145608 0.030712962 -0.04227944
-0.013417068 0.042575363 -0.05948141 -0.04622612 0.03169548 -0.014073594 -0.0040656594 -0.012397493
0.0469403 -0.014030839 0.0540066 -0.041990105 0.027932607 -0.001923554 0.056066662 0.017808916
-0.018685775 -0.03858441 -0.012872756 -0.016598325 0.035884768 -0.036495145 0.008363186 0.000569857
0.0025783787 -0.005817201 0.044089086 0.052603863 -0.03545614 -0.05281674 0.027333247 -0.042978965
00000000: af09 813d 6ef5 4abd cc72 8dbc 43d2 ad3c
00000010: d3ab 85bd 0d97 ae3c 4756 563d 9950 923d
00000020: 1359 793d 66ce 45bd 4a98 873c e1d0 51bc
00000030: 3acf b7bc 05cb b2bc 7037 9a3d 43ba 643d
00000040: c953 4d3d d23e e03c e133 72bd 6531 6ebc
00000050: c55b 953c 4c5f 32bd 1baf 94bb 3665 ddbc
00000060: b57b 92bd 93a7 ea3b 18c9 2ebd e1c7 3cbd
00000070: 8737 b73d 7163 f23b 2ef3 94bc d838 a8bb
00000080: e1db 89bd 926b a2bc fbb6 ed3c 7e90 d13d
00000090: 3eda 94bd fe85 a4bc 952f 1bbd cae8 febc
000000a0: 2b83 0e3d 000b 87bc b444 7f3d 5d9e 0abd
000000b0: 1986 0e3b 4023 9aba bb05 0f3d 8d14 8bbc
000000c0: 019b 7639 2f0b b53c 287d b63b dbf9 513d
000000d0: 5e25 5ebc a89a 39bd c491 aabc b71d e63c
000000e0: d1b5 41bd 27c2 cabc 4d20 ab3c 66fa 2bbd
000000f0: 1a6c 043d a630 143d 407c 2c3d 6add 123c
00000100: 6b14 c53c e5de 69bc 6d94 4abc e854 76bd
00000110: 2ac2 1e3d 5621 54bd 5bc7 2c3d c93f a03b
00000120: 0ccb 043d 240c 84bd 4f69 32bd 756a 1abd
00000130: 6dd0 49bd 1613 edbc 28af e43c e9a7 cc3c
00000140: 7c59 3dbd 1b1e 8fbc 8cb3 95bb ef99 f4bc
00000150: 587f 0f3d 7bbe 11bd fffc 6ebd ee52 a3bc
00000160: ff39 913b 8070 10bb 041d 58bd 7f4e 02bd
00000170: 5a38 cf3c 9f2b d03c 27ff 80bc a9a8 bd3c
00000180: ba85 86bd c6b4 ebbc d1e3 513d 23f9 9c3c
00000190: b477 fabb c772 0dbd 8822 b8bc 7c9c fb3c
000001a0: ae45 7a3c cc65 31bd d13e f4bc d4af 61bd
000001b0: 9f6e 513d edf4 f43c a92b 3ebd e452 b3bc
000001c0: 7eb3 913d 3dd9 123d 42d3 69bc b9e4 a1bc
000001d0: d14c f23c 2c02 dabc 9ff7 1ebd e1dd 483b
000001e0: 481e 8939 e44a 34bd f0b0 a6bc df87 f53a
000001f0: 9a1f 7c3c 5a9d 4e3d ffbb 883a 3418 57bd
00000200: ea84 bf3c 2dce c9bb 0f44 e93c 7fe3 72bd
00000210: 7af1 6bbd 0099 c33c 080f 6c3d 5832 183d
00000220: fca0 86bc 6df2 e8bc 0b26 55bd d717 3abd
00000230: acb3 9cbc cbfa fe3c e84f 64bd 0b57 dc3c
00000240: c82f 11bd d9ef 433d 48ad 78bc 09df 423d
00000250: 25e1 b5bc 5e40 153c c5d8 a8bc 1689 69bd
00000260: 9b8f 01bc c709 2abd 041b 19bc 0e27 66bd
00000270: 027b 753c 16a2 fe3c d189 963b ef4b a53c
00000280: a462 00ba 1a45 f4bc 22b3 8dbd ac46 83bd
00000290: 50b7 813c b779 92bd 253f 8ebd cfe6 91bd
000002a0: a719 b6bc a383 7bbc a4da 59bd 5881 e7bc
000002b0: ac00 b5bd 004c 79bd fccb 9bbd 1c4f b73c
000002c0: da7e 25bd c366 943c 239e 71bd 2b25 b2bb
000002d0: fd90 a5bd 725d bc3c 6989 37bc f3d4 2c3d
000002e0: d243 61bc 7ebe 2dbd e9a0 26bd b941 e93c
000002f0: c376 0c3c 6a52 da3d ccf0 f53c 6478 eebc
00000300: 0e15 0f3d 6987 03bc 11d4 03bd f479 88bd
00000310: a7eb b83b 315b 1cbd 497a 54bd 145a ac3b
00000320: 17c3 88bc 7da9 dfbc 7f4a 0f3d fa7a c7bb
00000330: b711 06bd 227b bf3b 2da9 513d ac9a a2bc
00000340: 5bea 093d d894 38bd d1a1 b03c 7d6f a43c
00000350: 9658 29bc 0984 1bbc 7598 283d 8dc4 a73c
00000360: 3726 0e3d d036 453d c0d5 1c3d fd78 72bd
00000370: 5a0e 56bb 6c90 6e3c c099 fb3c 352d 2dbd
00000380: 43d3 5bbc 8163 2e3d c7a2 73bd 9a57 3dbd
00000390: 1fd3 013d ee94 66bc 3939 85bb db1e 4bbc
000003a0: 7944 403d 9be1 65bc 0636 5d3d d1fd 2bbd
000003b0: ecd2 e43c c31f fcba 28a6 653d 01e4 913c
000003c0: e912 99bc b00a 1ebd 41e8 52bc 36f9 87bc
000003d0: e8fb 123d ef7b 15bd bf05 093c 7562 153a
000003e0: 04fa 283b 389e bebb c296 343d 2677 573d
000003f0: 753a 11bd 5e56 58bd f9e9 df3c b60a 30bd

conv3.bias f4 [16]
-0.0479425 0.03933527 -0.014129272 -0.026790455 0.052214626 0.0256821 0.024844069 -0.0023958695
-0.016569614 -0.045107536 -0.0018408836 -0.0050164033 -0.04348764 -0.03826044 -0.009130955 0.037491277
00000000: 5b5f 44bd 051e 213d 767e 67bc a877 dbbc
00000010: 01df 553d 4463 d23c ca85 cb3c 0504 1dbb
00000020: 00bd 87bc aec2 38bd ce49 f1ba a460 a4bb
00000030: 1820 32bd fbb6 1cbd 009a 15bc 7490 193d

fc1.weight f4 [120, 784]
0.01874857 0.02205682 -0.022109434 -0.02655595 -0.009620836 -0.026057778 -0.009555362 0.0061362577
-0.03437772 0.011027236 -0.020273125 0.03008491 0.019986393 -0.03009985 0.00495664 0.0009213696
-0.008504753 -0.006586346 0.011552925 0.016902076 -0.043424204 0.02087823 -0.030318113 -0.012530012
-0.0262938 -0.0014533567 -0.01277261 -0.032356743 0.0129214795 0.02640364 -0.01570366 -0.0006991795
0.032138534 -0.010422294 0.027489204 0.0020282224 0.024125854 -0.030119183 0.0381374 0.0023588936
-0.026441062 0.021809105 -0.021592906 -0.0008335479 -0.0090132095 -0.0044156965 -0.023986807 -0.029727915
-0.01725168 -0.021718433 -0.025707206 -0.01844765 -0.0011090394 -0.0039889384 -0.020455003 -0.026949456
0.021181248 -0.00061664515 0.023384731 -0.010353489 -0.016318196 0.016670778 -0.010513381 -0.032690402
0.020930875 0.00741754 0.0056477166 -0.0043254215 -0.02762832 0.0038517881 -0.07337365 0.004339579
-0.015836595 0.0026233061 0.008988486 -0.02671185 -0.010821809 0.005162443 0.019877506 0.017129736
-0.022276629 0.0069559272 -0.0038220475 -0.03820004 -0.028193979 -0.03885155 -0.01702318 -0.00520522
-0.007861121 0.015430347 -0.05051588 0.02521758 -0.02088144 0.027768351 -0.02266573 -0.0070484066
0.019779673 -0.042609733 -0.046054546 0.014933705 0.027441699 0.01718397 0.008926579 0.007433864
-0.030317908 -0.044385783 -0.028233133 -0.04586767 0.005809393 -0.033980995 0.006513113 -0.001932844
0.036198895 0.03219804 -0.005254352 0.024300676 -0.024257526 -0.033565637 0.018134002 -0.026159056
0.016827187 0.012852061 0.0119159 -0.024105612 -0.027406279 -0.04215854 -0.018562198 0.07076004
0.009681382 -0.027435146 0.010125254 -0.032042503 -0.0011019821 -0.023968514 0.02336276 -0.00026842876
0.037521094 -0.03492742 -0.01905413 -0.0065941154 0.03681476 0.06669715 -0.0238145 -0.032077797
-0.012987748 0.02004918 -0.030689893 0.033695765 0.025833786 -0.002519339 0.012912175 -0.028099405
-0.030326556 0.021415856 0.026394475 0.035286482 -0.022463972 0.01174342 0.028434161 0.012911747
0.03029042 0.008904525 -0.005896066 -0.028215684 0.038273215 -0.009953383 0.015182948 -0.0055509843
-0.017054137 0.0025945748 0.031057104 0.005942488 -0.016724622 -0.031890187 0.0008729126 -0.013212743
0.0025729067 0.011327881 0.027282873 0.0036878034 -0.005795733 -0.019753002 -0.0027648094 0.035159264
-0.004947192 0.03223523 0.02987417 0.0004905067 0.009988605 0.03382094 0.033295654 0.037150346
-0.031450827 -0.007036935 0.026639262 0.025346668 0.041353446 -0.0027386304 -0.0066098496 0.030984312
0.0009002055 0.026323551 0.013561385 0.03097404 -0.0248505 0.015265049 0.0063179433 -0.008748727
0.034626424 0.00096515263 -0.013067876 0.00019084087 -0.025668476 0.017522153 -0.0128676705 0.037884068
0.030759199 0.040559717 0.03923013 0.028159678 -0.009771466 0.005742719 -0.009173225 -0.018405985
0.0029991677 0.031212568 0.037807144 -0.010716672 0.023929553 0.02092318 0.032672435 0.037710037
-0.020879764 -0.010173853 0.039144102 0.002598688 -0.0049537844 -0.013211754 -0.022650417 0.032178164
-0.005314699 -0.014756322 0.03128521 -0.0151477745 0.025850268 -0.054131743 -0.050738506 -0.05589833
0.042831197 0.020668002 -0.017379431 0.010499459 -0.027227718 0.0075307162 -0.037990596 0.0022520486
00000000: 9a96 993c 81b0 b43c d81e b5bc dd8b d9bc
00000010: b6a0 1dbc 1f77 d5bc 188e 1cbc a912 c93b
00000020: a7cf 0cbd 94ab 343c d313 a6bc a174 f63c
00000030: 81ba a33c f693 f6bc 4f6b a23b 1188 713a
00000040: 8557 0bbc 46d2 d7bb 7b48 3d3c 3976 8a3c
00000050: 94dd 31bd d208 ab3c b15d f8bc ae4a 4dbc
00000060: 1866 d7bc 8f7e beba 3644 51bc 8188 04bd
00000070: 9db4 533c 724c d83c f6a4 80bc 2449 37ba
00000080: b2a3 033d 45c2 2abc 0a31 e13c edeb 043b
00000090: 95a3 c53c 81bc f6bc f635 1c3d ab97 1a3b
000000a0: ed9a d8bc 02a9 b23c 9be3 b0bc 7482 5aba
000000b0: 24ac 13bc 8cb1 90bb fb7f c4bc f587 f3bc
000000c0: 6553 8dbc dbea b1bc eb97 d2bc 871f 97bc
000000d0: 305d 91ba a4b5 82bb 4091 a7bc 1bc5 dcbc
000000e0: 4c84 ad3c 5ba6 21ba 5691 bf3c aea1 29bc
000000f0: bdad 85bc 2891 883c 5140 2cbc 5fe6 05bd
00000100: 3a77 ab3c d60e f33b 7b10 b93b 44bc 8dbb
00000110: c954 e2bc 486e 7c3b ed44 96bd 0733 8e3b
00000120: bfbb 81bc c6eb 2b3b 7144 133c cfd2 dabc
00000130: f54d 31bc b629 a93b 27d6 a23c a953 8c3c
00000140: 7a7d b6bc 8cee e33b 517b 7abb a577 1cbd
00000150: 0ff7 e6bc ce22 1fbd 3274 8bbc 8d90 aabb
00000160: eecb 00bc 91cf 7c3c bde9 4ebd 1995 ce3c
00000170: 8e0f abbc 747a e33c 7bad b9bc 52f6 e6bb
00000180: fb08 a23c 8b87 2ebd b1a3 3cbd 80ac 743c
00000190: 6acd e03c 66c5 8c3c c940 123c c597 f33b
000001a0: 435d f8bc decd 35bd 2c49 e7bc bddf 3bbd
000001b0: b85c be3b a82f 0bbd f46b d53b 7c57 fdba
000001c0: 4b45 143d 18e2 033d b32c acbb 3612 c73c
000001d0: b8b7 c6bc 1f7c 09bd c28d 943c 844b d6bc
000001e0: 2bd9 893c 7391 523c e83a 433c 2279 c5bc
000001f0: 2283 e0bc 6fae 2cbd c00f 98bc a4ea 903d
00000200: a99e 1e3c acbf e0bc 65e4 253c 003f 03bd
00000210: 6270 90ba 9e59 c4bc 4263 bf3c e6bb 8cb9
00000220: b8af 193d 0e10 0fbd 6817 9cbc 7313 d8bb
00000230: 13cb 163d 8498 883d a016 c3bc 0264 03bd
00000240: 90ca 54bc 2e3e a43c 5f69 fbbc 9204 0a3d
00000250: 60a1 d33c 7f1b 25bb 968d 533c b930 e6bc
00000260: 666f f8bc 4e70 af3c 3a39 d83c 8f88 103d
00000270: 5d06 b8bc 7967 403c c2ee e83c cb8b 533c
00000280: 9d23 f83c 49e4 113c c933 c1bb 9424 e7bc
00000290: 60c4 1c3d 8413 23bc e6c1 783c 08e5 b5bb
000002a0: 1eb5 8bbc be09 2a3b 786b fe3c 34b9 c23b
000002b0: 1302 89bc 499f 02bd 2cd4 643a 437a 58bc
000002c0: 369e 283b 9498 393c 5580 df3c 13af 713b
000002d0: 22ea bdbb 0cd1 a1bc ce31 35bb 2903 103d
000002e0: 0e1c a2bb 1709 043d adba f43c 5995 003a
000002f0: 3fa7 233c d387 0a3d 0661 083d f62a 183d
00000300: 95d2 00bd 1796 e6bb 953a da3c d1a3 cf3c
00000310: 3b62 293d 987a 33bb 7097 d8bb d0d2 fd3c
00000320: c5fb 6b3a 7da4 d73c 9230 5e3c 45bd fd3c
00000330: 4793 cbbc 421a 7a3c c006 cf3b d256 0fbc
00000340: 70d4 0d3d 4c02 7d3a a51a 56bc 751c 4839
00000350: b246 d2bc 9e8a 8f3c ecd2 52bc 532c 1b3d
00000360: b7fa fb3c f221 263d c6af 203d 20af e63c
00000370: 8018 20bc 6b2d bc3b 4b4b 16bc 26c8 96bc
00000380: af8d 443b 80b1 ff3c aadb 1a3d fb94 2fbc
00000390: e907 c43c 1767 ab3c 88d3 053d d775 1a3d
000003a0: 0a0c abbc 3bb0 26bc 9155 203d c04e 2a3b
000003b0: 5b53 a2bb 1d76 58bc 5e8d b9bc 40cd 033d
000003c0: ed26 aebb 80c4 71bc ec24 003d 5f2e 78bc
000003d0: f1c3 d33c 3fb9 5dbd 2ed3 4fbd a6f5 64bd
000003e0: c46f 2f3d f14f a93c 4f5f 8ebc ec05 2c3c
000003f0: aa0c dfbc 3ac4 f63b 079c 1bbd 1b97 133b

fc1.bias f4 [120]
-0.004139362 0.0069156033 0.011776748 0.015028292 0.03571604 0.033994306 0.0021014865 0.039338946
0.008264567 -0.021403896 -0.005942545 0.0010259552 -0.020627728 0.0099234665 -0.035335496 0.0014249927
-0.008027086 0.027442541 0.0010712508 0.00057174027 0.008757584 -0.040459838 -0.034925915 0.03281487
0.021508127 -0.008418476 0.0034182281 0.028568694 0.026872667 -0.023499737 0.018692417 -0.047444418
0.001193751 -0.022629378 0.029938642 -0.033293337 -0.021143304 0.006875257 -0.003832611 -0.016729705
0.0132527035 -0.013953366 -0.05234823 0.030287895 0.008761547 0.034110833 -0.022664493 0.020127878
-0.012910743 -0.0050985995 0.018599892 0.020425683 0.020229287 -0.011018829 0.03822543 -0.0034769666
0.018870037 0.003945183 -0.032514393 -0.01907527 -0.009668185 0.038708482 0.027416939 0.032186527
0.033382725 -0.018956043 -0.014402027 -0.022242723 -0.014572707 -0.014359256 -0.011389449 -0.018876271
-0.026756 -0.017135842 0.017355893 0.034230184 0.020844998 -0.018496806 0.012403127 -0.006095677
0.024506534 0.011648479 0.0151346885 -0.013099244 0.028001975 0.0035657207 0.017904993 -0.0056849625
-0.01091064 -0.0045280703 -0.020004671 -0.02431031 0.027702665 -0.03926254 0.019036308 0.016116118
0.030987853 -0.00754754 0.029103836 0.034113657 0.028156921 -0.015132702 -0.0024218652 0.002789891
-0.0065485793 0.03138797 0.025020266 -0.029777847 0.009433546 -0.0020175406 0.0044023227 0.0017886163
0.005163863 0.024590876 0.015675094 -0.024486825 0.01366643 -0.0007580523 0.0032654684 -0.007841764
00000000: 7ca3 87bb 499c e23b 43f3 403c 3a39 763c
00000010: fb4a 123d 9d3d 0b3d 18b9 093b e021 213d
00000020: 1b68 073c 3957 afbc aeb9 c2bb 5879 863a
00000030: 7bfb a8bc 0996 223c f4bb 10bd d2c6 ba3a
00000040: 0a84 03bc 2ecf e03c 3669 8c3a d7e0 153a
00000050: f87b 0f3c 37b9 25bd 7a0e 0fbd e368 063d
00000060: d031 b03c a6ed 09bc 5a04 603b e508 ea3c
00000070: 1124 dc3c 8582 c0bc d720 993c 1455 42bd
00000080: a377 9c3a 3f61 b9bc e241 f53c 985e 08bd
00000090: b934 adbc d649 e13b 8b2c 7bbb bc0c 89bc
000000a0: de21 593c a99c 64bc 196b 56bd 521e f83c
000000b0: 978c 0f3c cdb7 0b3d e3aa b9bc 38e3 a43c
000000c0: 9587 53bc 2712 a7bb cd5e 983c c353 a73c
000000d0: e4b7 a53c 5288 34bc 4592 1c3d d2dd 63bb
000000e0: 5695 9a3c 9846 813b d02d 05bd be43 9cbc
000000f0: 4f67 1ebc c98c 1e3d 7d99 e03c 05d6 033d
00000100: 53bc 083d b449 9bbc 7bf6 6bbc 5f36 b6bc
00000110: 5dc2 6ebc 1643 6bbc d09a 3abc 69a2 9abc
00000120: 662f dbbc 7760 8cbc f22d 8e3c f334 0c3d
00000130: 21c3 aa3c 9d86 97bc 7c36 4b3c 3fbe c7bb
00000140: edc1 c83c 43d9 3e3c 7cf7 773c 369e 56bc
00000150: 6664 e53c deae 693b 7ead 923c ec48 babb
00000160: 8ac2 32bc 3560 94bb d6e0 a3bc 6a26 c7bc
00000170: b3f0 e23c c2d1 20bd 08f2 9b3c f305 843c
00000180: 3dda fd3c 5b51 f7bb 2b6b ee3c c3ba 0b3d
00000190: 58a9 e63c 27ef 77bc 28b8 1ebb 9bd6 363b
000001a0: 7795 d6bb ac90 003d 4df7 cc3c acf0 f3bc
000001b0: 298f 1a3c b738 04bb 5c41 903b 0170 ea3a
000001c0: 9f35 a93b ce72 c93c 0e69 803c 9898 c8bc
000001d0: 29e9 5f3c 07b8 46ba 7801 563b be7a 00bc

fc2.weight f4 [60, 120]
-0.05190404 0.05484612 0.083296895 0.022274455 0.038269956 -0.069322474 -0.059734505 0.104081355
-0.0812098 -0.068363816 0.061967313 0.019272845 0.0245681 -0.08312618 0.02504737 -0.038682207
-0.1013824 -0.012318198 -0.02377032 -0.03341766 0.03647507 0.036790237 -0.063344404 -0.078913674
-0.08704364 0.014965608 0.07900903 -0.016122393 0.101887986 -0.023524648 0.112858325 0.08866926
-0.07900441 -0.06545116 -0.031648297 -0.061514545 0.062378738 -0.09819982 0.04262978 -0.005258483
-0.03162265 -0.012430806 -0.056017466 -0.04618615 0.014337208 0.0925719 -0.027157497 -0.057301965
-0.03527858 -0.085490614 -0.017466912 -0.02833075 -0.048960242 0.05013945 -0.05324071 -0.032008562
0.0001534854 0.06533501 -0.0909935 0.011733466 -0.08391538 0.052462995 0.07384895 0.024586646
-0.046766054 -0.024764296 0.083693065 -0.08582847 0.018828265 -0.018223053 0.0269961 -0.043131858
0.053387627 0.0024364677 -0.027659275 -0.00019273552 -0.0509126 0.026507705 0.028041078 0.083970584
0.01466657 -0.056108378 0.025996063 0.12894483 0.069086276 0.013279996 0.054788396 0.06328782
0.022427749 0.09320592 0.021276407 -0.055802535 0.030554522 0.086205445 0.004919993 0.055197906
0.07563144 0.06292441 -0.020081786 -0.07766066 0.040435676 -0.0043974784 0.03591273 -0.03931921
-0.03302775 0.047642183 0.016544847 0.08616045 -0.038531777 -0.029959613 -0.116463825 0.031708855
-0.03565722 -0.027722435 0.029916286 -0.02432957 0.07013461 0.037397247 0.030803751 0.030801833
0.08350865 0.028271925 0.028154142 -0.07193254 0.05000028 -0.010167326 -0.08591348 0.028101817
-0.021293826 -0.028814329 0.018290337 0.012672303 -0.012575511 -0.08246623 0.087690644 -0.061857898
0.008303983 0.0010660006 0.040250964 0.006062298 0.02543509 -0.062749885 0.015344067 -0.05607592
0.06470857 -0.062496323 0.037957285 0.11333108 -0.039271913 -0.014257143 -0.06250912 -0.075062945
-0.031704817 -0.0030804893 0.031142285 0.06905125 -0.07272205 0.0017449057 0.059911925 -0.058458023
0.05673543 0.078312114 0.05430533 0.038275708 0.07784455 -0.081566356 0.061016403 -0.076429516
-0.03306992 0.08406084 0.022291865 0.042194735 0.024431584 -0.09000792 -0.07639986 -0.012101921
0.0092694685 -0.10765118 -0.016958259 -0.019956633 -0.098199025 -0.0022252034 -0.047538027 -0.015522212
-0.055348355 -0.030792145 0.0072510694 0.071145274 0.05900123 0.026528131 0.019635024 -0.06930541
0.03073144 0.08800484 -0.01137455 0.08531722 0.027655503 0.04628179 0.07351977 0.06634153
-0.087588795 0.07983324 -0.092245266 -0.05021481 -0.028012535 0.017936273 0.09939184 -0.029502597
0.00791606 0.016676253 0.03721792 0.02959271 0.01862972 0.058951586 -0.03661543 -0.07829987
0.056815222 0.0075009135 0.08689772 0.07149822 0.048332024 -0.002447572 0.00912336 0.06426471
0.11058001 0.07018295 0.013026956 0.0613444 0.04242333 0.022943998 0.018956194 -0.09850479
-0.072750024 0.007882451 0.029137857 0.051334374 -0.011696554 -0.0055148583 -0.052171607 0.010574631
-0.06434498 -0.025822386 0.08547276 -0.080433756 0.028025229 0.06748519 -0.052732024 0.03530937
-0.040583257 -0.046394795 -0.09315423 0.037779514 0.08051311 -0.05859975 -0.06820693 -0.031984236
00000000: 5599 54bd 53a6 603d 9097 aa3d eb78 b63c
00000010: f5c0 1c3d f1f8 8dbd 2bac 74bd 9b28 d53d
00000020: 5351 a6bd 5402 8cbd 70d1 7d3d 16e2 9d3c
00000030: 0a43 c93c 0f3e aabd 2430 cd3c 3c71 1ebd
00000040: 93a1 cfbd 44d2 49bc f9b9 c2bc f5e0 08bd
00000050: e266 153d 5cb1 163d b6ba 81bd 7e9d a1bd
00000060: f043 b2bd 4f32 753c 7ccf a13d 1c13 84bc
00000070: a6aa d03d c3b6 c0bc 4422 e73d 3b98 b53d
00000080: 10cd a1bd 420b 86bd a5a1 01bd adf6 7bbd
00000090: d980 7f3d fd1c c9bd 909c 2e3d 5a4f acbb
000000a0: c086 01bd 94aa 4bbc 9272 65bd b02d 3dbd
000000b0: 9ce6 6a3c 5696 bd3d 6679 debc 77b5 6abd
000000c0: 4680 10bd b415 afbd c516 8fbc e415 e8bc
000000d0: 898a 48bd 065f 4d3d ee12 5abd 691b 03bd
000000e0: ecf0 2039 5dce 853d cd5a babd b93d 403c
000000f0: d4db abbd 70e3 563d 1e3e 973d ef69 c93c
00000100: c38d 3fbd 7ede cabc 4567 ab3d d6c6 afbd
00000110: bc3d 9a3c 8348 95bc ed26 dd3c 08ab 30bd
00000120: fcac 5a3d 25ad 1f3b b495 e2bc 0c19 4ab9
00000130: bb89 50bd b026 d93c 67b6 e53c c5f8 ab3d
00000140: 0e4c 703c e6d1 65bd b2f5 d43c 1d0a 043e
00000150: 1b7d 8d3d 5794 593c cc69 603d 0b9d 813d
00000160: 66ba b73c bfe2 be3d dc4b ae3c 3391 64bd
00000170: 7a4d fa3c 7b8c b03d e537 a13b 3317 623d
00000180: a8e4 9a3d 83de 803d 8f82 a4bc 8d0c 9fbd
00000190: e19f 253d b918 90bb 3a19 133d 2e0d 21bd
000001a0: 1b48 07bd 7324 433d 0f89 873c e474 b03d
000001b0: 7fd3 1dbd dd6d f5bc 9684 eebd 25e1 013d
000001c0: 4e0d 12bd 291a e3bc 0013 f53c ce4e c7bc
000001d0: bca2 8f3d db2d 193d 2658 fc3c 2054 fc3c
000001e0: 9506 ab3d 869a e73c 84a3 e63c 5e51 93bd
000001f0: 18cd 4c3d db94 26bc 68f3 afbd c835 e63c
00000200: 6470 aebc 070c ecbc 9ed5 953c 7e9f 4f3c
00000210: 8409 4ebc 0ee4 a8bd 2797 b33d b55e 7dbd
00000220: 6e0d 083c 0bb9 8b3a 32de 243d 3ea6 c63b
00000230: 405d d03c 0383 80bd ae65 7b3c ddaf 65bd
00000240: ed85 843d 25fc 7fbd 1979 1b3d 201a e83d
00000250: 96db 20bd cb96 69bc c804 80bd 9aba 99bd
00000260: e9dc 01bd 09e2 49bb 1b1e ff3c be6a 8d3d
00000270: 4cef 94bd 52b5 e43a 3566 753d ae71 6fbd
00000280: 6963 683d 1a62 a03d 446f 5e3d fdc6 1c3d
00000290: f76c 9f3d 430c a7bd 56ec 793d 1487 9cbd
000002a0: 5374 07bd 1728 ac3d 6e9d b63c 63d4 2c3d
000002b0: bf24 c83c 1356 b8bd 8877 9cbd 2347 46bc
000002c0: f8de 173c 3978 dcbd 0cec 8abc 187c a3bc
000002d0: 921c c9bd b8d4 11bb 3cb7 42bd e050 7ebc
000002e0: f5b4 62bd cf3f fcbc 619a ed3b 9db4 913d
000002f0: 46ab 713d 8651 d93c a1d9 a03c ffef 8dbd
00000300: 80c0 fb3c e23b b43d 525c 3abc cbba ae3d
00000310: cb8d e23c f991 3d3d 8891 963d 11de 873d
00000320: c161 b3bd 9c7f a33d 16eb bcbd 0bae 4dbd
00000330: 8b7a e5bc 17ef 923c f38d cb3d 6eaf f1bc
00000340: 5db2 013c a39c 883c d171 183d 696c f23c
00000350: 5b9d 983c 3877 713d 10fa 15bd af5b a0bd
00000360: 14b7 683d 39ca f53b 6ff7 b13d a96d 923d
00000370: cdf7 453d 7267 20bb 257a 153c 379d 833d
00000380: c677 e23d 14bc 8f3d 036f 553c 4444 7b3d
00000390: 16c4 2d3d 0df5 bb3c 054a 9b3c e1bc c9bd
000003a0: f7fd 94bd 6525 013c 84b2 ee3c fe43 523d
000003b0: e7a2 3fbc fcb5 b4bb e5b1 55bd 3841 2d3c
000003c0: 4dc7 83bd 7889 d3bc 580c af3d 74ba a4bd
000003d0: 2a95 e53c ad35 8a3d 89fd 57bd 8fa0 103d
000003e0: a13a 26bd 7808 3ebd a5c7 bebd b1be 1a3d
000003f0: 0fe4 a43d 4b06 70bd 13b0 8bbd e701 03bd

fc2.bias f4 [60]
-0.052270185 0.042985667 -0.0386766 0.027921686 0.20235154 -0.07610403 -0.035670523 0.10653695
0.08426753 -0.09556416 -0.060869955 -0.035095688 -0.071898855 -0.03857306 -0.032516047 -0.13569649
0.15829162 0.017501872 0.058053963 0.12568392 -0.0625484 0.038038973 -0.006779526 0.062940836
-0.015248362 -0.078747265 0.039943248 -0.030720519 0.05554156 0.053465843 -0.0768404 0.077578075
-0.100199856 -0.02979101 -0.07788191 -0.027527401 -0.030650591 -0.08840739 -0.016801924 0.097740926
0.0125512425 -0.080888 0.061133932 0.07539766 0.017920181 -0.04737922 -0.061498202 0.068587884
-0.02629181 -0.06756511 -0.009072541 0.11308243 0.051100332 0.081245326 -0.060294874 -0.08551054
0.05849694 -0.002018207 -0.077979475 -0.010802676
00000000: 4319 56bd bd11 303d 5b6b 1ebd 05bc e43c
00000010: 3e35 4f3e 6edc 9bbd 411b 12bd 0b30 da3d
00000020: 7494 ac3d 24b7 c3bd c652 79bd 7fc0 0fbd
00000030: b53f 93bd c9fe 1dbd 8c2f 05bd 05f4 0abe
00000040: 3317 223e 1660 8f3c fec9 6d3d 49b3 003e
00000050: 6019 80bd c1ce 1b3d c926 debb 20e7 803d
00000060: 44d4 79bc 3f46 a1bd 889b 233d 99a9 fbbc
00000070: 8c7f 633d 00ff 5a3d 805e 9dbd 41e1 9e3d
00000080: 9535 cdbd 470c f4bc 8d80 9fbd 2581 e1bc
00000090: f316 fbbc ef0e b5bd 30a4 89bc 652c c83d
000000a0: baa3 4d3c 9ca8 a5bd 9367 7a3d 176a 9a3d
000000b0: 58cd 923c b710 42bd 8ae5 7bbd ce77 8c3d
000000c0: ec61 d7bc 945f 8abd ffa4 14bc c397 e73d
000000d0: 954e 513d f363 a63d c2f7 76bd 2620 afbd
000000e0: 7d9a 6f3d e543 04bb b4b3 9fbd b5fd 30bc

fc3.weight f4 [11, 60]
0.10985933 0.008793325 -0.10569452 0.08784958 -0.1194838 -0.054527264 0.067518935 0.03643241
0.06253029 -0.09218806 -0.16957234 0.012958225 0.14923666 -0.016201075 0.091218784 -0.14540622
-0.055249736 0.12864283 -0.1108135 -0.20212924 -0.101703495 -0.11447663 -0.09107945 -0.10452188
0.08258235 -0.07930824 0.010758893 0.10913602 0.050363798 -0.03928376 -0.053599637 -0.034759443
0.17946286 -0.07924783 -0.10029198 -0.0567838 -0.050941624 -0.07054123 0.0054183193 0.033506513
-0.1330696 0.04276082 0.0938043 0.06547368 -0.07006652 0.04256773 -0.011566117 -0.09645583
-0.088478215 -0.16332275 0.095723554 -0.22483386 0.11166317 0.044529367 -0.12223022 0.07479662
-0.08405394 -0.111349635 0.109475784 0.09427129 0.06668763 0.039259575 -0.11612258 0.034429524
-0.15653741 0.0803331 0.0034307456 -0.0879429 0.017309265 0.1590113 0.12334104 0.03683341
0.17487118 0.06735236 -0.07584075 0.1478872 -0.16719419 -0.01712857 0.015055796 0.015556431
0.089686446 0.07935833 0.07499981 -0.119375765 -0.06577154 0.08534767 -0.092819445 -0.12133461
0.049231406 0.102806784 0.12542467 -0.016612226 0.05871634 0.0054256865 -0.045764558 0.019924695
-0.08817854 -0.07582865 0.18235874 0.022950213 0.042415578 0.18550412 -0.16539751 -0.18619572
0.073620796 0.1316497 0.11081981 -0.051603023 0.119209796 -0.16184965 0.14124525 -0.12084398
-0.11021037 0.11104746 -0.10021782 0.036655344 0.022771224 0.1317175 0.09716547 -0.11235525
0.057638157 0.020992583 -0.07566275 -0.007878422 -0.0096757915 0.13872875 -0.13656685 0.011254252
0.030838955 -0.02003578 -0.10726087 -0.038674667 -0.08372331 -0.09947656 0.0127173215 -0.09068653
0.100312494 -0.007761165 0.11507619 0.10079169 0.11096563 0.0524015 0.19352347 -0.089296155
0.073383786 -0.106413476 0.05811853 -0.046308596 0.11893052 0.051086344 -0.083574474 -0.032400966
0.1460514 0.055329178 0.011476368 0.056210395 -0.11701386 0.019139383 -0.18219607 0.1317689
0.13248444 -0.07342842 -0.033579536 -0.030157937 0.14477235 0.08997464 0.02044224 -0.098990165
0.09472852 -0.090587504 0.031861946 -0.1498641 0.08238013 0.12346236 -0.094877996 -0.068188034
0.146384 0.034435254 0.06664202 -0.15134084 -0.09978304 -0.04299113 0.00468952 0.14632566
0.1704385 0.059267763 -0.12295179 -0.042125076 0.12084462 0.013307782 -0.0975447 -0.11766256
0.11284886 -0.079181835 0.07562412 -0.09286137 0.123829156 0.23388538 -0.018227082 0.09264764
0.0060758865 -0.07252535 -0.17713535 0.065777205 -0.09156177 -0.028862596 0.019812157 0.03314517
0.13942605 0.085458755 0.07317029 0.012778783 0.09770943 -0.058551688 0.06755684 0.102943875
0.033355962 0.02725508 0.09883564 -0.002290278 -0.02484945 0.097619355 -0.12064304 -0.08542459
0.031309765 0.14641689 -0.13102108 -0.023575835 0.035439216 0.043933727 -0.03608424 -0.06440936
-0.059029564 -0.087393165 0.06671756 -0.023313042 -0.09357245 -0.08853169 -0.024321321 -0.14401107
0.106190294 -0.15996036 0.108113885 0.09436559 0.01550075 0.03959332 -0.14722699 -0.11281268
0.032820906 0.02965295 0.0050214888 -0.040780377 -0.0034814319 0.15147953 0.03182903 0.16476615
00000000: eefd e03d e111 103c 5e76 d8bd 7bea b33d
00000010: ecb3 f4bd fb57 5fbd 5e47 8a3d 273a 153d
00000020: e10f 803d 18cd bcbd 5fa4 2dbe bc4e 543c
00000030: 7fd1 183e 1eb8 84bc ead0 ba3d 5ee5 14be
00000040: 8c4d 62bd f2ba 033e 30f2 e2bd f8fa 4ebe
00000050: ec49 d0bd b972 eabd dd87 babd 910f d6bd
00000060: ef20 a93d 5c6c a2bd 1146 303c b582 df3d
00000070: 454a 4e3d 02e8 20bd 4b8b 5bbd eb5f 0ebd
00000080: 1dc5 373e b04c a2bd e265 cdbd 2196 68bd
00000090: 2aa8 50bd ec77 90bd 288c b13b 203e 093d
000000a0: 6643 08be f825 2f3d 781c c03d 1117 863d
000000b0: 097f 8fbd 805b 2e3d d07f 3dbc a28a c5bd
000000c0: 1134 b5bd 143e 27be b60a c43d d93a 66be
000000d0: a9af e43d 6d64 363d d653 fabd f82e 993d
000000e0: 7924 acbd 470b e4bd d734 e03d 4e11 c13d
000000f0: 8693 883d a6ce 203d add1 edbd f905 0d3d
00000100: 584b 20be ae85 a43d 5cd6 603b 681b b4bd
00000110: 29cc 8d3c dcd3 223e 3a9a fc3d a1de 163d
00000120: 6e11 333e 09f0 893d 6552 9bbd be6f 173e
00000130: f434 2bbe 3751 8cbc 96ac 763c 67e0 7e3c
00000140: 87ad b73d 9f86 a23d 8099 993d 487b f4bd
00000150: 3bb3 86bd c2ca ae3d 1f18 bebd 487e f8bd
00000160: dfa6 493d 5d8c d23d 536f 003e 5d16 88bc
00000170: 8c80 703d f5c9 b13b 9e73 3bbd 1d39 a33c
00000180: f396 b4bd 0d4c 9bbd 40bc 3a3e 1602 bc3c
00000190: f5bb 2d3d cbf4 3d3e f75d 29be 17aa 3ebe
000001a0: 80c6 963d 2ecf 063e 7ff5 e23d b15d 53bd
000001b0: 4424 f43d eabb 25be 98a2 103e 0c7d f7bd
000001c0: f9b5 e1bd da6c e33d 003f cdbd ea23 163d
000001d0: b88a ba3c f4e0 063e b1fe c63d 821a e6bd
000001e0: fd15 6c3d a3f8 ab3c 12f5 9abd 7f14 01bc
000001f0: 3687 1ebc e90e 0e3e 2ed8 0bbe c163 383c
00000200: faa1 fc3c 1322 a4bc 96ab dbbd 5469 1ebd
00000210: 2077 abbd 5eba cbbd 505c 503c dcb9 b9bd
00000220: a370 cd3d 5f51 febb 11ad eb3d e06b ce3d
00000230: f341 e33d f5a2 563d 042b 463e e7e0 b6bd
00000240: 3d4a 963d 4fef d9bd b20d 6e3d 15ae 3dbd
00000250: d891 f33d ea3f 513d 1829 abbd e0b6 04bd
00000260: 808e 153e d9a0 623d 6007 3c3c df3c 663d
00000270: f6a4 efbd 32ca 9c3c 9b91 3abe 6dee 063e
00000280: 00aa 073e a461 96bd b28a 09bd c70d f7bc
00000290: 343f 143e a044 b83d 7c76 a73c 5bbb cabd
000002a0: 0701 c23d f185 b9bd ac81 023d fa75 19be
000002b0: eab6 a83d d5d9 fc3d 654f c2bd 2ba6 8bbd
000002c0: b0e5 153e fb0b 0d3d 9d7b 883d 18f9 1abe
000002d0: 0d5b ccbd 7817 30bd 8caa 993b 65d6 153e
000002e0: 6e87 2e3e c1c2 723d 26ce fbbd 588b 2cbd
000002f0: 627d f73d e208 5a3c 84c5 c7bd 11f9 f0bd
00000300: 4e1d e73d 162a a2bd d2e0 9a3d 1a2e bebd
00000310: 249a fd3d a67f 6f3e f650 95bc 0cbe bd3d
00000320: 3b18 c73b 2c88 94bd f862 35be 33b6 863d
00000330: bd84 bbbd 4071 ecbc 1b4d a23c 3bc3 073d
00000340: b4c5 0e3e 0005 af3d 4eda 953d 1a5e 513c
00000350: e21b c83d e5d3 6fbd 3e5b 8a3d 3dd4 d23d
00000360: 43a0 083d 0c46 df3c 576a ca3d 7d18 16bb
00000370: 1391 cbbc a8ec c73d b313 f7bd 16f3 aebd
00000380: ab3e 003d 4fee 153e 642a 06be 1c22 c1bc
00000390: b628 113d daf3 333d 11cd 13bd 0ee9 83bd
000003a0: fcc8 71bd 30fb b2bd 37a3 883d fefa bebc
000003b0: eaa2 bfbd 1a50 b5bd 823d c7bc a377 13be
000003c0: 4c7a d93d a6cc 23be d06a dd3d bf42 c13d
000003d0: dcf6 7d3c 9b2c 223d acc2 16be 560a e7bd
000003e0: 376f 063d beea f23c 4d8b a43b 5309 27bd
000003f0: bc28 64bb 731d 1b3e 285f 023d 75b8 283e

fc3.bias f4 [11]
-0.19771434 -0.38599327 0.107191294 0.113787495 -0.053527553 0.41348553 0.03885517 -0.07084936
-0.110275075 0.31833735 0.042938683
00000000: a175 4abe e9a0 c5be 1c87 db3d 6b09 e93d
00000010: b53f 5bbd 60b4 d33e 9926 1f3d 7819 91bd
00000020: e6d7 e1bd 1dfd a23e 79e0 2f3d
