model-fold-2.pth (torch, 432769 bytes, 12 tensors)

conv1.weight f4 [3, 1, 3, 3]
00000000: 4057 833e a729 f03e 999e fb3e 9603 f9be
00000010: 281a c73e f5d6 19bf 855a 0b3e d797 14bd
00000020: 9ae8 2ebf 520a 283f b28f c3ba b028 d6be
00000030: 38b5 513e 0f52 b8be 2fd1 7fbe f547 bbbe
00000040: a658 c13e ac45 afbe c65b fcbe 53f4 d83d
00000050: 54ca a33e 439e c33e c72f 12bf 2bad 60bf
00000060: 94a1 863d 73c6 da3e fae0 033f
0.25652504 0.46906778 0.49144438 -0.48635548 0.38887143 -0.60093623 0.13608749 -0.03627762
-0.6832367 0.6564075 -0.0014920144 -0.41827917 0.20479286 -0.36000106 -0.24982141 -0.36578336
0.37762946 -0.34232843 -0.49288768 0.10593476 0.31990302 0.38206682 -0.5710415 -0.87764233
0.06573787 0.4272953 0.5151516

conv1.bias f4 [3]
00000000: c83d 62be 700f e1bc 9b14 50bd
-0.2209388 -0.027473181 -0.0508009

conv2.weight f4 [6, 3, 5, 5]
00000000: db47 c9bd fb43 033e e7b0 9c3e 2dfe 913e
00000010: b9f1 773c 5d8d c9bc 4741 403e 5e83 4b3e
00000020: 5385 623d 7c36 78bd edf9 343e b21e 4cbb
00000030: f342 67be f026 9ebe 3eba 02be 363b 9fbc
00000040: 916c 41be d0f2 83be 268f 98be b004 59be
00000050: eccd 723c c6a6 34be d6f0 a9bd f17f 33be
00000060: 19f4 00be 3afd 53bd 7ce2 adbd 781b a4bd
00000070: e51f 5d3d c110 503d 3dc2 efbd c1d5 a2bd
00000080: 1231 edbc cec2 703d 8836 37bd 2d5d 083e
00000090: 0faf 133e 9753 4e3c bece 06bd 3fb6 2abe
000000a0: fff4 0c3d 5d05 1cbb cb14 f4bd f709 96bc
000000b0: fc5a 81bd 32d1 eebd 84a7 293d bd11 86bd
000000c0: a58f 903c c8a4 943d 60ae 083c 655f c93d
000000d0: 6477 a3bd 537b c7bd 4418 b1bd be8b 8dbd
000000e0: 55ad 533d 00e9 f53d 6367 cfbb e043 a83b
000000f0: c554 823c 647b 953d a6ba 733b 7de7 63bd
00000100: 3417 093d 62a8 32bd 1cd7 ff3c b872 37bc
00000110: 6c75 e93d 4e74 083c f327 5cbd 4079 25be
00000120: c8b0 7bbd 39f4 e93c 3b7c 15bb b3f5 75bd
00000130: d96a d7bd b53c b13d effb 9c3c 4ddc 653a
00000140: fa99 c7bd e616 02be 2886 95bd 8b6e e9bd
00000150: 403a 14be 35e4 10bc c5e9 bb3d b52f 023e
00000160: cd12 143d e9d1 93bd b52a c73b 9325 8cbd
00000170: 8c38 52bd b1bd 493d 6bfa b2bd a146 233b
00000180: dd94 5ebe 9b8c 32be 5f15 933d e61f ccbd
00000190: ca5d 283d ee6d 98bd 280b 733e bf00 4e3d
000001a0: e01b ac3c 66a7 30bd 1809 58bd 78bd 5e3e
000001b0: 6d26 593e 12bb d73d 54c4 d63d 5dd7 903d
000001c0: b48b 7a3e afdf 3d3e e2e6 a7bd 5dbd 073e
000001d0: 6ec9 1d3d ea4b b03d 9417 db3d 827b 883d
000001e0: e675 7b3d 31a7 a2bd 76c0 cdbd 11a7 eb3d
000001f0: 14bc e83c 59bb aabd 0f96 eebd 69e8 b8bc
00000200: e967 353c 0c35 b6bc 062f ea3d d6d4 2b3d
00000210: f836 dc3d ede3 943c 013e 19be a708 453e
00000220: d129 5a3e 5388 753e 9e67 703e 51f5 0b3e
00000230: 14b0 52bd 8cb7 2bbe 96dd 3fbe 7eeb a2bd
00000240: a8ca 8a3d 14c7 0cbe fb93 16be 081e 0abe
00000250: e858 7ebd e0f2 773d 1e24 f5bc 0aec e6bc
00000260: b107 62be 5695 babd 7e2a afbd 5ce7 4fbe
00000270: 1b61 533d 332d a83d b8c7 173e ec5f b0bd
00000280: a8ba ef3d 10a0 e9bc 4bdf 0f3e d7f5 3abe
00000290: f203 ef3d aaa8 87bd 2b6d 053e 6e67 913d
000002a0: 4797 a0bb 785d e13d 1af1 66bd df02 4ebd
000002b0: 6766 9b3d 1b07 373e 09ae 1ebe d1bb 14bd
000002c0: ed9d 133d 6162 98bd 2f81 cf3d 5797 14bd
000002d0: 3e6a 5e3d ace2 553c 88e5 adbd 37ab 9bbd
000002e0: 1d1e 66bc 4e25 9a3c 025d 93bd 5804 893c
000002f0: 9a90 9c3d 97dc 763d 93b8 d43d 78ea b93d
00000300: 5a8d dd3c 462e 963c f5ec 113e 0a85 bf3d
00000310: 8230 163d bc6d 8bbd 4fc6 f63d 6b7a 68bd
00000320: de89 7bbd c621 c23d 08f8 9fbd d628 b83b
00000330: e68b 133d ec58 8d3d fb62 a7bd ea76 96bc
00000340: c139 01bd f7cd b53d 1ef7 dab9 c30b 213d
00000350: c1be 0f3e 9d0c f43c e08a e03d a714 8fbd
00000360: 37ad a3bc f9e1 9a3d 9540 883d a3f8 b23d
00000370: 196b 6dbd 959c 0a3e 45b5 e83d dd6b cd3d
00000380: 2ec2 33be 0635 183e ffb4 a13d a95c 903c
00000390: c610 1abe 9130 16be f36f 28be 1c5b 80ba
000003a0: 1f82 f33d ef35 c13d 1c8d 34bc 2e51 3e3e
000003b0: c9c3 a73c c974 cbbd 0f00 bf3d 58b9 413c
000003c0: 8c13 05be 4259 28bd 89e9 9e3d 8c60 023d
000003d0: 4f1b 73bd 4b58 04be 04b9 f5bd d9da f5bd
000003e0: f9cd 72bd f292 1b3d 90c5 ecbd a863 31bd
000003f0: cacc 17be 78f4 7dbd 6d47 b9bc 31b7 55be
-0.098281585 0.12818901 0.30603716 0.28514233 0.015133315 -0.02460354 0.18774901 0.19874331
0.05530293 -0.060598835 0.17673464 -0.0031146226 -0.22584133 -0.30889082 -0.12766358 -0.019437414
-0.18889071 -0.2577119 -0.29796714 -0.21193194 0.014819603 -0.17641744 -0.08297889 -0.17529275
-0.12593116 -0.051755168 -0.08490464 -0.08013052 0.053985495 0.050797228 -0.1170697 -0.079509266
-0.028954063 0.05877953 -0.04472974 0.13316794 0.14422248 0.012593172 -0.03291201 -0.16671084
0.034413334 -0.0023806908 -0.119180284 -0.018315298 -0.06316182 -0.116609946 0.04141952 -0.06546352
0.01764662 0.07257992 0.0083423555 0.09832648 -0.07981756 -0.09740319 -0.086472064 -0.06911419
0.051678974 0.12007332 -0.0063294633 0.0051350445 0.015909562 0.072989255 0.0037190109 -0.055640686
0.033469394 -0.043617614 0.031230502 -0.011196785 0.113993496 0.00832851 -0.053749036 -0.16159534
-0.06144789 0.028558837 -0.0022809643 -0.06004877 -0.105184264 0.08654157 0.0191631 0.0008768484
-0.097461656 -0.12704048 -0.07300979 -0.113980375 -0.14475346 -0.008843471 0.091754474 0.12713511
0.036150742 -0.072177716 0.006078089 -0.06843104 -0.05132346 0.04925317 -0.0873917 0.0024913924
-0.21736474 -0.17436449 0.071818106 -0.09967022 0.04110507 -0.074428424 0.23734725 0.05029368
0.021009386 -0.043128394 -0.052743047 0.21751964 0.21206065 0.10533728 0.10486665 0.07072327
0.24467355 0.1854236 -0.08198334 0.1325583 0.038522176 0.086082295 0.106978565 0.06664182
0.061391734 -0.079420455 -0.10046475 0.11506475 0.028409995 -0.08336515 -0.11649715 -0.02257176
0.011072137 -0.022242092 0.1143475 0.041951023 0.10752672 0.01817509 -0.14965059 0.19241582
0.21305014 0.23977785 0.23477027 0.136678 -0.051437452 -0.16769236 -0.18736872 -0.07955073
0.06776935 -0.13747817 -0.14704888 -0.13488019 -0.062096506 0.060534358 -0.029924449 -0.028188724
-0.22073247 -0.09110515 -0.085530266 -0.203031 0.05160628 0.08211746 0.1482228 -0.08612046
0.11705524 -0.028518707 0.14050023 -0.18257843 0.116706744 -0.06623967 0.13029926 0.07099806
-0.004900846 0.11004156 -0.056382276 -0.050295707 0.07587891 0.17873804 -0.15496077 -0.03631193
0.03603928 -0.07440639 0.10132062 -0.03627714 0.05430054 0.013054531 -0.08491045 -0.07601016
-0.0140452655 0.018816616 -0.07195474 0.016725704 0.07644768 0.060268965 0.10386767 0.090779245
0.02704494 0.018332612 0.14250548 0.09351547 0.036667354 -0.068080395 0.12049543 -0.056757372
-0.061410777 0.09479098 -0.0781098 0.0056201024 0.03602209 0.06901726 -0.08173176 -0.01836725
-0.03154922 0.08877175 -0.00041764317 0.039317857 0.1403761 0.02979117 0.10963988 -0.06986361
-0.019980056 0.07562632 0.06652943 0.0873883 -0.057963464 0.13536294 0.113626994 0.10030339
-0.17554542 0.14863977 0.078958504 0.017622309 -0.15045461 -0.14666964 -0.16448955 -0.0009792778
0.11890053 0.09434115 -0.011019971 0.18585655 0.0204791 -0.099343844 0.09326183 0.011823975
-0.12995738 -0.041100748 0.07759387 0.031830356 -0.059352215 -0.12924306 -0.119981796 -0.120046325
-0.059278462 0.037981935 -0.115611196 -0.04330793 -0.14824215 -0.06200072 -0.022617066 -0.20870663

conv2.bias f4 [6]
00000000: 76af b0bc e667 ac3d 67eb 60bd 4efb 273d
00000010: 95d0 233c df7a b9bd
-0.021568041 0.084182546 -0.054911997 0.041011147 0.00999846 -0.09056639

conv3.weight f4 [16, 6, 7, 7]
00000000: b6d0 15bd 0f43 14bd 4852 83bc 5b01 7dbd
00000010: 8bc1 a03d 7b60 f23c 07bc 103d a23e c4bc
00000020: ff42 28bc 8360 463d 83d6 833c 02ab 123d
00000030: 1815 ba3c c68e 3f3d 10d1 34bd b942 54bd
00000040: 4eaf 503d 2661 bbbd 6935 fb3c 4ecc 2cbd
00000050: d17f 3d3d ccaa 8ebc 3026 e83c 04a8 68bb
00000060: 973c 95bd 9ce7 5dbb ac82 3cbd acd6 14bd
00000070: 08b9 e53d f61c 5d3d 54b1 323d 97b4 4d39
00000080: b64c 183d 46bd 463d 22e6 8ebc 9830 eabc
00000090: d120 0b3d 0e0d c53c 8e86 16bc 8d4c 38bd
000000a0: 7cb6 953d a8a6 5b3c f4ad ddbc 8f09 843d
000000b0: 063c b4bc 3fbf 08bc f024 423d 006d febc
000000c0: c821 a2bd aed6 5bbd 71d3 a83b dd02 7639
000000d0: ae82 89bc 291a 043c 0f24 27bd 6377 acbd
000000e0: ce3d 653d 7d55 98bc f94c d5bd 7ba3 d3bc
000000f0: 2db8 a539 e34e 24bd b7c4 86bd b815 223d
00000100: ee41 4cbd 0caa 503c 264b f33c 1f3f 373d
00000110: 1a10 99bd fbba b5bd 65de 953d 5a8c 193d
00000120: 907b 72bc 6db8 9bbd e678 cf3c bde4 7a3d
00000130: bd52 b1bd b576 953c 2419 9d3d 2292 86bd
00000140: 768d 48bd 42c3 3fbc cad8 0dbc 56d5 993b
00000150: f296 c23c 9095 86bc afbd 89bd f87c 73bd
00000160: 55c1 1dbd 30cc 5ebd 0cf3 7fbd a789 1fbc
00000170: a291 6abd bc10 2e3c c0e0 d7bd 977e 20bc
00000180: 56de 1dbc 15d4 34bd e6d6 fa3c 7174 94bd
00000190: 7443 2abd a0fc 6c3b 7e22 93bd a994 b43d
000001a0: 0414 e9bc e3c0 83bd b3a9 2bbd e594 033a
000001b0: ff76 72bd 187e b7bd 6489 7abc 6879 c6bc
000001c0: 771d 4fbd 461a b0bd 6a56 a03a e697 5abd
000001d0: 3685 c4bd cb4d 9f3d 8b29 2f3d 0789 23bd
000001e0: 8821 8bbd b299 0bbc 5d31 f13c 09fc 9f3c
000001f0: 07e7 263d e0f6 ef3d 191d 89bd d5f6 b7bd
00000200: d7fa 3ebd e576 1e3d bd7f 02bd 8d83 1b3d
00000210: 43e6 9b3d 88a2 16bc e78f bb3d 3413 0d3d
00000220: 2da1 d63d d4ce 8dbd 0517 a53d 2c05 903d
00000230: 0136 2d3c ecf2 823d de03 a73c b7ff 82bc
00000240: 0e04 20bd ab3c d93d 476f 343e 9a48 78bd
00000250: b693 4dbd 6422 80bd 5228 713d a8b2 c43d
00000260: 53c5 cdbb 183f 463d 5a90 793c 10dc 60bd
00000270: fe4e 593d 24e9 d7bd 92b5 b73b f540 0b3e
00000280: 6cb2 f63d cd09 2ebd f183 133d 863e a33d
00000290: a4de 733c 9300 1cbd 86c8 2abd fd0e 46ba
000002a0: 11dc a7bd 6c1a 153d 45a9 7abd 1795 093d
000002b0: 5594 05bd 81bf 2cbd 3326 a3bb c26b 5bbc
000002c0: 883b 8cbc c3fd 773b 2919 2f3d 60f7 e33c
000002d0: fcf6 c2bc 679d 923c 4761 ea3c 0861 b4bc
000002e0: 4c7d fcbc af10 a53d 02cf fa3c de73 863d
000002f0: 009d aa3d 30fa 323d abea d23d 1dc8 66bd
00000300: d4f0 0b3b d79a 31bc 64f5 953d df47 963d
00000310: c08c 593d f219 d03b b71c 3c3b 2bf8 4a3d
00000320: 1425 6f3d 7fca abba 4963 6c3b d28a 96bd
00000330: 36c3 193d aaf1 563c d370 02be 2306 52bd
00000340: 270e 003d 3ff6 4b3c 0982 01bd 583c 95bd
00000350: a720 4d3c e110 45bc a1ee 90bd aeb9 fd3c
00000360: a778 f3bb 2bd7 56bd 3171 fabb f531 453c
00000370: 30c3 d03c 105f 2ebc 0f72 3abd e5fd c9bc
00000380: 1986 35bd 730d 0ebd ec53 a3bd f10e d2bd
00000390: fa52 873c 58c2 033d 6026 573d 2fa6 6dbc
000003a0: f167 fbbc c51d 8abd ba81 d7bb 6500 3f3d
000003b0: a6dd f2bd d6fc b1bb 2f71 23bd a082 08bd
000003c0: c4a1 b3bb b802 02bd 17cb 6ebd 7eb6 bc3c
000003d0: 8dea 6b3d 9a47 aebd cff7 e7ba df82 8a3c
000003e0: e4a4 a1bd c36e 18bc 5771 7a3d 471a e83c
000003f0: 9a0b a63c 230e 553d 0a47 83bd 2bfe 9cbb
-0.036575995 -0.036196765 -0.016030446 -0.06176887 0.078494154 0.029587021 0.035335567 -0.023955647
-0.010269879 0.048431884 0.016093498 0.035807617 0.022715136 0.04676702 -0.04414469 -0.051821444
0.050948434 -0.09149389 0.030665116 -0.042187028 0.046264473 -0.017415427 0.028338522 -0.0035500536
-0.07286947 -0.0033859974 -0.046023056 -0.03633754 0.112169325 0.053982697 0.043626145 0.00019617598
0.037182532 0.04852035 -0.01744372 -0.028587624 0.033966843 0.024054077 -0.009187354 -0.04499488
0.07310197 0.013406433 -0.027060486 0.06447136 -0.022001278 -0.008346378 0.047398508 -0.031057835
-0.079165995 -0.05367153 0.005152159 0.00023461455 -0.016785946 0.008062878 -0.040805873 -0.08421209
0.055967145 -0.018595451 -0.10415072 -0.02583479 0.00031608474 -0.040114295 -0.06580489 0.039571494
-0.049867563 0.012735855 0.02969892 0.04473793 -0.07473774 -0.08873554 0.07317809 0.037487365
-0.014799967 -0.07603536 0.025326204 0.061253298 -0.08658359 0.01824508 0.07670811 -0.06570841
-0.048963033 -0.011704268 -0.008657644 0.004694621 0.023753617 -0.016428739 -0.067256324 -0.05944535
-0.038514454 -0.054393947 -0.062487647 -0.009737409 -0.057267793 0.010624107 -0.105409145 -0.009795806
-0.009635529 -0.04414757 0.03062005 -0.07248772 -0.041568235 0.0036161318 -0.07184313 0.08817417
-0.028451927 -0.064332746 -0.041909885 0.00050194404 -0.059195515 -0.08959597 -0.015291546 -0.024227813
-0.05056521 -0.08598761 0.0012232785 -0.053367518 -0.095957205 0.0777851 0.042764228 -0.0399256
-0.06793505 -0.008520531 0.029442484 0.01952936 0.04074767 0.117170095 -0.06695003 -0.08982626
-0.04662594 0.038687605 -0.031860102 0.037967253 0.07612278 -0.009194024 0.091583066 0.03444214
0.104799606 -0.06924215 0.08061031 0.070322365 0.010571958 0.0639399 0.020387586 -0.015991075
-0.039066367 0.106072746 0.17620574 -0.060616113 -0.050189696 -0.062565595 0.058876343 0.096043885
-0.0062796264 0.048400015 0.01523217 -0.054897368 0.05305385 -0.10542515 0.0056063617 0.13598998
0.1204575 -0.042489816 0.0360145 0.0797091 0.014884625 -0.038086485 -0.04169514 -0.0007555334
-0.08196271 0.03640215 -0.061196584 0.03358945 -0.032612164 -0.04217482 -0.004978919 -0.013392391
-0.01711823 0.0037840463 0.042748604 0.027827919 -0.023799412 0.01789732 0.028610839 -0.022018924
-0.030821465 0.08059823 0.030616287 0.06565069 0.083307266 0.04369563 0.102986656 -0.056343187
0.0021353262 -0.010840139 0.07322195 0.07337927 0.053112745 0.006350749 0.0028703639 0.049553078
0.05838497 -0.0013106613 0.003606992 -0.073506966 0.037539683 0.013119141 -0.12738352 -0.051275384
0.031263497 0.012448846 -0.03161815 -0.072869 0.012519992 -0.01202795 -0.07076765 0.030972328
-0.0074301544 -0.052451294 -0.007642888 0.012035836 0.025483698 -0.010642782 -0.04551893 -0.0246572
-0.04431734 -0.034680795 -0.07974991 -0.10256756 0.016519058 0.032167763 0.05252683 -0.014504953
-0.030689212 -0.06743959 -0.006576744 0.046631236 -0.11858682 -0.0054317517 -0.039902862 -0.0333277
-0.0054819304 -0.031740874 -0.05829915 0.023036238 0.057596732 -0.08509751 -0.0017697754 0.016908107
-0.078927785 -0.009303751 0.061143246 0.028332843 0.020269204 0.052015435 -0.06410034 -0.0047910414

conv3.bias f4 [16]
00000000: 23b3 4bbd ddf1 1dbd 18e9 8c3d 7306 cb3b
00000010: 3e89 0ebd 2bf3 9dbd d04c 283d e4ff 573d
00000020: 5fee a9bc f15c 8e3c 3b70 cebc a4bb 463d
00000030: 12a6 42bd 4092 1d3d fa03 56bd d883 3d3d
-0.049731385 -0.038560737 0.068803966 0.006195837 -0.034798853 -0.07712396 0.04108888 0.05273427
-0.020743547 0.017378302 -0.0252 0.04851879 -0.04752166 0.038469553 -0.052249886 0.046268314

fc1.weight f4 [120, 784]
00000000: 7f05 b43c 3e1f 67bc 1eea 89bc d189 7cba
00000010: a44d 21bc 1c79 e23c 8d92 09bd 30cb 0c3d
00000020: 20f8 193d 3b15 993b 323e 3e3d 878e 183d
00000030: 50ca 18bd 139e f73b 97a4 8abc 399e 29bc
00000040: cc0c 4f3d b29e 043d 0f13 a93c 9484 1bbc
00000050: 42a9 53bd 60f3 823d 4d8c 17bd 4b0d f7bc
00000060: 5fa6 4ebc 66dc 85bd 6015 a2bc 3f19 cfbd
00000070: 01fd ec3c 12bd 083d 63b3 993c fc18 f0bc
00000080: 50c5 7cbc aaf8 0fbd 59f7 b2bc ce97 cfbc
00000090: 2b74 f03c 0539 093d 7187 4abb ffb8 a5bc
000000a0: db24 23bc cbab cd3c b6f5 443d a30f a6bc
000000b0: f67f bdbc 6d02 aebc ae98 013c 5338 01bd
000000c0: 02e7 c53c 90fb 2e3c aee6 413c a1d5 df3b
000000d0: e44f 2a3d 56f5 6ebc dab3 a83c 55e1 fabc
000000e0: 938d d4ba e48d 69bc 671d 243d d73d a1bc
000000f0: 6a30 0c3d 7098 c9bc 86dc c1bc 4f82 23bc
00000100: 9de5 0ebd 43c1 b2bc af7c 523d 0953 5c3d
00000110: 8161 7abd 6d2a d03c d6dd 943c dce0 703c
00000120: c52e ccbc 797d a43b bdb8 ad3c b449 d53b
00000130: 84b5 963c 1b35 f13b de64 2fbd 46d8 173d
00000140: a2a4 e23c 50a2 17bb b556 1cbd 66e7 eebc
00000150: ffe2 cfbc b1e6 c9bc c3f8 f03c fdba 763c
00000160: 242a 91bb 4236 4e3d 1af1 3bbc 46fe 2a3c
00000170: 5fb4 103d 963c 053d 5a62 033c 41d1 ddbc
00000180: a372 c7bc f22b 0bbc 1ac6 ea3c 0524 34ba
00000190: 2c3e 923a 3fb9 e73c 90b6 92bc 65be f7bc
000001a0: 1623 413b 5f2b edbc 9f2e 083d a70d ffbb
000001b0: 1c69 213d 1541 fc3b 8d7f 8c3b 5e9c 00bd
000001c0: 7fdd 083d 78f3 62bc ce82 263c 0436 c3bc
000001d0: 639b 99bc 9e2f a8bb 255b 153c af5a 4e3c
000001e0: e8da 113a 1de5 5ebd a006 413b ae57 ebbc
000001f0: e2fd 0dbd 2dcc 58bc 963d d2bc 8bd8 29bb
00000200: 697c 25bd 8e0a fdbb 177c af3c c24c f8bb
00000210: 5147 1cbb 68a8 debc f918 f6bc 26b2 0b3c
00000220: 072f 87bd 9345 303c f4a9 123d dbb1 543d
00000230: 1724 3a3d e35d a7bc b607 58bb 8b42 ee3c
00000240: 476a 113d e228 973c 6d29 f2bc 7ff3 e53c
00000250: bb99 92bc 99f6 e83b 28a4 10bd fb65 5bbc
00000260: 1991 86bc 349e 20bd d72e 5f3c f71c c3bc
00000270: d5a1 1fbd cc80 d4bc e24d 013d 6ef5 9a3c
00000280: e268 47bc d1ec 083d ba57 debc 6839 68bc
00000290: b14b 7c3c 8dc3 0039 f4e3 e13c a3e1 e13c
000002a0: d7b4 ab3c f3db 0cbd a481 8fbc 77df 0ebd
000002b0: de3d 6d3c acf6 fa3c 9c26 493c 3da5 4fbc
000002c0: f545 85bc bbb0 eb3b 6ae2 a7bc 1527 d1bb
000002d0: c715 1c3c e16b f8bc bb87 c23c 06a2 333c
000002e0: 502c e0bc cb72 ef3b 1d16 653c 1120 3fbc
000002f0: 8e7f 5b3c add6 19bc e346 23bb d085 0b3d
00000300: cfb7 1bbc f972 1abd f27f dbbb 4c05 a53c
00000310: 3ebe c9bc 941d 183d 3cad 0fbb 3a1b 963c
00000320: 0b74 b038 f2cc 653c e237 49bc 35a4 c8bc
00000330: 2f74 47bc a882 203b f3c1 88bc e516 1dbd
00000340: 9f2e 1abd c426 2bbd 69a7 52bd cced a63c
00000350: 0e39 10bd 7d05 71bd 69c5 7d3c 85bb ef3b
00000360: be10 73bc 44a9 0f3d 70f5 173d 7229 d3bc
00000370: 6f4c 0ebd 6238 11bd 449f 16bd 7564 523b
00000380: 60d1 4ebc e9fc 01bd 619b abb9 7bbc efbc
00000390: ccd1 e2bc 205d 66bb 3304 5ebc 8739 123c
000003a0: a62e c2bb b134 8d3b 3703 11bd 4488 01bd
000003b0: e817 3c3c aae9 97bc 4919 6fbb e59f 01bd
000003c0: 2e3e 78bc 3d56 b4bb 5f4f 6c3b 6858 a23c
000003d0: 9f19 1abd 8057 d2bc c5fd 493b ea85 8bbd
000003e0: d15e c43d 2c8d 9a3d 12cf e33c 6cce b9bc
000003f0: 35fb 213c 6d40 3dbc a58a 203d ba1c c0bb
0.021975277 -0.01410657 -0.016835269 -0.00096335734 -0.009845171 0.02764564 -0.033587027 0.034373462
0.037590146 0.0046717203 0.046446033 0.0372453 -0.037302315 0.0075566857 -0.016924186 -0.010352665
0.050549313 0.032377906 0.02063897 -0.009492058 -0.05167509 0.06394076 -0.036999036 -0.030157706
-0.012612908 -0.06536178 -0.019785583 -0.10112237 0.028929235 0.033383437 0.018762296 -0.029308788
-0.015427902 -0.035149254 -0.02184646 -0.02534094 0.029352268 0.033501644 -0.0030903483 -0.020229815
-0.0099575175 0.025106331 0.04808589 -0.020271128 -0.023132306 -0.021241391 0.007909937 -0.031547856
0.024158005 0.010680094 0.0118347835 0.0068308865 0.041580096 -0.01458486 0.020593572 -0.030625025
-0.0016216509 -0.014255021 0.040067103 -0.019682808 0.03422586 -0.02460882 -0.023664724 -0.009979798
-0.034886945 -0.02182067 0.05138844 0.053790126 -0.061128143 0.025410855 0.018172186 0.014702048
-0.024924645 0.0050198403 0.021206254 0.0065090302 0.0183971 0.007361067 -0.042820804 0.03707149
0.027666394 -0.0023137517 -0.038168628 -0.029163074 -0.025376795 -0.024646135 0.029415494 0.01505923
-0.0044300724 0.050344713 -0.011471057 0.0104366 0.035328265 0.032528482 0.008019054 -0.02707732
-0.024346655 -0.008494364 0.028658915 -0.00068718224 0.0011157445 0.028286574 -0.017909318 -0.030242154
0.0029470376 -0.028951345 0.033247586 -0.00778361 0.03940688 0.007698188 0.004287666 -0.031399123
0.03341436 -0.013851993 0.010163022 -0.023829468 -0.018750852 -0.0051326295 0.009115969 0.012594863
0.00055639306 -0.05441772 0.0029453412 -0.028728332 -0.03466595 -0.013232273 -0.025664132 -0.0025916423
-0.04040185 -0.0077222055 0.021421475 -0.0075775096 -0.0023846219 -0.027179912 -0.030041205 0.008526361
-0.06600767 0.010758775 0.03580661 0.05192743 0.045444574 -0.02043051 -0.003296358 0.029084465
0.035501745 0.018452112 -0.029560769 0.02807021 -0.01789557 0.007109475 -0.0353128 -0.013391013
-0.01642661 -0.039213374 0.013622007 -0.023817522 -0.038972694 -0.025940321 0.031568415 0.018915858
-0.012171002 0.03342897 -0.02714144 -0.014173843 0.015398906 0.0001227988 0.027574517 0.027573412
0.020960255 -0.034389447 -0.017517872 -0.03488108 0.014480082 0.0306352 0.012277272 -0.012673673
-0.01626871 0.007192699 -0.020493705 -0.006382833 0.0095266765 -0.030324878 0.023746362 0.010963922
-0.02736488 0.0073073856 0.013982323 -0.01166536 0.013397111 -0.009389562 -0.0024914078 0.03406316
-0.009504273 -0.037707303 -0.006698602 0.020144127 -0.024626847 0.037137583 -0.0021923324 0.01832353
8.413949e-05 0.014025914 -0.01228139 -0.024492363 -0.012173696 0.002449194 -0.016694045 -0.038351912
-0.037642118 -0.041785017 -0.051429186 0.020377062 -0.03521066 -0.058843125 0.015488961 0.0073160552
-0.014835535 0.035073534 0.0370993 -0.025776599 -0.03474086 -0.03545416 -0.03677298 0.0032103334
-0.012623161 -0.031735335 -0.00032731428 -0.02926468 -0.02768793 -0.0035150722 -0.013550806 0.008924848
-0.005925971 0.00430926 -0.035403457 -0.031624094 0.011480309 -0.018544037 -0.0036483577 -0.031646628
-0.015151544 -0.0055034445 0.003605805 0.019817546 -0.03762209 -0.025676489 0.0030821424 -0.068126515
0.09588397 0.07546458 0.0278087 -0.022681437 0.009886553 -0.011551005 0.03919472 -0.0058627995

fc1.bias f4 [120]
00000000: 03ae a53b b72f bd3c 97ee 3f3c 4a86 ff3c
00000010: 95f8 083d 3d82 a63b 4a96 093c 039f 183a
00000020: 977b afbc 7cb3 a2bc 15d4 32bd 2be4 d1bb
00000030: c3f0 e43c 91c2 ff3b a090 ffbc 03c1 9c3b
00000040: f252 c7bc d77d b4bc b18e 3f3c cb81 1f3c
00000050: 957a 61bc 50df 89bb cc3c edbc b543 ee3c
00000060: 214c 103d 7617 efbc ea02 ad3b 2e52 173c
00000070: dee9 05bd bccf ec3c 763a f43c fbe8 d1bc
00000080: 017c e9bc 92bb 263d bebf a5bc d3f2 593b
00000090: 9952 43bc aba7 f2bc 0dd3 97bb e741 4dbc
000000a0: b71c cdbc 5183 09bd b627 babc 0bcb 023d
000000b0: 655e 0fbd 95af 9c3b 6810 04bd 3ae9 aa3c
000000c0: a521 26bc ae28 013c b219 eabc b320 9e3c
000000d0: 6370 e2bb 8cab 3a3c 19f7 c4bc e97c 783c
000000e0: 610c 9ebc 4259 c0bc 9482 7339 8aed 89bb
000000f0: 18dd 81bb 78c4 843c d65d 0a3d 69c1 f83c
00000100: 325b dbbc 808b 98bc 46ea 75bc 42ca 8bbb
00000110: 7ac3 ed3c 50d9 1fbc 7672 0abd a67a 003d
00000120: 1e70 f73c 864f 8bbc dcd6 98bc e508 a1bc
00000130: 06f9 0bbc ff37 b3bc d5ad 64bb e0bd 06bd
00000140: 080c 233a 6df4 d03c 4f50 993c 1d2f 9a3b
00000150: b4a9 97bc 96b5 99bc d09e 0e3d bf4e fb3c
00000160: 61cf 43bc 1fd2 89bc 3c7b 973c 1ed9 f53a
00000170: 1b5b 343d 30df 1ebc 4410 4f3a afb7 b73a
00000180: 6793 b6bb 416c 063d 8f72 c0bc 8918 fdbc
00000190: d61d 403c 17f2 8f3b 16e6 793c c6f6 d33c
000001a0: ab20 11bc dbb3 9e3c baac dabc cda1 0c3d
000001b0: 8484 d03c 8220 ab3c 9f5e 043d ae76 ccbc
000001c0: 08b3 14ba ec76 633c 57df 71bc 3661 b9bc
000001d0: 7f5c 4dbc f2a2 0e3d a4fe bc3c d540 26bd
0.005056144 0.023094041 0.011714599 0.031191964 0.03344019 0.0050814436 0.008397648 0.00058220344
-0.021421237 -0.019860975 -0.04365929 -0.0064053736 0.027946835 0.0078051765 -0.031196892 0.004783751
-0.024331544 -0.022032661 0.011691735 0.009735535 -0.013762136 -0.004207529 -0.028959654 0.02908502
0.035228852 -0.029185992 0.0052798884 0.009235902 -0.032693736 0.02890765 0.029813033 -0.025623789
-0.028501512 0.040706225 -0.020233031 0.0033256307 -0.011921548 -0.029620966 -0.0046333135 -0.012527919
-0.025038106 -0.0335725 -0.022724014 0.031931918 -0.03500213 0.004781673 -0.03224221 0.020863164
-0.010139857 0.007883234 -0.028576706 0.019302702 -0.00691037 0.011393439 -0.024043607 0.0151665
-0.019293012 -0.023480061 0.0002322293 -0.004209225 -0.003963124 0.016206965 0.033780895 0.030365663
-0.026776884 -0.018621206 -0.015009468 -0.0042660544 0.029023875 -0.009756401 -0.033800565 0.031366967
0.030204829 -0.017005693 -0.01865714 -0.019657562 -0.0085432585 -0.021877287 -0.003489365 -0.032895923
0.00062197493 0.025507176 0.018715052 0.0047053234 -0.018513538 -0.018763345 0.034819424 0.030677198
-0.011951298 -0.016823826 0.01849138 0.0018756723 0.044032197 -0.009696767 0.0007898847 0.0014016534
-0.005571771 0.032818083 -0.023492126 -0.030895488 0.011725863 0.004392873 0.015252611 0.025874507
-0.008857886 0.019372871 -0.02669369 0.034333993 0.025453813 0.020889524 0.0323168 -0.024958935
-0.00056724297 0.013883334 -0.014762721 -0.022629362 -0.01253426 0.034823366 0.02307064 -0.040589172

fc2.weight f4 [60, 120]
00000000: 3ef0 923d e7e0 08bd a542 49bd fcf7 a5bb
00000010: 0fd6 6e3d aa54 343d 5655 ccbc 2d8d 3d3c
00000020: c983 fdbc 97f6 383d cce6 953d 8af8 a1bd
00000030: 70b5 bd3d ef5c bcbd 4b35 b83b abb9 283d
00000040: 6963 98bd f767 cb3d 910e 9ebd a531 a0bd
00000050: 8b03 ac3c d25a 813d 983a 5bbc c10d d1bc
00000060: 3493 a03d 791d 17bc fd0f 7abd e6c1 03bd
00000070: 0519 50bc b67a 9dbd 3669 07bd 12c2 063d
00000080: e25d c83d f7ee 583c abcc 92bd 6484 b03d
00000090: e20b c1bd c161 f53c 74c4 e0bc d4de 653d
000000a0: bff7 84bd 6d07 bf3d c517 a8bd 293b 243c
000000b0: 1a64 ea3c a017 6abd e882 6abd 8acf 973d
000000c0: 1576 db3c 1b8c 323c c035 afbd 8a02 e73c
000000d0: 8823 4dbd f51d 93bc 0604 253d 0adc a1bd
000000e0: 2207 0cbd b027 6cbd 9364 8b3d 3a75 3dbd
000000f0: f94e d1bc c3a6 c43c f30c cebd cf2f 7d3d
00000100: 4f9d 9cbd 5f73 2fbd 0144 d0bc d880 acbd
00000110: 6294 0a3e 828a 113d 2576 af3b 1de7 febc
00000120: 41dd 61bd 7ef6 ab3a 3197 aebd dce9 663d
00000130: c85f 07be f94c 95bd 08ad bc3d 2b94 3cbd
00000140: 1433 38bc 9877 9f3c d2f2 8fbd 776c 6e3d
00000150: 5bdb df3d 3f13 8fbd b7db 9bbc 1d51 92bd
00000160: aa8f 8bbd c2c0 29bd cadd bbbd cb43 6dbd
00000170: 1a07 a13d bfe7 41bd 1176 cf3c 4a1c 06bc
00000180: 2e40 0abd 5018 f4bc 472d 773d cb2c 11bc
00000190: f5f0 ebbd e067 7ebd e41e c93c 30fd abbc
000001a0: 2de3 0dbd 5360 913d 2b02 b8bd f15f 713c
000001b0: 0cc4 553d 52c4 fe3c 0fa0 8dbd 2144 813c
000001c0: fe47 bb3c 8502 e9b9 d922 b73d 400d 103d
000001d0: 8304 cf3d cfbb 9bbd 6af8 5abd c433 703d
000001e0: b4c0 a33c 4a51 833d 5551 08bd 384f 273d
000001f0: 5c3a dfbc b66f a4bd 8b6e 49bd 3750 03bd
00000200: 4162 ee3c e217 f9bc 5d03 383c 9ee2 823d
00000210: 0f3d 283d c7fe 88bd 34ef 633d 430b fd3b
00000220: f396 a3bd 8397 0fbc c25c 93bd 3e04 68bd
00000230: 7337 af3d e71f cebc 4a6d 0abd 891b 20bd
00000240: 137a 133e 9e27 1e3d 896d 8c3d d37f cabd
00000250: 4d1f 67bd b7cd 3e3b 5ef8 6b3d 7e86 963d
00000260: 6459 943d 62c6 eebc 65ae 5bbd bce3 51bc
00000270: 4d13 a23c 1b4c 993c 3cb4 27bd 937a 73bc
00000280: 9503 a0bc 7b86 a23d f229 62bd d2d3 9fbd
00000290: da75 7bbd 8ead 17bd 1610 033e db62 463c
000002a0: 315c a63d f74a c6bd 9f4d cc3d d0e8 ce3c
000002b0: 2c47 32bd c9e7 cabc 30a6 443c 1b7e 9bbd
000002c0: 7344 a23c 3ba4 593c 1fa5 d83c 31cf 353d
000002d0: 4c05 013d 69a2 3f3d 6e30 fb3c b605 a1bd
000002e0: 9ec4 abbc beeb 99bc c739 aebd 80ec 07bd
000002f0: 4c9f 9b3d 29f8 06bc 7f7e 5b3d d48e 5e3c
00000300: bf4a d2bd 4402 b1bd 5fdb a53d 7877 603c
00000310: 2e90 8f3d 9f7e 9e3d 2974 b23c b64d e7bd
00000320: a4d5 ce3d 1c36 b23c 11bd b7bd a55c 243c
00000330: 92a1 7e3d 6479 143d 51fa cc3c 1c54 b3bd
00000340: 7907 0abc 4374 8c3a 54b6 fdbd 6aa7 bebd
00000350: 52fe d4bd c3a3 cebd 11d0 cdbd a8b6 a23d
00000360: b3f2 8ebc 17f9 e3bc 8d8e ba3d ea4e a53d
00000370: 7322 913d 88ea d53c dd42 903d 48a7 b03d
00000380: 98f4 2a3d fe8f 0fbb 967e 653d 20ad 48bb
00000390: 6f5e 16bd fe0a 30bc 43ae 183d 6a79 823c
000003a0: 5ec1 4a3c e44c d63d 1d26 683d 2bbd 123d
000003b0: 1593 72bd eb90 d8bd 8182 0ebe 9d95 ac3d
000003c0: e3cd e43c ee94 8d3d 9eb9 20bd 4717 4f3d
000003d0: 139e 9dbb b4c0 21bd 4f91 efbb 71c3 1abd
000003e0: 30bd aabd 1500 57bd cbe6 75bd 107c b7bc
000003f0: 3b8a 9abd 8d1d afbd 44b3 93bd 3be6 90bd
0.07174729 -0.03341761 -0.049135823 -0.0050649624 0.05830961 0.044026054 -0.024943035 0.011569303
-0.03094663 0.04515704 0.07319412 -0.07908733 0.09263122 -0.09197413 0.0056215874 0.04119269
-0.07440836 0.09931939 -0.07717622 -0.07821969 0.020997783 0.06316151 -0.013380669 -0.025519254
0.07840577 -0.009223335 -0.061050404 -0.032167338 -0.012701278 -0.07689421 -0.03305932 0.032899924
0.09783532 0.013240567 -0.071679436 0.086190015 -0.094260946 0.02995384 -0.027437426 0.05612071
-0.06492566 0.09327588 -0.08207659 0.0100238705 0.028612185 -0.057151437 -0.05725375 0.07412632
0.026789704 0.010897662 -0.08555174 0.028199453 -0.050082713 -0.01795862 0.04028704 -0.07903297
-0.03418649 -0.057655036 0.068062924 -0.046254374 -0.025550352 0.0240053 -0.100610636 0.061813172
-0.07647192 -0.042834636 -0.025423052 -0.084230125 0.13533166 0.035532482 0.00535466 -0.031116063
-0.055142645 0.0013119725 -0.08524931 0.05637537 -0.13220131 -0.07290072 0.092126906 -0.04603974
-0.011242647 0.019466206 -0.07028736 0.05820891 0.109305106 -0.06986093 -0.019025667 -0.071443774
-0.06814511 -0.041443594 -0.09173162 -0.05792598 0.07862683 -0.04734015 0.025324853 -0.008185456
-0.033752613 -0.02979675 0.060345914 -0.008860777 -0.11520568 -0.06211078 0.024550863 -0.020994753
-0.03464048 0.070984505 -0.089847885 0.014732347 0.052188918 0.031099472 -0.069152944 0.015779557
0.022861477 -0.000444431 0.089421935 0.035168886 0.101082824 -0.07604181 -0.053459562 0.058643118
0.019989349 0.06411989 -0.03328069 0.040847033 -0.027249508 -0.0802912 -0.049177688 -0.03205892
0.029099585 -0.030406896 0.011231271 0.0639088 0.041073855 -0.0668922 0.055648044 0.0077222898
-0.07987776 -0.008764151 -0.071954265 -0.05664467 0.08555498 -0.025161697 -0.033795632 -0.03908876
0.14402036 0.038612 0.0685683 -0.09887662 -0.056426335 0.0029114315 0.05760991 0.07349871
0.072436124 -0.02914733 -0.053633112 -0.012810644 0.019784594 0.018713048 -0.04094337 -0.014860767
-0.019532958 0.07935806 -0.055215783 -0.078040734 -0.06139169 -0.03703075 0.12799105 0.01210853
0.08123053 -0.09682267 0.099757425 0.025257498 -0.043524906 -0.024768727 0.012002513 -0.07592412
0.01980803 0.0132837845 0.026445923 0.044387046 0.031499192 0.046785746 0.030662742 -0.078624174
-0.020967778 -0.018789168 -0.08507114 -0.03318453 0.07598743 -0.008237877 0.053587433 0.013583858
-0.10268163 -0.0864301 0.08098482 0.013700359 0.07009922 0.07738995 0.021783905 -0.11294119
0.100993425 0.021754317 -0.089716084 0.010031854 0.062165804 0.03624858 0.025021704 -0.08756277
-0.008424633 0.0010715801 -0.12388292 -0.093092754 -0.1040007 -0.10089829 -0.10049451 0.07944995
-0.017449712 -0.027828736 0.09109221 0.08071692 0.07086649 0.02611281 0.07044003 0.08625656
0.04173717 -0.0021905894 0.056028925 -0.0030620769 -0.036711153 -0.010744808 0.037275564 0.015927035
0.012375204 0.104638845 0.056676973 0.035824936 -0.0592223 -0.10574516 -0.13916971 0.08426974
0.027930206 0.06913172 -0.03923952 0.05055931 -0.0048101037 -0.039490417 -0.0073110233 -0.037784044
-0.08336866 -0.052490313 -0.060034554 -0.022398025 -0.075458966 -0.08550558 -0.072119266 -0.07075163

fc2.bias f4 [60]
00000000: 98fe 34bc 1561 0fbe eafa 973d 85d0 9f3d
00000010: d906 f7bc 0488 6a3d 7ef1 b7bd 7ae2 acbd
00000020: 2da7 9cbd 6eef ab3d 1344 b73d d69c df3c
00000030: c00e fabb d88c b63d 2462 183d 0662 61bd
00000040: 0531 9a3d 6b4e d23d 22b6 1abd 0eb6 043e
00000050: 156c 873d 4eab f83c b82f 4cbd b208 4cbd
00000060: 8f59 463d 4a50 7c3d b570 9ebc 84cc 043e
00000070: b850 ddbd 4e2b 91bd c6de 1d3d 8b8c ef3c
00000080: e413 fd3c 1c21 bcba 4d96 e93d e6be bcbb
00000090: 440e b73d be8c 343d 9db3 b1bd a728 6f3b
000000a0: baa9 c53a 5c61 25bd 7d30 9fbd 7437 bcbd
000000b0: d2ec ee3c 6f8e 303c b1bd 0abd 8de8 95bc
000000c0: 5deb 79bb 6c2e d13d 0152 3bbd 759a 39bc
000000d0: d166 6bbd af08 b53c 13dd 433d 6d51 003e
000000e0: 4a21 8a3c 4182 ff3d ab1b b63c 58b7 423c
-0.011047028 -0.14001878 0.07420905 0.07803444 -0.030154632 0.05725862 -0.08981608 -0.084416345
-0.07649074 0.08395277 0.08948531 0.027296465 -0.007631153 0.089135826 0.03720297 -0.055025123
0.07528881 0.10268863 -0.03777135 0.12960073 0.06612412 0.030355122 -0.049850196 -0.04981298
0.048425253 0.061600007 -0.019340852 0.12968642 -0.108064115 -0.07088338 0.03854253 0.02924182
0.030893274 -0.0014353129 0.11405621 -0.0057600616 0.08938268 0.044079535 -0.08676837 0.0036492737
0.001508049 -0.040376052 -0.0777292 -0.09190264 0.02916566 0.010776146 -0.03387231 -0.018299365
-0.0038134672 0.102139324 -0.045732502 -0.011328329 -0.0574711 0.022098867 0.047818255 0.12531061
0.016861577 0.12476016 0.02222999 0.011884533

fc3.weight f4 [11, 60]
00000000: 672c 8439 5ecb 09bd faf0 c6bd 37a8 813c
00000010: be09 8abd cfd2 32be 50b8 81bd 4ba2 bd3d
00000020: c555 123e 5f85 a73d cec2 1c3e 42d3 96bd
00000030: 250e 19bd 823e 95bd 7fa0 09be 63b1 3ebe
00000040: 14cb 07be 417e 0b3d 2755 28bc d6b1 993d
00000050: 6f54 96ba ffbc 44bd 3d18 343e 12b9 ff3c
00000060: c67a 19be 00dd 473d d294 b93c 2879 35be
00000070: 147a 1f3e 7480 083e e7d6 763d b14f 153d
00000080: c17e 8d3d 0330 143d beae 24be 39ca a7bd
00000090: 8f47 d1bd 0376 d13d 56a2 493d 395c 053d
000000a0: ca79 60bd 3f46 82bc 6cbd 0d3e 2374 a53c
000000b0: 3b8f 41be b2db 383e 8d73 323d 676e 08bc
000000c0: a4c2 713c 4689 ef3c d521 f73d 2191 a93d
000000d0: 4f93 143e 6dee 843d e5cc 3e3d 6b31 1cbe
000000e0: b832 23be 93e2 44bd ab31 aebb 332d d0bd
000000f0: 78d9 12bd 56af 0e3e 031d efbd f688 60bd
00000100: 530c 013e 7d50 1cbd 63e7 863a 3a45 ad3c
00000110: 385c 2fbe 3520 e93c d8be 13be fd84 a63d
00000120: 3787 80bd 202f 7abd 475c aa3d 49e7 2f3e
00000130: 2efb 933c a033 953c 8284 bbbd 2e5f d0bd
00000140: 09ab cb3d 7427 e03c ab8a 083e 69ae 1d3e
00000150: 3d62 23be 3147 00bd b268 0a3e a00e 25bd
00000160: a6d4 063e 7556 04bd 7289 1abd 6dab 47bc
00000170: 2008 0abd 6fa9 853d 8514 34bd 5223 5bbd
00000180: 9f42 5c3d b38f 8ebd 5546 883d 995b c43d
00000190: cf1b 1dbd 9044 37bd ffea b63c e1f7 8f3c
000001a0: 3d41 a4bd 5d0b 473d 5383 34be f66f b93d
000001b0: 2253 5ebd 8171 453b f3fc 0a3e a02a aa3c
000001c0: c05e 953d 5f7e 49bb 05b2 35bd 6e7b 15bd
000001d0: 7c99 163e 4580 9ebd b143 49bd 69d6 763b
000001e0: b14d b63d 38cb a7bc 2e0b 0cbe 50b0 ffbd
000001f0: ae4c 953d db5b cbbc 66fe 7d3d 7a39 9abc
00000200: 1a5c a9bd 75a4 c43d 2332 38bd 8faa 5ebb
00000210: 9c92 db3d 9956 013e 7dfb 83bd 2a08 56bd
00000220: c675 3dbd 84b9 d3bd deec 8fbd 0011 683d
00000230: 5ead b1bd 0402 a8bd 3508 153e e1ec 00be
00000240: 3386 9f3d b9e8 023e 88c1 b03d 1062 a4bd
00000250: 082a f8bc 577d 8b3c 2d50 0f3e b3c9 bb3d
00000260: 5416 9abd bdf7 2fbd 800a 95bd 41c7 d7bd
00000270: ccac a4bd 84fb 053e dd60 a8bc 9710 133d
00000280: f4f4 cc3d 2159 0ebe a7af 6f3d 501e 83bc
00000290: 304a 9c3d 4523 12be 33f8 133d 99d6 2f3d
000002a0: d97e 373e a983 883c 9c64 c53d 01d0 f3bd
000002b0: 45b8 5f3c 6425 bbbd 32be dabd 7fc7 403e
000002c0: 4e2f 62be b79b ae3d a066 96bd db18 c7bc
000002d0: b2d1 1f3e 12fd 803d 2520 30bd 167f 043e
000002e0: 1fe2 93bd d201 313e 06e8 abbd 8634 103c
000002f0: b5dc b0bd 9f36 0b3d 82cd b33d 2a3e 04be
00000300: 1a3d e8bb 0f5c 81bd 14f1 e83d 6f11 093e
00000310: dde4 383e 33ed 32be 310e 6b3d b0b2 09bc
00000320: 328c 423e c0e1 1e3d 522c 303d 7b28 103c
00000330: 3f0c 00be 06b7 26bd 9ee0 ec3c 0fae ca3d
00000340: 8677 4e3d 8d9b d43d 9472 9a3d bb41 c53d
00000350: ce1f 623c c215 b7bd a58b b2bd 1d7e 30be
00000360: 4663 cf3d d59e 5ebb e4b4 1f3e 1fb3 963b
00000370: 0ca2 2bbd c056 e63d 152a 02be 4eaf 923d
00000380: f7b7 c3bd 1bd4 00bd 95b9 023e f6ce 01be
00000390: 1bb1 acbd f235 95bd 7796 bebc d013 99bd
000003a0: 1ebd debd 4415 10ba b3c2 c73d bd24 12bd
000003b0: 5e13 c03d 4c6d b3bd dab1 db3d 6edb 44be
000003c0: 28de a03d 2e2b 85bd d30f 5b3d b187 ab3c
000003d0: 9343 0c3d 33f7 3cbe 99e4 e93d 03bb d6bd
000003e0: 1341 283e 2ad9 cabd 1bff 9b3d 09ed e3bd
000003f0: 182b b13c 2a78 003e b1a1 373d 38e9 42bd
0.00025210084 -0.03364121 -0.097139314 0.015827281 -0.067401394 -0.1746323 -0.06333983 0.092594706
0.14290531 0.081797354 0.15308687 -0.07364513 -0.037367005 -0.07287313 -0.1344013 -0.18622355
-0.13261062 0.034055952 -0.010274208 0.07504623 -0.0011469255 -0.048031803 0.17587371 0.031216178
-0.1498824 0.048794746 0.02265397 -0.17721999 0.15573913 0.13330251 0.06026354 0.036452953
0.06908942 0.0361786 -0.16082284 -0.08192868 -0.10218727 0.10227587 0.04922708 0.032558654
-0.054803647 -0.015902637 0.1384179 0.02019698 -0.18902294 0.18052557 0.04356723 -0.008327103
0.014755879 0.029240262 0.12067 0.08279634 0.14509319 0.064907886 0.04658212 -0.15253226
-0.15937316 -0.04806764 -0.0053159795 -0.10164871 -0.035851926 0.13934073 -0.116754554 -0.054818116
0.12602358 -0.038162697 0.0010292347 0.021151174 -0.17125022 0.02845774 -0.1442827 0.08130834
-0.0627579 -0.0610801 0.08318382 0.17178072 0.018064108 0.018213093 -0.09156133 -0.10174404
0.09944732 0.027362563 0.13334148 0.15398563 -0.15955444 -0.031317893 0.135165 -0.04029715
0.13167056 -0.032309014 -0.037728734 -0.012186867 -0.033699155 0.065264575 -0.04396488 -0.05350048
0.053774472 -0.06961002 0.0665404 0.09587783 -0.0383566 -0.04474312 0.022328852 0.017574253
-0.08020256 0.04859482 -0.17628221 0.09054558 -0.0542785 0.0030127468 0.13573055 0.020772278
0.07293463 -0.003074549 -0.044359226 -0.036494665 0.14706987 -0.07739309 -0.04913682 0.003766442
0.08901537 -0.020482644 -0.1367614 -0.12484801 0.07290016 -0.024824074 0.06201019 -0.018826235
-0.0826952 0.0960168 -0.04496969 -0.0033976173 0.10721323 0.1263069 -0.06444452 -0.05225388
-0.046254896 -0.10338119 -0.07027601 0.056656837 -0.08675645 -0.082035094 0.14553912 -0.12590362
0.07789268 0.12784089 0.08630663 -0.080265164 -0.03029348 0.01702754 0.13995428 0.091693304
-0.0752379 -0.04296087 -0.07277393 -0.105360515 -0.08040771 0.13084227 -0.020554 0.035904493
0.100076586 -0.13901187 0.058517125 -0.016005665 0.07631338 -0.14271267 0.036125373 0.042929266
0.17919482 0.016664343 0.0963833 -0.11904908 0.013654773 -0.09137991 -0.10680808 0.18826102
-0.22088358 0.08525794 -0.07343793 -0.024303844 0.15607336 0.06298269 -0.042999405 0.12939104
-0.072208636 0.1728585 -0.08393864 0.008801585 -0.086358465 0.033987638 0.08779432 -0.12914339
-0.007087362 -0.06316387 0.11374107 0.13385557 0.18056054 -0.17473297 0.05738658 -0.008404419
0.18998793 0.03878951 0.043011017 0.008798714 -0.12504672 -0.04070189 0.0289157 0.0989648
0.050406955 0.103812315 0.07541385 0.09631678 0.013801528 -0.08939697 -0.08718041 -0.17235608
0.10126357 -0.0033969183 0.15596348 0.0045989896 -0.041902587 0.11247015 -0.12711366 0.07162343
-0.09556573 -0.03145228 0.12766106 -0.12676606 -0.08432218 -0.0728568 -0.023265107 -0.07474482
-0.10875915 -0.0005496333 0.09753933 -0.035679568 0.09378694 -0.08761081 0.10727282 -0.19224331
0.07854873 -0.065023765 0.053481888 0.020938726 0.03424413 -0.18453674 0.11420555 -0.104848884
0.16431074 -0.09904702 0.07617017 -0.11129195 0.021626994 0.12545839 0.044831935 -0.047585696

fc3.bias f4 [11]
00000000: 38da 88be 7d80 a2be b1de b63c 36be a03d
00000010: 07be ddbd 814b 5c3e 9742 ed3d 33a5 933c
00000020: 7e5c 7dbd 6702 6a3e 06b2 093d
-0.26728988 -0.31738654 0.022322984 0.0784878 -0.108272605 0.21513177 0.11584967 0.018023109
-0.061855786 0.22852479 0.033617042
